GN0/model/GCN_model.pt (torch, 53346 bytes, 65 tensors)

glob_init f4 [1, 16]
00000000: 31c1 60bc bace 8abc dfbf 02bc febc 23bc
00000010: 8b10 3f3c ef78 f7bb 5e17 7a3c d2f2 50bb
00000020: 3ea6 d13b 22d3 3c3b b8e6 1e3b e158 b8bb
00000030: 7265 5c3c d746 54bb d0a4 653f f4bf d33b
-0.013717935 -0.016944278 -0.007980316 -0.00999379 0.011661659 -0.007552258 0.01526436 -0.0031883013
0.0063979914 0.0028812368 0.0024246406 -0.0056258296 0.013451921 -0.0032390857 0.8970461 0.0064620916

convs.node_to_node_lin.weight f4 [16, 3]
00000000: 8fd5 17bf e59e ab3e 2cd4 82bf d223 af3f
00000010: 8413 ce3e a3fe b4bf 7033 8dbf 299e 013f
00000020: 3d27 c8bf 1481 14be 22d7 38c0 44ef cc3f
00000030: 649a 9d3f 47ba 443f 0681 d83e dced 1fbf
00000040: 496b 92bf 794a d23e 69f6 11c0 6ff9 8fbf
00000050: eb22 33c0 6cc8 cc3f 33b2 4f3f f441 933f
00000060: 1f54 d03f d0fd f5be 654b 8cbf 24f7 adbf
00000070: 3944 afc0 6ac4 793f 8e08 78c0 2b16 05c0
00000080: e970 10c0 d628 0dc0 831d babf 96bc d2bf
00000090: 2d3d 843f b377 5fbf 804a 583f f0b2 64c0
000000a0: e07b 6dbe 3970 2fbf 2cfe 423f 6fd0 14c0
000000b0: 5522 803e 9a16 b2bf 3a2d 2b3f bca5 f2be
-0.5931024 0.33519664 -1.0221 1.3682806 0.40249264 -1.4140209 -1.1031322 0.5063196
-1.5636975 -0.14502364 -2.8881307 1.6010518 1.2312741 0.76846737 0.42285937 -0.6247232
-1.1438991 0.41072443 -2.2806647 -1.1247996 -2.7990062 1.5998664 0.81131285 1.1504502
1.6275672 -0.48045206 -1.0960509 -1.3591046 -5.477078 0.9756533 -3.8755221 -2.079478
-2.2568915 -2.2056174 -1.4540256 -1.6463802 1.0331169 -0.8729202 0.8448868 -3.5734215
-0.23191786 -0.68530613 0.76169086 -2.3252218 0.25026193 -1.3913147 0.66865885 -0.4739207

convs.node_to_node_lin.bias f4 [16]
00000000: 494e f3bd 19c0 883d 6e8c b03e 2bf3 90be
00000010: c2d3 8cbe ce23 e93d 215d 773f 9606 3cbf
00000020: a193 91bd 5ada 033f 0cf4 693f 956f 163f
00000030: aba9 b93d 26d9 8c3f bed7 a13d f918 af3e
-0.11880166 0.06677265 0.3448214 -0.28310522 -0.27505308 0.11383782 0.9662648 -0.7344755
-0.07108236 0.51505053 0.9138801 0.5876401 0.09065565 1.1003768 0.07902478 0.3419874

convs.glob_to_node_lin.weight f4 [16, 16]
00000000: da36 0d3c 0fd5 e93d 3e00 d8bd 520e dbbe
00000010: 04c1 da3e a95c 5e3e 685a ae3e 3833 6ebe
00000020: a5af bd3e b86a 453e 2277 fa3d 4361 f5be
00000030: 9719 b03e 066f 27bd 9603 0d3d f16e a73e
00000040: 44c1 ecbc 30e7 323d 50cd adbd 51d9 45bc
00000050: f994 ecba 7a36 653d f34d 02bd 4416 393d
00000060: 0803 2dbd 55ab e1ba 2bb3 af3c b8e1 ca3c
00000070: 2847 e63c 8783 9f3c c1d8 0dbf 0e29 83bc
00000080: 3255 ae3e a80b a1be fccf 35be d9b4 5f3e
00000090: cd30 87bd 6224 a0bd fa03 803d eb9f 213d
000000a0: 393b 18bd 9f63 3b3e eb3f a7be c89c 1d3d
000000b0: cfb9 69bd b154 7fbe c9b4 c5bd a1e3 973d
000000c0: b0ba 09be 2c8a 59be cf13 cbbe fad0 63bd
000000d0: 8e6b 773d 6765 9b3b 2b81 2e3e 88ba 25bd
000000e0: b189 b1bd 7389 5dbd e874 2cbc ea7d dbbc
000000f0: 6d02 a53d 91d9 36be e884 4cbe feba e5bd
00000100: a195 a3bc 64e1 1cbc 1501 c4bc 6b25 523e
00000110: addb 933d f8e1 d6bd ff83 dc3d 8ea7 8ebd
00000120: e839 cf3d 824b 17be b2dc 053e 5cde 29be
00000130: 2d13 53be b3cd febd 2d4f 27bf 900e 433c
00000140: 0ee8 e9bc 0521 283e 4dfe 0dbe 3bc9 fcbe
00000150: b93b babe ff57 653e 9f64 adbc caa2 7d3d
00000160: 2c1b 84bd 416e 6f3e 3166 7fbe 697e c73e
00000170: d031 003f 163c 853c d046 e2bd ab0a 67be
00000180: c10a 863d 62da 57bd 680e 333d 403c 4cbd
00000190: 80c4 93bd 29e0 6ebd 08d6 d33c ede5 4bbd
000001a0: cb13 893d cb95 923d 7ae7 71bd 257d 9e3d
000001b0: 89b4 a03c 035e 463d be4e 123f 3920 793d
000001c0: 6e50 23bd 53f7 29bd 8cc1 8bbc 5a31 11bd
000001d0: 4aa2 6c3c 0075 55bd 01be 16bc cdf1 8bbc
000001e0: ea13 753c 9f1d ca3c 5edf c33c f6c3 b6bb
000001f0: 6b09 583d 2a09 4abd ca4c ecbe 65d4 523c
00000200: 41cc e83d d5f5 2fbd bfaa 913d 5b28 b93c
00000210: ac59 83bd a98b ddbd 0edf d3bb 610e 07bd
00000220: eecd b33d 9494 1e3d e2e7 13bd f7d5 fa3c
00000230: bd7f c3bc a008 c73d c669 d4be 676e a53d
00000240: 9000 8dbc c015 c73a 21dd 65bd 85fd 413c
00000250: a245 7a38 d896 963c 8dad 28bd 8fe3 5b3e
00000260: d90b d1bc 57cf 65bd 6bda 363a e29d 103c
00000270: 72d8 073d 9842 72bd 1907 a43e a66c cfbc
00000280: 7758 40bd de96 47bb d4f3 e2bd 3d5e 65bc
00000290: 230b 623c f758 2f3c 66e9 073b d2dd 073e
000002a0: 3d6a 05bc 19b8 283b d7ba afbb 2186 1b3c
000002b0: 55e6 e13c 717e 08bd 76a3 103f 82b3 aabc
000002c0: 0c79 58bc ce29 83bd e26a 8fbd 4408 43bd
000002d0: 89bc c3bb a74d 1abb 7f4a 833d 3954 9d3c
000002e0: 3ef9 b03b ecca ab3c 0a27 1cbd 2a58 5e3c
000002f0: fbd2 253d 8a3b 9c3b db51 193f a2e9 b13c
00000300: 24ec e6bd 0580 7e3d a510 00be be37 a43c
00000310: 0192 ea3c bcd2 593e 203e 97bd 6a33 ac3d
00000320: ded4 61be 0640 a0bd 2b48 be3c 3b56 40bd
00000330: 98f3 c4bc 2260 fabd 3838 c5be 8b7c 5ebe
00000340: 361e 0fbd e597 b93c 35fb f53c 0463 b23c
00000350: 1f2c f53c 3002 b93d 655e 15bd 442d dfbc
00000360: a587 d2bd 2cdb 42bd 2f1d cc3c 5c79 5cbd
00000370: d909 eabc 3590 7abd 9d21 2b3f 80c6 eabd
00000380: 78e5 b2bc 65fc 8bbe 5ad4 70be 093e 84be
00000390: c1d8 cb3d f739 2abe 7a55 393e 9911 19bd
000003a0: 0cfd 613e bc87 523e 5b59 dbbd 6180 b13d
000003b0: 46ff b33e dc1b 7fbb f0db 47be 9e91 5e3e
000003c0: 94f4 adbd bc2a 093d a4a7 e1be 194b 9ebe
000003d0: 59c1 5dbf 3911 adbe dacc 2a3e c576 403f
000003e0: 49af f6bc e307 933e 0f11 54be 48c3 bb3e
000003f0: ae21 543e 1fe4 21be 2733 3a3d 52ca 8d3d
0.008619035 0.11417591 -0.10546921 -0.42784363 0.42725384 0.21715035 0.3405335 -0.23261726
0.3704807 0.19278991 0.12229754 -0.47925767 0.34394524 -0.040877365 0.034427248 0.3270183
-0.02890075 0.04367751 -0.08486426 -0.012075738 -0.0018049768 0.055960156 -0.03181262 0.04518725
-0.04223922 -0.0017217199 0.021447739 0.024765834 0.028110102 0.019471897 -0.55408865 -0.016010787
0.34049374 -0.31454206 -0.17755121 0.21846332 -0.06601105 -0.078194395 0.062507585 0.03945915
-0.037165854 0.18299721 -0.32665953 0.038479596 -0.057061967 -0.24934651 -0.09653623 0.07416464
-0.13450122 -0.21244115 -0.3966355 -0.055619217 0.060405307 0.0047423127 0.17041461 -0.040461093
-0.08668841 -0.05408616 -0.0105259195 -0.026793439 0.08057103 -0.17856432 -0.19972575 -0.112173066
-0.01996881 -0.009575222 -0.023926297 0.20522086 0.07219634 -0.10492319 0.10767364 -0.06965552
0.101184666 -0.14774898 0.1307247 -0.1658873 -0.20612784 -0.12441578 -0.6535519 0.011905327
-0.028553035 0.16418846 -0.1386654 -0.49372277 -0.3637369 0.22396849 -0.021166144 0.061922826
-0.06450495 0.23381902 -0.24941327 0.3896363 0.5007601 0.016264003 -0.11048663 -0.22562663
0.0654502 -0.0526985 0.04371491 -0.049862146 -0.07215214 -0.058319245 0.025858894 -0.04977982
0.06693228 0.07157477 -0.059058644 0.07738713 0.019617336 0.0484295 0.571514 0.060821746
-0.039871626 -0.041495632 -0.017060064 -0.035447456 0.01444299 -0.052113533 -0.009200574 -0.017083073
0.014958361 0.024672328 0.02391022 -0.0055775596 0.052743357 -0.049325146 -0.46152335 0.012868022
0.11367083 -0.042959053 0.07112645 0.02260225 -0.06413588 -0.10817654 -0.006465799 -0.032972697
0.08779512 0.038715914 -0.036109813 0.030619605 -0.023864621 0.09718442 -0.4148695 0.08077698
-0.017212182 0.0015188977 -0.056119088 0.011840229 5.9669495e-05 0.018382475 -0.041181136 0.21473525
-0.025518345 -0.056105938 0.0006975296 0.008826705 0.033165403 -0.05914554 0.32036665 -0.025320362
-0.046959367 -0.0030454914 -0.11081663 -0.013999519 0.0137966005 0.010702363 0.0020738482 0.13268211
-0.008143005 0.0025744496 -0.005362849 0.009492428 0.027575651 -0.03332371 0.5649942 -0.02083755
-0.013212454 -0.06404458 -0.07002808 -0.047615305 -0.005973403 -0.002354482 0.064106934 0.0192052
0.0054008057 0.020970784 -0.038123168 0.013570825 0.04048441 0.00476784 0.59890527 0.02171785
-0.11275509 0.062133808 -0.1250635 0.020046111 0.028634073 0.21271795 -0.07384896 0.08408244
-0.22053859 -0.078247115 0.023227772 -0.046957236 -0.024041936 -0.12225367 -0.38519454 -0.21727197
-0.03494092 0.022655437 0.030027011 0.02177573 0.029928265 0.0903362 -0.036466975 -0.027243264
-0.102797784 -0.0475723 0.02491626 -0.053826675 -0.028569149 -0.061172683 0.66848165 -0.11463642
-0.021837935 -0.27341 -0.23518506 -0.2582858 0.09953452 -0.16623674 0.18099013 -0.037370298
0.22069186 0.20559591 -0.107104026 0.086670645 0.35155696 -0.0038926518 -0.19517493 0.21735236
-0.08493915 0.03348802 -0.44073212 -0.3091667 -0.8662315 -0.33802202 0.16679707 0.7518123
-0.03011288 0.28716955 -0.20709632 0.36672425 0.20715973 -0.15809678 0.04545894 0.06923355

convs.glob_to_node_lin.bias f4 [16]
00000000: 5deb 5f3c e8ca c9be 1929 02be a806 73be
00000010: 343d 05bf e2cd 1e3d 7f8b c73e 1086 cfbe
00000020: 81aa 68bd 05d1 243e 4d24 d43e c5fc 143f
00000030: f854 01bf a34b 433f c306 05bf 5114 4abe
0.013666955 -0.39412618 -0.1271099 -0.23733008 -0.52046514 0.038770564 0.38973615 -0.4053197
-0.05680323 0.1609536 0.41433945 0.58198196 -0.5052028 0.7628729 -0.5196344 -0.19734313

convs.glob_to_glob_lin.weight f4 [16, 16]
00000000: 8f9c ac3e 4476 14bf 0091 22bf 3374 4b3d
00000010: e6ef 923d 8ba3 b6be 7392 c23e 6ffa b3bc
00000020: b41a 2f3e 377f 903d 7d14 54bc 4039 3fbe
00000030: 8530 223d 33d0 a3be 8981 00be a32b 9c3e
00000040: 2f87 aabe 5b27 29be fe4b f83b c289 4e3d
00000050: f0cb 0b3b feaf 79be c77b 063e 811c c33d
00000060: b587 4dbc ef4e 17bb 3a0d 2bbd df95 0bbe
00000070: b3c2 15be 8527 80be 7df7 f03d 693f 813c
00000080: a291 c3bd a654 8bbd a2dc b43c 1c24 0ebe
00000090: e77e 1f3c b66a 00bd b21a f2bc a12e e6ba
000000a0: 8816 3fbd 6e70 a03d 5bbf 80bd 584f 89bc
000000b0: 183a dd3d 8018 963d 91da 7c3d 988a 27bd
000000c0: 1870 31bd b02c 763d 1e2b acbc abd1 d0bd
000000d0: 384f 463d 9f10 7a3e aa4d ad3c 214e 5e3c
000000e0: 3c6a 2dbe 1253 243e cfae 8abe 12df 37bd
000000f0: 6653 393e dd04 95bd 5d5b 95be 90bb 4abe
00000100: e112 213e a56b 3fbe 0075 20bd dc41 d9bc
00000110: 2d99 923b 856b f0be 2b59 e73d b35f 3c3e
00000120: a109 c13d a1ac 313e e268 37bc f121 2e3e
00000130: 214e c2bc e284 643e 34e3 74bc 978c 933e
00000140: ad73 81be d2d2 a2bd 0e2e 13bd 8eb7 543e
00000150: 8039 11be c1d0 1f3e 88c5 cc3d 91e0 8d3e
00000160: 5389 20be c25a 173e af61 1a3d 5c58 cf3b
00000170: a234 f8bd 43a3 6dbe 7208 db3d 1d23 9ebe
00000180: 4289 b7bd fc7e 2cbe f4d6 a73e 872d 0e3e
00000190: 7063 4fbe 3f8f 563d bf18 0ebb 7e49 0b3d
000001a0: a3de abbd a629 573e 863f c5bc 6ff6 773e
000001b0: cb2b 1a3e 8b37 933d 3f4a 4f3e 7f6e 713d
000001c0: a2d3 7fbd 5658 903e 5d74 e0bd 3ab8 3fbe
000001d0: c8e6 803c 75ef cd3d 0d26 dfbd b1df 28be
000001e0: ea4c 323d d089 933d 307f 8fbe a6dc 6b3e
000001f0: ed4b 533e 5947 283c 66b2 083e 9f10 2d3d
00000200: 7e67 8e3d 30a5 273e edfe 733e 8f1d 593e
00000210: 1f74 d8bd 48d7 173e 83d5 54bd 9e1f 6c3e
00000220: 09bb 92be 9535 55be bcdd f83d 4050 9b3b
00000230: f257 4bbe 11e1 ecbd 38b3 abbd 51c2 1abd
00000240: 179c c53d 48c8 d73d 9095 2f3d e320 30bd
00000250: 79ad 583e dc59 143e 00e0 08be f0c8 cebe
00000260: 5b49 fcbd e293 a9bd 6dd7 743d ccab f6bd
00000270: 62e2 fd3d f202 83bb d3f0 9b3d 0e79 073c
00000280: eace 6e3e 5302 5e3d 2cf8 253c f8e9 213d
00000290: 34e2 4fbe 72b4 52bd e6dc fe3d 98ce c03d
000002a0: 0641 ac3d 452d 363d 7cb0 34be 16a5 173e
000002b0: ba4f 39be 98be 323e bca6 323e 95e2 133d
000002c0: 349e 97bc 320c ab3d a4a8 98bc 9725 e3bd
000002d0: a9d0 d2be b1ed f43d 13e3 f4bd 2e95 d73e
000002e0: 9be5 45bd b0fd 2b3e 8d68 99be 7bb0 803e
000002f0: 75a0 083e 76c6 a53d f818 ddbc 9da7 45be
00000300: f900 b93e 25e2 2cbe d6c0 663e 3830 07be
00000310: 3e9e c3bc 32b9 55be f3ea a83e 36b4 c7be
00000320: da25 bf3e 0b98 9d3d ccaf 30be 510e b5bb
00000330: a806 c0bc bb57 8a3e 5787 70bc 4722 a93e
00000340: 1d9b 853d 6fb7 98be f260 40be ceed d3be
00000350: a0ec 32bd b2ed c0be e0c2 203e b985 7e3d
00000360: 7c56 af3e a481 b23e 75f7 47be 2ea5 843e
00000370: 46b6 b53e de1b 203e 179f f1bd 0897 943e
00000380: 66e6 c13d 7b6d c4bd 0585 ae3d 9706 6cbe
00000390: d70f 8fbd a9d4 64be 46d9 a7bd a218 803e
000003a0: 483f c73d 36bc 103e 0ae7 41be c0e2 2b3d
000003b0: c673 493e fbbd 5c3d 654a 59bd df11 1b3e
000003c0: e54f 6dbd e7d9 7abe 3b6a feba 8c06 c3bd
000003d0: a187 1e3e 9467 e4bd 0711 b53d 64c7 d2bd
000003e0: 1be5 053e d02d 5cba a651 313c 41bc ef3d
000003f0: 05a2 a93d a676 3bbd a36d 4f3c 7c5a 383e
0.33713195 -0.5799296 -0.635025 0.049671363 0.07174663 -0.35671648 0.38002357 -0.021970002
0.1710003 0.07055514 -0.012944338 -0.18674183 0.039597053 -0.3199478 -0.12549414 0.30502042
-0.33306262 -0.16518919 0.0075774183 0.050424345 0.0021331273 -0.24383542 0.13133155 0.09526921
-0.012544562 -0.002308782 -0.04176066 -0.1363139 -0.14625053 -0.2503015 0.11765955 0.015777307
-0.09549262 -0.06803255 0.022077862 -0.13880962 0.009734846 -0.031351767 -0.029553745 -0.0017561504
-0.046652347 0.07833944 -0.06286498 -0.016761467 0.10802096 0.07328892 0.06173188 -0.040903658
-0.04331979 0.06010121 -0.021016654 -0.10196241 0.048415393 0.24420403 0.021155197 0.013568432
-0.16935056 0.16047314 -0.27086493 -0.04489047 0.1809822 -0.07276318 -0.29171267 -0.19798112
0.15729858 -0.18693407 -0.03917408 -0.026520662 0.0044738264 -0.4695703 0.11296304 0.18395881
0.09425665 0.17351009 -0.01119444 0.17005135 -0.023718895 0.22316316 -0.014946748 0.288182
-0.25283566 -0.07950367 -0.035932593 0.20773146 -0.14182091 0.15606977 0.099986136 0.27710393
-0.15677385 0.14780715 0.037690815 0.006327672 -0.12119414 -0.2320681 0.1069497 -0.30886164
-0.08961727 -0.16845316 0.32781184 0.13884555 -0.20252776 0.052382704 -0.002168223 0.034005634
-0.08392074 0.21011981 -0.024078142 0.242151 0.15055768 0.07188328 0.20243166 0.058943268
-0.06245769 0.28192395 -0.109596945 -0.1872262 0.015735045 0.100554384 -0.108959295 -0.16491581
0.043530382 0.0720402 -0.28026724 0.2303339 0.20634432 0.010270917 0.13349304 0.04225218
0.06953333 0.16371608 0.23827715 0.21202682 -0.10569023 0.14828217 -0.051961433 0.23058936
-0.28658321 -0.20821221 0.121516675 0.004739791 -0.19857767 -0.115663655 -0.08383793 -0.03778297
0.096489124 0.105362475 0.042867243 -0.043000113 0.21159925 0.14487404 -0.13366699 -0.40387678
-0.12318679 -0.082801595 0.05977576 -0.120444864 0.12396695 -0.003998154 0.07614293 0.008268608
0.23321119 0.054201435 0.01012997 0.03952977 -0.20301133 -0.051441617 0.12444477 0.09414405
0.0841084 0.044476766 -0.17645448 0.14809069 -0.1809682 0.17455518 0.17446417 0.036104757
-0.018508054 0.083519354 -0.018635102 -0.11091154 -0.4117482 0.119593985 -0.119573735 0.42106003
-0.048314672 0.16795993 -0.29962578 0.25134644 0.1334246 0.08094494 -0.026989445 -0.1930222
0.36133555 -0.16883142 0.22534499 -0.13201988 -0.023879167 -0.20871428 0.32991752 -0.39004678
0.37333566 0.076950155 -0.17254561 -0.0055253883 -0.023440674 0.27020058 -0.014680705 0.33033964
0.06523726 -0.2982745 -0.18786982 -0.41392368 -0.043682694 -0.37681347 0.15699339 0.062139247
0.3424567 0.34864533 -0.19527991 0.25907272 0.35490626 0.1563563 -0.11797922 0.29021478
0.09467773 -0.09591194 0.08521465 -0.23049389 -0.06985443 -0.22346748 -0.081957385 0.25018793
0.09728867 0.14134297 -0.1893579 0.041964293 0.1967307 0.053892117 -0.053049464 0.15143536
-0.05793752 -0.24497186 -0.0019410321 -0.09522733 0.15481426 -0.111525685 0.08841138 -0.10291937
0.13075678 -0.00083991606 0.010822689 0.117058285 0.08282856 -0.04576745 0.012660417 0.18003267

convs.glob_to_glob_lin.bias f4 [16]
00000000: e61b fa3d 2762 e8bd d77f f03e 9dac 4abc
00000010: 3089 0fbe 9b07 c93d fb67 63be f4f9 a1bb
00000020: 7926 323e 2de6 5abe cc6a 333e 8951 5ebd
00000030: 2911 48be aa0f b93d fe8e cfbd 5b3b 203e
0.122123525 -0.11346846 0.46972534 -0.012370256 -0.14017177 0.09815904 -0.22207634 -0.004943127
0.17397489 -0.21376868 0.17521209 -0.054276977 -0.19537796 0.09036191 -0.101346955 0.15647642

convs.node_to_glob_lin.weight f4 [16, 16]
00000000: f2f5 8dbd 75da a5bd 5ef4 dfbb 46e4 8fbe
00000010: c050 c23c 7d97 643d 8f0e a938 04f5 193e
00000020: 2436 293d 3398 083f c1de 2ebd 220b 95bd
00000030: 926f 28be 5486 eebd 12a3 0d3d 2d4d a43d
00000040: 046a 00be 53a2 1f3e 3d4a f33d 5759 34bd
00000050: 86ed 35be f245 083e 6d68 423d fc63 6b3a
00000060: 4a66 ff3d c690 dd3d 5af5 5b3e 4b11 80be
00000070: b290 22bd 6d5c 2cbe 2f5c d13d 0e1b c2bd
00000080: cf4f 13be a13f c8bc b65e febd def5 853d
00000090: 2f73 f53d d136 e53c eb7d 2e3d 34a6 31bf
000000a0: 9382 903e 2b00 873e 1879 07bd 28da babe
000000b0: 6ed9 02bf 95e5 07bc 1592 293e b2da 44bd
000000c0: a606 1e3e fcfa 60be bea8 e33d 0412 223d
000000d0: 9bf8 cd3c 8c7d 9fbc 7cb5 f4bc 72e6 e4bc
000000e0: 4aaf c73e 178a b63e 32c6 7fbc 2e70 99be
000000f0: 9658 b43e cd1b 973d e1f6 18be d468 ef3d
00000100: 8300 e83d 8765 c4bd 1256 68bb 19a6 1c3e
00000110: ab5f 22bd be54 82bd b45f e13d e8bf 123d
00000120: 0285 3fbe 3759 c23b e6ab 62be b49a 983e
00000130: fbe1 18be 4169 4ebd 5b60 f53b 1cd1 79bd
00000140: 08e5 b7bd 44b4 10bd c16e a9bd 1634 12be
00000150: 1fa0 07be 860d bcbd 036f 0f3e c377 903d
00000160: 4bd6 c3bd 21a4 e93d 3547 6a3d dedb 6fbd
00000170: aa6a 13bd 913c 7ebd 5f1f 1d3c 6015 f8bc
00000180: b268 23bd 85db 663d 5c58 383c 4527 3abe
00000190: c89e 49bc fbbb ecbd e8ea 803d 56e1 abbc
000001a0: 10f1 63bc 5a6f 21be 6fe4 0c3a c54a 9a3d
000001b0: 6f36 413e 3b2e bdba 93cb fdbc e3a8 bbbd
000001c0: 2d8f c3bd 54af 04be 44b4 ff3d be2b a2bd
000001d0: 0638 6cbd 062d d43b fd9d 3f3d b209 ed3d
000001e0: ba3a 48bd f496 b43d ed30 45bd 3378 69bc
000001f0: 5525 143d 9f86 abbd b0b6 bdbd adaf 1b3e
00000200: bc7a 5e3d 4e90 b7bd 058c 5d3d 1b19 863e
00000210: 153f 56bd a7bd 563d b726 ecbd 9f50 2f3e
00000220: 70b3 dcbc 7a34 66be 5a01 3a3e 66f1 adbc
00000230: c6bc 353c f526 3abc b5ea 1b3d 7d2d 75bd
00000240: e109 6d3d 5c9b 1f3e 1779 993c ec07 3f3d
00000250: dd84 15bb dd5c 1c3d d56a 6b3d 6c3f 61be
00000260: 0e8c 33be 75cc b23e 38cb a43d bd75 14be
00000270: 2b7d d7bd d66f 44bc 5998 7dbc fc44 c0bb
00000280: 5513 9abd 361a 833e b0b7 4abe a607 7a3c
00000290: ec73 613d 4a02 5cbd e140 1d3e 96a8 85be
000002a0: a05c 60be fc40 6c3d 5e90 983e 0ea7 58be
000002b0: ba66 e23d 57f7 87be 1838 ffbc d18b edbd
000002c0: c370 c33c a135 0bbd f418 bbbd adf8 2b3e
000002d0: e9be d2bd c095 93ba 1689 3bbe da1a cd3c
000002e0: 8587 80bd d5b9 06be d6ce 59be 1466 9b3e
000002f0: 62f8 62bc aa1e b33d ab8d 163c aea0 cbbd
00000300: 7fb9 1ebe 50c0 3e3d d52d 83bd 5a35 a5bd
00000310: 1f25 3f3d 9586 a9bd 68e4 e33d a12b d2bd
00000320: 96d6 4ebe caf5 5f3d 3294 133e 3dc0 133e
00000330: e93b 9bbd a2e7 dcbd 801c 483d 60f6 94bd
00000340: 5359 5e3d e60e 7c3d 5593 f4bc 195e 85be
00000350: e968 773e db87 91bd b4f8 1d3d 524b e9bc
00000360: afb7 b93d c44b 653e da5b 92bd 4862 04be
00000370: c839 7e3e c619 d8bd f34d b239 de22 4a3d
00000380: 9226 c6bb 1a32 73bc ae20 73be ebc4 203e
00000390: 34d0 51bc 4816 26bd a922 3ebd d499 203d
000003a0: 79b9 0b3d 366a ccbe 57bb f8bc 581e 623e
000003b0: ad58 4a3e 46c8 803c 937c 44bd 2126 03be
000003c0: 7b14 4bbd b213 e3bc 18c3 23be ae41 42be
000003d0: 3b33 b23d 0f51 56bd 6958 0bbe c73e 073d
000003e0: a958 033e 8b98 babd 543c 503e f569 2bbe
000003f0: fbed e43d 801c 143d 96c8 bbbd 8684 1d3d
-0.06931676 -0.08098308 -0.0068345508 -0.28103846 0.023720145 0.055808533 8.06126e-05 0.15034872
0.0413114 0.5335724 -0.042692903 -0.07277514 -0.1644881 -0.11646715 0.034579344 0.080225326
-0.12540442 0.15589266 0.11879394 -0.044030514 -0.17766389 0.13307932 0.04746287 0.00089794374
0.12470682 0.10818629 0.21480313 -0.25013193 -0.039688773 -0.16832133 0.10222661 -0.094778165
-0.14385913 -0.024444403 -0.124204084 0.06541036 0.1198486 0.02798024 0.042600553 -0.6939423
0.2822462 0.26367316 -0.03307447 -0.36494565 -0.5111302 -0.008294483 0.16559632 -0.048060127
0.15432224 -0.21970743 0.111161694 0.039567962 0.025142958 -0.019469045 -0.029871695 -0.027941916
0.39000922 0.3565223 -0.015611218 -0.299684 0.35223836 0.073783495 -0.14937927 0.11689916
0.113282226 -0.09589677 -0.0035451693 0.15297736 -0.039642017 -0.063638195 0.11004582 0.035827547
-0.18703082 0.0059310454 -0.22135887 0.2980553 -0.14929955 -0.050393347 0.007488293 -0.060990438
-0.08979231 -0.035328165 -0.08273078 -0.14277682 -0.13244675 -0.09182267 0.14007191 0.07054093
-0.095623575 0.11408258 0.057196815 -0.05855929 -0.035990395 -0.06206948 0.009589999 -0.03028363
-0.039894767 0.056361694 0.011251535 -0.18179043 -0.012305923 -0.11559292 0.06294805 -0.020981472
-0.013912454 -0.15765134 0.00053746154 0.075337924 0.18868421 -0.0014433333 -0.03098086 -0.09163072
-0.09548793 -0.12957507 0.12485555 -0.079184994 -0.057670616 0.006475094 0.04678153 0.11574115
-0.04888413 0.088178545 -0.048142362 -0.014249849 0.036168415 -0.08375286 -0.092633605 0.15203734
0.054316267 -0.08963071 0.05408861 0.2619103 -0.052306253 0.05242696 -0.11530822 0.17120598
-0.026941031 -0.22480956 0.18164578 -0.021233272 0.01109237 -0.011361827 0.03806563 -0.059857834
0.05787075 0.15586609 0.018734498 0.046638414 -0.0022814788 0.0381745 0.05747493 -0.2199685
-0.17533895 0.34921613 0.080465734 -0.14498039 -0.10521921 -0.011989554 -0.015478217 -0.0058675986
-0.075232185 0.25605935 -0.19796634 0.015260613 0.055042192 -0.05371312 0.1535678 -0.26105183
-0.21910334 0.05767916 0.29797643 -0.21157476 0.1105475 -0.26555893 -0.031154677 -0.115989335
0.02385748 -0.03398669 -0.09135619 0.16794081 -0.102903195 -0.0011259839 -0.18314013 0.025037218
-0.06275848 -0.13156827 -0.21270308 0.30351317 -0.013853164 0.08746083 0.00918905 -0.099427566
-0.15500449 0.046570122 -0.06405226 -0.08066817 0.04666626 -0.082776226 0.111275494 -0.10262228
-0.20199046 0.054677762 0.14412001 0.14428802 -0.07579786 -0.10786368 0.048855305 -0.07273555
0.054284405 0.061537646 -0.02985541 -0.26048353 0.24161114 -0.071059905 0.03856726 -0.028478298
0.09068238 0.22392184 -0.071464255 -0.12928116 0.2482673 -0.10551791 0.00034008882 0.04934966
-0.0060470784 -0.014843488 -0.23742935 0.15700118 -0.012805987 -0.040548593 -0.046419773 0.039209202
0.034112427 -0.39924783 -0.030362768 0.22081888 0.1976039 0.015720498 -0.047970366 -0.12807514
-0.04958008 -0.027719352 -0.15992391 -0.18970367 0.08701178 -0.052323397 -0.13607945 0.033018854
0.1282679 -0.091111265 0.20335513 -0.16739638 0.11178204 0.036159992 -0.09169118 0.038456462

convs.node_to_glob_lin.bias f4 [16]
00000000: a5f9 cabd 6bbf e83d 1746 ee3e 8ba7 8dbe
00000010: fe76 453e 7f48 6cbe 4eed d9bc 0d45 96bd
00000020: 70a5 a5ba b741 f43d 5f06 80bd d4eb c83d
00000030: 70fb 5f3e fd3c ccbd 7e80 2c3e f5af 17bd
-0.09910897 0.11364635 0.4653785 -0.27666888 0.19283673 -0.2307453 -0.026602414 -0.07337389
-0.0012637805 0.119265966 -0.06251215 0.09810606 0.2187326 -0.0997257 0.16845891 -0.03703304

conv_between.0.node_to_node_lin.weight f4 [16, 16]
00000000: cafa 4d3d 19d2 093f 2227 f2be cf74 593f
00000010: 5ddb ee3c dec1 c2bd a06f 713f 291f ad3e
00000020: fafd 5b3f 339c 81c0 c916 2ac0 a0f1 9c3f
00000030: 16e7 1abf 40ad 38bf 37ff 73c0 0d6f d2be
00000040: 47bf 2abe 027c b5be b91d 13be c70f 0dbf
00000050: 2e40 eebe fd6c 66be 96b6 d4bf 2301 44bf
00000060: d40f c8be ee21 16c1 ac44 b3c0 7117 a4c0
00000070: 0d82 cabe d2fa 16c0 57ae edbd 6d28 2cbe
00000080: 1de6 b53e 0e34 fb3d 1b1d 9bbf 9971 063f
00000090: 216b 883c 1d33 2ebd 3f84 64bf 3e0f b83f
000000a0: 645d 1bbe 6ae6 54be 5c36 513d 2cbf 3f40
000000b0: 3aa0 a53f 7083 a4c0 008b e1bd 23af 22bd
000000c0: 5428 7e3e f812 74bf ccde c2be d38e d83e
000000d0: 427d b4bf 8fbe 90bd e286 58bf edac cdbf
000000e0: b027 7a3f 66df 2a3e 6f73 d6bd b205 aa3f
000000f0: 5e36 5f3f dc21 86bf 7e1a 453f e096 2cbf
00000100: a0df 6cbf 4e00 c63e 25bb 10bf 14b7 63bf
00000110: 2696 0d3f f1af 453e 8601 28c0 3170 113f
00000120: fd7f df3e 8bba bf3e c9b4 eabf 2b23 063f
00000130: d3ca 93be 9063 b43f b87c 21bf 8f9e b0be
00000140: 7d15 4cbe 84e1 abc0 8196 423e 8193 81c0
00000150: cc52 94bf 800d 41be 9204 43c0 a47d 4abf
00000160: f9a8 77be 8ce7 3c3e 94f1 adc0 b413 80bf
00000170: f779 1dbe 9edf 463f 4721 46bf 8940 48bf
00000180: b7a5 623e 57e4 3ebf 16cf 4e3e 6690 093f
00000190: f33e 1cbf ce59 9bbd e84b bf3d f71b 90bf
000001a0: 9819 59c0 447a b83e 0b54 75bf baef 973f
000001b0: 1570 a1bf b7fe 0140 a837 c7be 108f 283e
000001c0: 4091 bc3e 3b68 11c0 8d0c 523f 37fb 5abe
000001d0: edeb 76be 7260 63bf 3f5f df3f 9ceb 393f
000001e0: b29d 653e dd99 c6bf c8bf d93e 68c4 b93d
000001f0: dc92 953f 9cf6 8dbf 70fc 703f c6fa 0bbe
00000200: 786b 35bf 836c 6ec0 1f3e 3bbf c1bf 92be
00000210: 08ec e1be a78b 903b c6ac 3c3e 9bf6 133f
00000220: c8ac c23e 523d e1be 2863 d4be 0adb bb3f
00000230: b13b 8d3f 4262 bebf 8b30 cdbe f454 59be
00000240: 8325 7cbe 3433 ecbd 4918 093e 920a 0e3e
00000250: e1ad 3fbe 82ea 843e 006c efbf 1267 a8be
00000260: 814d 1e3f 847f 6cbe 8821 adc0 3ae4 01c0
00000270: 4d9c b93e 39ca f0c0 c731 693e 7051 9b3e
00000280: adc9 adbe 4388 7ebe 1e56 debd 4d8a 91bc
00000290: 5aad a43e 69a0 c5bd 1c6a 11c1 24cc fe3f
000002a0: 4893 3ebf 6925 f93d c97e 13c1 4b0f dac0
000002b0: 14ae 413f 56b1 26bf eb34 9cbe d3a0 2bbf
000002c0: 6884 5fbf 939e e8c0 9bf5 5bbf 00be 8bbe
000002d0: e5db f9bf 5202 bb3c f985 8d3f 086d c7bf
000002e0: 403e 4cc0 fac6 7b3f 9703 e03e 71dc 67bf
000002f0: b4a2 603f 447e 03c0 36df b53e 568c 38be
00000300: 0f39 483e ed39 6f3c 3b57 7fbe c97b a3be
00000310: 230a 97bd 3bc4 fa3d f35e 94c0 a675 463f
00000320: 1f93 8b3f b310 b03d 2334 b0c1 b702 0e3f
00000330: abda f53e 3b4d 06c0 17c6 8c3e c30e 5ebf
00000340: 29af b53d d738 c3bf 3b9e 02bf 4e46 8e40
00000350: 58a2 a7be 3520 f33e 52f9 06bf 5327 90bf
00000360: b6dd 75bf 50cd e1c0 f299 0dc1 24e8 9abf
00000370: b908 cabf 2ff0 c93e 2d7b 88c0 11fb 16bf
00000380: 24c1 cbbb 2add 883e d5eb 333d fb3a 0dc0
00000390: 3abb 943b f366 62bc 7180 c4bf e45b c0bf
000003a0: fec5 033f 50de c2bf 898d 753f 2e5e 0d3e
000003b0: 89e2 adbf 8675 ba3d d4b6 68bf 9e9a 93be
000003c0: 05c2 20bd ac31 56bf 1459 2dbe 4485 05bf
000003d0: f04b 13bf ad68 cd3c 2ea0 3dc0 5ad7 6ebf
000003e0: 6b99 0ebf 1947 eb3e 6187 bcc0 27f9 acc0
000003f0: 95c3 7dbe 068e 9dbf 0912 8ebc b65d c1bd
0.050288 0.5383621 -0.4729548 0.8494386 0.029157335 -0.095096335 0.9431095 0.33812836
0.8593441 -4.0503173 -2.6576407 1.2261238 -0.6050886 -0.7213936 -3.812452 -0.4110035
-0.16674529 -0.35446173 -0.14366807 -0.551022 -0.4653334 -0.22502513 -1.6618221 -0.76564234
-0.39074576 -9.383284 -5.602133 -5.1278615 -0.39552346 -2.3590589 -0.11605518 -0.16812296
0.35527125 0.12265788 -1.2118257 0.52517086 0.016652646 -0.042529214 -0.8926429 1.4379652
-0.15172344 -0.20791021 0.05107723 2.9960432 1.2939522 -5.1410446 -0.1101284 -0.039717805
0.24820071 -0.95341444 -0.38060606 0.42296466 -1.4100726 -0.07067596 -0.84580815 -1.6068398
0.9771681 0.16686782 -0.10471236 1.3282988 0.8719233 -1.0479083 0.7699355 -0.67417717
-0.92528725 0.38672107 -0.5653556 -0.8895123 0.55307233 0.19305398 -2.625093 0.56811816
0.43652335 0.37447008 -1.8336421 0.5239741 -0.2886568 1.4092884 -0.6308093 -0.3449597
-0.19930072 -5.371279 0.19002725 -4.049256 -1.1587768 -0.18852806 -3.047154 -0.7909796
-0.24185552 0.18447703 -5.4357395 -1.0006013 -0.15378557 0.7768496 -0.7739453 -0.7822347
0.22133528 -0.7456717 0.20196185 0.5373596 -0.6103355 -0.07585488 0.0934065 -1.1258534
-3.392187 0.3603078 -0.95831364 1.1870034 -1.261233 2.0311716 -0.3890965 0.16460824
0.36829567 -2.2719867 0.820504 -0.21384893 -0.24113436 -0.8881904 1.7450942 0.72625136
0.22423437 -1.5515705 0.4252913 0.09070665 1.1685443 -1.1090884 0.9413519 -0.13669881
-0.7086711 -3.725373 -0.73141664 -0.28661922 -0.4412539 0.004411179 0.18425283 0.57798165
0.38022447 -0.43992096 -0.414819 1.467622 1.1033841 -1.4873736 -0.40076098 -0.21223813
-0.24623685 -0.11533204 0.1338817 0.1387122 -0.18718673 0.25960165 -1.8704834 -0.32891136
0.6183701 -0.23095518 -5.410343 -2.0295548 0.3625206 -7.5246854 0.22772895 0.3033557
-0.3394293 -0.24856667 -0.10856269 -0.017766142 0.32163507 -0.096497364 -9.088406 1.9906049
-0.74443483 0.121653385 -9.218453 -6.814367 0.7565625 -0.65114343 -0.30509123 -0.67042273
-0.8731141 -7.269357 -0.8592164 -0.27293396 -1.9520231 0.022828255 1.105651 -1.5580149
-3.1912994 0.9835049 0.4375274 -0.9057074 0.87748265 -2.0545816 0.3552186 -0.18022284
0.19553016 0.014601213 -0.2493562 -0.31930378 -0.0737498 0.12244459 -4.6365905 0.7752327
1.0904273 0.08596935 -22.025457 0.5547289 0.48018393 -2.0984638 0.2749488 -0.86741275
0.088713 -1.5251721 -0.5102269 4.446082 -0.32741046 0.4748551 -0.5272418 -1.1262001
-0.9604143 -7.0563126 -8.850084 -1.2102094 -1.5783912 0.39441058 -4.265036 -0.58976847
-0.0062180925 0.26731235 0.04392608 -2.206725 0.0045389207 -0.01381849 -1.5351697 -1.5028043
0.5147399 -1.5224094 0.9591909 0.13805458 -1.3584758 0.09104447 -0.90903974 -0.288289
-0.03924753 -0.83669543 -0.16928512 -0.5215647 -0.57537746 0.025074327 -2.9629016 -0.9329735
-0.5570285 0.4595268 -5.8915257 -5.405414 -0.2478164 -1.2308967 -0.017342584 -0.09441702

conv_between.0.node_to_node_lin.bias f4 [16]
00000000: 2e74 83be f967 b93f aadb e1be 3021 9fbd
00000010: fc67 dfbe 7434 ac3d 7d12 b43e efcf 04be
00000020: 1d29 663d 7048 7d3f a608 79be 8266 a33e
00000030: 0429 f23e 6c11 4e3f 0f68 203e 0784 933f
-0.25674576 1.4484855 -0.44112903 -0.07770002 -0.4363402 0.08408442 0.35170355 -0.12969945
0.056191552 0.98938656 -0.24319705 0.31914145 0.47296917 0.80495334 0.15664695 1.1524667

conv_between.0.glob_to_node_lin.weight f4 [16, 16]
00000000: 6478 863d bd0e 6d3d 1b6b 013b cd24 e2bd
00000010: 6415 7c3d e5bf 883c 62e0 7ebd aafb ac3d
00000020: 243c 243d 0987 903d 24e1 883d 1e71 f2bc
00000030: 05c3 043d ebf9 b4bd eef9 36be 8367 08be
00000040: 949e 393d 72cb 143d 235b 7f3d 1039 9e3d
00000050: 08bc 4dbd 4e6e db3c f793 b7bb c27d 87bc
00000060: a1a0 5c3c 65b6 aebd 3537 b1bd 75c8 83bc
00000070: 5076 67bd 62c8 0f3d f1f6 0e3d cd16 fb3c
00000080: 71f1 d93c 6b43 c13d 0850 323f ff1b aabd
00000090: ab6f d3bd b5eb 043c 9190 ca3d cf1a cabc
000000a0: 75ba 0abe cdee b03a 5336 593d e7e5 3bbe
000000b0: ce51 d73d be36 30bd fb3d 95bd c20c fb3d
000000c0: 38ee 1d3c cfc8 9c3d 131b 71be 99f9 85bd
000000d0: a6f2 28bd 0239 dd3c 40c6 a73c 4dd9 d9bd
000000e0: 7e2e 93bd a77a cebd 43b1 b3bc f1a0 38bd
000000f0: 5e96 863c 57d8 653d c0c9 183d 8bfd 623d
00000100: 1e61 34bd 5a08 dc3c 9f3b 043e 714b 9cbd
00000110: 46a1 a03d 2219 8a3b 0c27 1b3c ab0b 113d
00000120: 9a2c 01be ae49 1b3e 0b95 1e3e bf68 723d
00000130: 8f84 213d f1c4 d4bd 9e05 973c 1d08 7c3b
00000140: ea46 15be 3663 d73b a7ed 5a3d 9ed3 81be
00000150: 0c2b 99bc 0ca9 103b a772 2e3e 06c2 84bd
00000160: 88cc debd 042f aabd d4b9 66bd 4f5a 043d
00000170: de96 1f3d 948d bfbc bf2d 4e3c 4d75 da3d
00000180: f878 9f3d 32fa dc3d 2b0c 553d c32f dd3d
00000190: d2c6 b1bd 7d95 1b3d 59ff 12bd a697 30bc
000001a0: f1f3 cf3c 2271 74bd 58bd 52bd 877e 9ebd
000001b0: 261f 42bd c64a 973b 5013 fdbc f1c1 f83c
000001c0: fb9d e8bb 6941 0cbe 5933 163c 75dc 62bc
000001d0: a817 313e 3c99 863d 754a bbbd 9949 343e
000001e0: f42c 2b3e 38f8 0dbe 87b6 11be 2536 1b3e
000001f0: 1e40 31be 032e 82bd e52b 683d 7d0e ecbd
00000200: 415c 21bd 2dcf 1bbc 8260 1d3f aa5f 35bd
00000210: 393b b6bc 064c 2f3c 2eef b1bb 4d97 31bd
00000220: 3c60 5d3b f9e3 263c 489e 3abc e91b 64bd
00000230: 4d8d 7c3d 05df 95bd 9446 5abd ec18 89bb
00000240: 0ebb e13b c4cd 9cbc 9421 adbd 28cd 603c
00000250: b44a 3e3c 94bd 3e3c df96 dbbc d57a 7c3c
00000260: a13f 923c 994d 52bc 6a0b c8bc 87d0 1e3d
00000270: fdc0 5dbd f8f4 74bc 3eb5 1b3d e3c6 113c
00000280: 060d 4dbd f0ff cdbb 1f0f ba3e 7299 c7bd
00000290: 97f7 293d 4cc3 85bd e5f6 823d 321e 353c
000002a0: ba4e cbbd 557e 1f3e 580c 943d 1a07 b13c
000002b0: 9c7d 063e 3c98 a9bd ff9f 36bb fbba a43b
000002c0: 417b 4e3e cab9 513b 1a6d 813e 9c19 00be
000002d0: 9107 963c 6805 abbc 99dc b8bd 041a d93d
000002e0: 258c 24bd f710 c2bd a8c6 19be 8ff7 44bc
000002f0: f3cc 3abe 8214 e03d 2f88 58bd 86f4 d4bb
00000300: b1f1 10be d08d 273d 978c e5bc 68b2 dbbd
00000310: f254 95bd e253 e23c e939 a13d c1aa 7dbd
00000320: ab91 d83b 896d 22bd 8add f63c 57ae 95bd
00000330: 2b91 6e3d b471 dfbd 82cb 023d 8bc1 6c3d
00000340: 6009 693b 0e86 36bd 30aa 0d3e eb54 6c39
00000350: af16 023e 4aa7 8bbc 9524 dcbc 7d92 dbbc
00000360: 02d4 233d 073e 643d ac44 d93c ebdb 353e
00000370: 000f 94bd afb9 b5ba 02dc ba3b 0941 c0bd
00000380: ac7f e83d 8f89 073e 379c 033e f84d 603a
00000390: 1d59 c4bd fdce 383d fc03 4b3d 0329 3abd
000003a0: 23cb 5dbd 5882 07be cbcb 35be 9936 09be
000003b0: 45d2 febb dd5a a73c adcc 0c3d 9e56 e03d
000003c0: 533f 4e3d 1052 663d 6666 923d 781c e23d
000003d0: 071c 23bd 8b81 143d 8416 febc e2f0 1fbd
000003e0: 900a 63bc 2f93 bd3c 6e91 5dbc e3ea 57bd
000003f0: 2c98 a23a 7762 abb9 e2ea b7bc c4da d6bc
0.065659314 0.057875384 0.0019747678 -0.110421754 0.061543837 0.016693065 -0.062225707 0.084464386
0.040096417 0.07057006 0.06683567 -0.029594954 0.032412548 -0.088367306 -0.17868778 -0.13320737
0.045317248 0.036326833 0.062342774 0.077257276 -0.05022815 0.026785996 -0.0056023556 -0.016539458
0.013466031 -0.08530883 -0.08653108 -0.016086796 -0.056509316 0.03510321 0.03490347 0.03065052
0.026604386 0.09436687 0.6965337 -0.08306121 -0.10324033 0.008112838 0.09890855 -0.024670986
-0.1354769 0.0013498903 0.053030323 -0.1834942 0.1051365 -0.043020956 -0.072872125 0.12258293
0.009639315 0.07655489 -0.23545484 -0.065417476 -0.041247033 0.027004723 0.020480275 -0.1063715
-0.07186602 -0.10081988 -0.02193511 -0.04507536 0.016429123 0.05611452 0.03730178 0.05541758
-0.04403793 0.026859451 0.12913369 -0.07631577 0.078432605 0.004214422 0.009469759 0.035411518
-0.1261467 0.15164825 0.15486543 0.059181925 0.03943306 -0.10389126 0.018435296 0.0038456984
-0.14577833 0.006573106 0.0534493 -0.25356764 -0.018697284 0.0022073416 0.17035924 -0.064823195
-0.10878855 -0.08309749 -0.056329563 0.032312687 0.038962238 -0.02338294 0.012584149 0.106669046
0.07786745 0.107899085 0.052013557 0.108001254 -0.086805 0.03798436 -0.03588805 -0.010778343
0.025384875 -0.059678204 -0.051450104 -0.07738977 -0.047392987 0.004617068 -0.030892998 0.030365916
-0.007098911 -0.13696827 0.009167516 -0.013846506 0.1729418 0.06572196 -0.09145061 0.176062
0.16716367 -0.13864219 -0.14229785 0.15157373 -0.17309615 -0.06356432 0.056682486 -0.11526201
-0.03939462 -0.009509844 0.61475384 -0.044280685 -0.022245036 0.010699278 -0.005430124 -0.043357182
0.0033779284 0.010186189 -0.011390276 -0.05569068 0.061658192 -0.07317928 -0.053289965 -0.004183879
0.0068887537 -0.019141085 -0.0845367 0.013720788 0.01161449 0.011641879 -0.02680534 0.015410145
0.017852606 -0.012835884 -0.024419505 0.038773086 -0.054139126 -0.014950983 0.038014643 0.008897516
-0.05006125 -0.0062866136 0.3633966 -0.09746064 0.041495886 -0.065313905 0.06394748 0.011054562
-0.09927125 0.15575536 0.07228917 0.021609832 0.13133854 -0.082809895 -0.0027866361 0.0050271726
0.20164205 0.0032001608 0.2527855 -0.12509769 0.018314155 -0.020876601 -0.09026451 0.10600665
-0.040172715 -0.09475892 -0.15017188 -0.012021913 -0.18242244 0.109414116 -0.05286425 -0.006498876
-0.14154698 0.040906727 -0.02802114 -0.10727388 -0.07291593 0.027627889 0.078723736 -0.06193042
0.006609162 -0.039655242 0.030134935 -0.07308643 0.05824391 -0.10910359 0.03193236 0.057801764
0.0035558566 -0.04456144 0.13834453 0.00022538348 0.12703966 -0.017047543 -0.026872912 -0.02680325
0.03999711 0.055723216 0.026522003 0.17759673 -0.072294235 -0.0013864542 0.0057024965 -0.093874045
0.113524765 0.13236068 0.1285256 0.000855654 -0.095873095 0.045119274 0.049564347 -0.045449268
-0.054148804 -0.13233316 -0.17753522 -0.13399734 -0.007776531 0.02042907 0.03437488 0.10954021
0.05035336 0.056230605 0.07148437 0.11040586 -0.03982165 0.036256354 -0.031016596 -0.039048083
-0.013857499 0.023141472 -0.013523443 -0.05271424 0.001240497 -0.00032689024 -0.022450868 -0.026227362

conv_between.0.glob_to_node_lin.bias f4 [16]
00000000: 191a 01be afd8 b73f a231 88be d9e1 4c3e
00000010: a541 d6be d5fd 443e 9dd9 a1bd 88f7 febd
00000020: 1d1b 4fbe 5116 533f 969b 093d 95e2 e43e
00000030: 3805 cb3d de2b 5d3f 5f18 bf3e d121 993f
-0.12607612 1.4363002 -0.26600367 0.20008029 -0.41846958 0.19237454 -0.079028346 -0.124495566
-0.20225187 0.8245593 0.033595644 0.44704118 0.09913105 0.8639506 0.3732328 1.1963445

conv_between.0.glob_to_glob_lin.weight f4 [16, 16]
00000000: 6302 2dbd 8dcc 41bd 689f 8c3e b6f5 5dbe
00000010: 50b6 813d cc51 4c3d 794f d239 17a2 483d
00000020: 8e4c 3bbd aa51 14bd d6cc 7cbc 19ab 64bb
00000030: 103d ddbc 2108 ffbc b132 9c3c 6428 95bc
00000040: 15fd 5cbd fce2 b93d d6ef d73c ad8d ad3c
00000050: c7b0 72bc 1826 573d 28b0 35bd 9a79 f13b
00000060: b012 813e cb93 49be 69fb 02be 9e8e 693b
00000070: d08a 1fbe 6d0c e4ba 25c0 d13d c01b 1fbd
00000080: 8213 be3b ff55 c33d d2f3 cd3e 4812 4ebb
00000090: 985d 6abd 1105 dd3d 973e 8c3c b964 e7bb
000000a0: 4820 01bc 3a4c 22be de91 87bd 0ba6 bfbd
000000b0: 3152 4ebd b7aa 18bd f4cd 3d3d 018c 533d
000000c0: d0d0 5fbd d149 90bd a37c c2bd 72c6 80bd
000000d0: 9bd1 273c f2ed 363c 3ca9 693b f25d b43d
000000e0: b526 2a3c ae3e 94bd 6ab7 99bd 9c54 c83d
000000f0: 164d bfbd a250 033e 1953 e23d 5bf1 0f3d
00000100: a940 ef3d 2dde 09bd 3d99 7d3d a57b 1e3e
00000110: 413c 0dbd cf04 8f3d 864d debd cbde cc3d
00000120: 080f 613e 433d acbb e38d ac3c fcec 913d
00000130: 77f0 17be ad91 a83e 9751 053d 70ff 52bc
00000140: f9e7 09be 1f63 043b e2f8 d23c cb91 babd
00000150: 2072 103e 70b9 3bbe b9f3 e8bc 84ae 243e
00000160: 8d4a dcbd ac0d 353e cd8c 353e 7cf9 273a
00000170: 4297 9a3d e4c7 573c 6112 47bd 77c8 26be
00000180: e1d5 543d d939 8f3d c9d4 dc3d 6f00 983e
00000190: d4f0 58be 8142 953d f2b3 19be 3f0b 9e3c
000001a0: cd07 923d c89b 3abe bcf0 c3bd 4a27 9abd
000001b0: e731 20be 6f4e 133e 0a89 7f3d 79fa 133e
000001c0: e228 c83d c3e5 933d 615b 813c d349 8a3d
000001d0: 19ef 5dbd 8e91 033d 5264 ce3c f1aa 26bc
000001e0: 72f6 1c3e edc4 313d 30a0 42be 6997 72bd
000001f0: 3998 1c3d dfb4 fdbd 9e9b 5f3c 21e2 e73c
00000200: 8f6b f2bc ba06 0b3e 79d4 e2bd b6e3 95bc
00000210: 37da 113b 9609 963d 0fc3 b43d 964d 39bd
00000220: 3165 64be 60ca 743e 7d10 b23e 7770 d03d
00000230: cd74 6b3d 84be 5e3d 0e0f b2bd b185 adbd
00000240: be22 33be d3da 4ebe fe3d 5b3d 4c2e 3ebe
00000250: 7403 623e d2b4 2dbe ec65 aa3d 154d e6bd
00000260: e194 05be a929 183e b989 303e 3212 3e3d
00000270: 2bcd 5a3e 12e0 07be e2b3 a6bd 3767 06be
00000280: 7332 82bb 977c 0b3d c7d4 d93d 3ecf 813d
00000290: 5652 ea3c f3e1 a7bd a56c 523d 68ad 2e3e
000002a0: 7dfb 00bd b3fd e9bd 37c5 91bd 7957 50bc
000002b0: d172 a6bd 0c86 103e 8e53 a03d 2e73 59bd
000002c0: 530c 42be 79b8 37bc d7e8 0bbe 45cc 85bc
000002d0: aa60 453c 91d0 17bc c5d9 a13d 98f1 423c
000002e0: 9ee2 d0bd 6d98 f53d 94eb 293e b3ae cf3d
000002f0: ced4 7d3e e699 0dbe dbe5 93bc 8299 ab3d
00000300: fd48 ba3d ec0e 21be 67c4 a5bd 6122 593d
00000310: 78f6 223e 7f3f 9b3d 9fa1 533d 5061 373e
00000320: 97da fd3d 77a2 f2bd c078 acbb ed8b e73d
00000330: 2858 b5bc daac f73d cce4 363d d74f 6c3d
00000340: 237c 35be 7f7d 223c 1177 f23b 9e09 a13b
00000350: 8224 02be c56b 25be bfe6 8b3e 5dc9 1e3c
00000360: 14a2 11be cd87 bfbd 3edb 943b 2556 2bbe
00000370: 0689 613d 24b3 0e3e c5cb 4e3d 8bbc 2a3e
00000380: 11b9 9dbd 9733 efbd 4a86 48be 796f 1bba
00000390: 5353 3d3d 8031 2fbe b2d4 cb3c 761f dd3d
000003a0: bc07 04bd a000 bfbd ecd8 933c 61fb 633d
000003b0: e123 b6bd 712a b23d 6bd7 e63d eb18 203d
000003c0: 3d83 213d 9b9d dd3d 2e22 78be 2e7d 82bd
000003d0: 1c3d 8abd 67ac 3f3c 104b 98bc ccad 89bd
000003e0: 476f 3b3d 16bd 8ebd 8b65 11bd a80e 3c3d
000003f0: 2ab4 f1bc 459d 573d 6b83 2cbd e8c7 ce3c
-0.042238604 -0.047314215 0.27465367 -0.21675763 0.063336015 0.049882695 0.00040113533 0.048982706
-0.045727305 -0.036210693 -0.015429696 -0.0034892021 -0.027006656 -0.031131806 0.01906714 -0.018207736
-0.053952295 0.09076497 0.02635948 0.02118572 -0.014812655 0.052526563 -0.04435745 0.0073692324
0.2520957 -0.19685285 -0.12791218 0.0035637985 -0.15580297 -0.0017398723 0.10241727 -0.038844824
0.0058006654 0.09537887 0.40225083 -0.0031444002 -0.057218164 0.10791982 0.017119689 -0.0070615676
-0.007881232 -0.1584939 -0.06619619 -0.09357842 -0.050371353 -0.03727218 0.04633899 0.05164719
-0.0546425 -0.07045329 -0.09496429 -0.062878504 0.010242845 0.011165129 0.003565385 0.08806981
0.010385205 -0.07238518 -0.075056866 0.09781763 -0.09340875 0.12823728 0.11051006 0.035142284
0.11682255 -0.03365915 0.061913718 0.15476854 -0.03448129 0.06983339 -0.1085463 0.10003432
0.2197839 -0.0052563264 0.02106375 0.07125279 -0.14837824 0.32923642 0.032548513 -0.012878284
-0.13467397 0.0020200682 0.025753442 -0.09109839 0.14106035 -0.18332458 -0.028436529 0.16082197
-0.10756407 0.17680997 0.17729492 0.00064077205 0.075483814 0.013170216 -0.048601512 -0.16287409
0.051961783 0.069934554 0.10782773 0.2968783 -0.21185619 0.07288075 -0.1501005 0.019292472
0.07130394 -0.18223488 -0.09567401 -0.07527025 -0.15644036 0.14385389 0.06238655 0.14451016
0.09773423 0.07221558 0.015790643 0.06752362 -0.0541831 0.032121234 0.02519432 -0.010172592
0.15328386 0.043400694 -0.19006419 -0.059226427 0.03823111 -0.12388014 0.013647942 0.028306069
-0.029592304 0.13576785 -0.11075682 -0.018297058 0.002225531 0.07326047 0.08826267 -0.045240007
-0.22304226 0.23905325 0.34778205 0.10177701 0.057484437 0.05438091 -0.08694278 -0.08472765
-0.17493722 -0.20200662 0.053525917 -0.18572348 0.2207163 -0.16963509 0.08320221 -0.11245171
-0.13045074 0.14859642 0.17240037 0.04640407 0.21367328 -0.1326907 -0.08139779 -0.13125311
-0.003973299 0.034054365 0.10636287 0.063383564 0.028603714 -0.08197393 0.051373143 0.17058337
-0.031489838 -0.114253424 -0.07117694 -0.012716168 -0.08127368 0.14113635 0.07828437 -0.05308836
-0.18950014 -0.011213415 -0.1366304 -0.016332755 0.012046972 -0.009266035 0.07902864 0.011898421
-0.10199474 0.119919635 0.16593772 0.10140743 0.2478821 -0.13828239 -0.01805394 0.08378889
0.09095953 -0.15728348 -0.080941014 0.053011302 0.15914333 0.0758047 0.051667806 0.17908216
0.12395208 -0.11847394 -0.005263418 0.113059856 -0.022136763 0.12093516 0.04465179 0.05769333
-0.17723136 0.009917616 0.0073994477 0.0049144765 -0.12709239 -0.16154392 0.27324483 0.009691563
-0.14221984 -0.09352074 0.0045427373 -0.1673208 0.055062316 0.13935524 0.0504873 0.16673486
-0.07701314 -0.11679762 -0.19582477 -0.00059293915 0.046222042 -0.17108727 0.024881694 0.10797016
-0.03223394 -0.09326291 0.018047772 0.055659655 -0.08893562 0.08699501 0.112715565 0.039086264
0.0394318 0.108210765 -0.24231789 -0.063715324 -0.06749937 0.011698819 -0.01859048 -0.06722602
0.04576042 -0.06969659 -0.03549723 0.045912415 -0.029504854 0.05264022 -0.042117517 0.025241807

conv_between.0.glob_to_glob_lin.bias f4 [16]
00000000: ea16 3bbf 8059 41be 32db 843e 9f8b 1d3e
00000010: 35e4 343e 382d bcbc 9a2b 79be fe4f f8bd
00000020: 8b65 a5be dcaa 0b3f 744a bf3d fd29 83bd
00000030: ac84 f13d 6b11 4cbd 3338 32bc 98a4 1fbe
-0.7308184 -0.18881798 0.25948483 0.15385292 0.17665179 -0.02297078 -0.24333039 -0.12124632
-0.32304034 0.54557586 0.09340373 -0.06404493 0.11792883 -0.0498213 -0.010877657 -0.15590131

conv_between.0.node_to_glob_lin.weight f4 [16, 16]
00000000: 9a05 11be 35f1 243e f54b 693d f185 883e
00000010: 9647 d8be d764 e1bd 2177 92be a3cd c7be
00000020: 7590 623e 1f28 99be 7650 12bf 41d7 24bf
00000030: 3ae4 9e3f 5cf7 363c b034 47be 3be3 813f
00000040: 4ef3 8cbd 4cee 63bd 1836 753d d7d8 183d
00000050: d4d1 62be 1ac2 743e 41f4 ad3c b6ce f83d
00000060: 812d c73b 303e cf3d baa6 573e 5f88 d83d
00000070: 648b 95be 9382 8c3d 1ba5 803d faf8 a63c
00000080: a380 e33b e8b1 4ebc aeee 45bf 3596 bd3d
00000090: 302d 4abe 6506 003e 6df6 d73e b1b2 96bd
000000a0: 8d4d 51be 5fcf 83be 2a7e 593e ccb8 c2bd
000000b0: cd6a 40bf 1a7c 803d 6596 0abd 8392 adbf
000000c0: 85ee abbe eb30 a1be 8bac fa3e e5f0 873e
000000d0: 49d8 aabe 75e1 8f3e f8c7 bbbd 4696 d53e
000000e0: c4ec f2bd 5697 69bf e876 e6be e5a8 62bd
000000f0: 9342 643f cb9d 623e 5fd6 a3be 74df c23e
00000100: 2cac 87bd d0d4 babc 3e4e 9f3d 8df0 b0bc
00000110: 44ba 5abe b9dc f2bd 48da ac3d f0ca 403d
00000120: 08ea 3cbd 9f67 af3e b5b2 d43d c2e0 2ebe
00000130: 41fb 85bf acd8 30be 9cf1 c13d a236 873e
00000140: 5dca a2bd fb0d b93d 3de4 8d3a 715e bbbd
00000150: 4077 9abb 5e72 073e 2849 533c f600 73be
00000160: 9206 023d 81a4 28bd a79b 26be a09e 52be
00000170: 55e4 323e 9899 c1bb 0a1b c13c a320 2dbd
00000180: fa71 6dbd 44f4 e3bd 0d43 b43d 178b 07be
00000190: d6cb 473e 4d46 8a3d dba1 023e 5412 403c
000001a0: 3df1 fdbc 7d4c 1d3e 7339 0dbc f731 ffbd
000001b0: 446e f1be b8ad b2bb f6ba b33d 7252 f13e
000001c0: dfa6 c7bc 0704 d2bd d74d 6cbe 6709 1a3d
000001d0: 2b55 5a3c 5ca6 a53d 6071 b23b de4c e8bd
000001e0: 4137 153d f526 203c 3a9f 093e a232 953e
000001f0: 85a3 ae3e e090 2c3e 97c1 e3bc 5075 31be
00000200: 0e41 a23c 055e 8ebc 4fcd 463e 1431 903c
00000210: 9ab0 e3bb fc26 74be 1d38 a93d 0a50 ae3c
00000220: efd2 903e 48f9 d53d 7d8c 303d dcb7 1cbd
00000230: c88a b0be 78dd 26bd 8623 3d3d 67be 7f3e
00000240: e4f3 d33c 364a 1bbc a286 3d3d 97e6 2d3d
00000250: c56c 363e 0a89 a7bd e7a9 2fbe 4754 1abe
00000260: bd63 783e a03f 703c a8bc c7bd 940a 0dbe
00000270: eac3 333d ac5d 93bd 89c7 513e fea2 86be
00000280: 446f 63be 1ac8 933d f1fb f33e 4003 b9be
00000290: 0d31 243e 7123 e63d c1bb 083e 8245 583d
000002a0: 308a c2bd 90fa 6a3e 1c15 b6bd 4974 f03d
000002b0: 682a 35be db24 83bd cc0a ed3d 5e27 07bf
000002c0: 6cee 933d 0727 b2bc f1c9 d3bd 48ec 29bd
000002d0: d877 b9bc f77a 233e a6f2 85bd 885f a23e
000002e0: 2864 563e d5db 383d 432e 0e3e 05f0 433c
000002f0: e830 81bd 8ae3 15bd 415c aa3c 5a1a 443e
00000300: 16f0 923d 6122 98bd 7e1a 8c3d 6ce3 0cbe
00000310: aae8 01bd f178 843e 32ca 9ebc 4daf 08be
00000320: a892 6c3c 1183 6f3e eeda 94bc 9e6e 10bd
00000330: 7cd0 94be a666 0fbc 7a28 4fbd c725 113e
00000340: 5886 9b3e 0303 2f3e bba2 093f 4a14 41be
00000350: de4b f7bc b117 37be c957 853c 2380 b53e
00000360: d49c debc 75ba 05bf 9b66 44bc 5028 88be
00000370: 1d97 dbbe 2a19 8cbe 7d19 92bd 4bb0 f33e
00000380: 9ffd 6d3c 8c24 53bb 147a 3e3e 158b 24be
00000390: 2a3a c3bd ba87 7c3e 626d 2cbd 0990 c5bd
000003a0: ba4b 163e a05b 00be 5cab 543e 84d3 cd3c
000003b0: fa1e 0a3e 2ea9 99bc b16a d5bd 5873 31be
000003c0: 5d4b a53b 6198 e4bd 9d8b 82bd d8ea dcbc
000003d0: 3b56 5fbd 3206 edbd 17a2 0e3d 0a3c b5bc
000003e0: 36c1 e13d d5d3 0e3d 8d29 123e e7f5 c33d
000003f0: 5207 e8bc 8965 893d 8cc1 c63d cbd2 08bd
-0.14162293 0.16107638 0.056957204 0.2666469 -0.42242116 -0.11005562 -0.28606513 -0.39024076
0.22125418 -0.29913422 -0.57154024 -0.6439095 1.2413399 0.0111673735 -0.19453692 1.014747
-0.06882344 -0.05564718 0.05986604 0.03731617 -0.22150356 0.23902169 0.021234633 0.12148802
0.0060784225 0.10119283 0.21059695 0.10572886 -0.2920791 0.068608426 0.06281491 0.020382393
0.006942825 -0.012615658 -0.7731732 0.09257165 -0.197438 0.1250244 0.42180195 -0.073583014
-0.2043974 -0.2574415 0.21239534 -0.095079035 -0.75162965 0.062736705 -0.033834834 -1.3560337
-0.33580413 -0.31482634 0.48959765 0.26550975 -0.33368137 0.28101698 -0.091690004 0.41716212
-0.11861566 -0.91246545 -0.45012593 -0.05533685 0.89164084 0.22130506 -0.3199949 0.38061106
-0.06624636 -0.022806555 0.077785954 -0.021599079 -0.21360117 -0.11858506 0.08440071 0.047068536
-0.046121627 0.34258744 0.10385648 -0.17077926 -1.0467302 -0.17270154 0.094699115 0.2640887
-0.07948754 0.0903587 0.0010825467 -0.09148873 -0.0047139227 0.13227221 0.01289586 -0.23730835
0.031744547 -0.04117251 -0.16270314 -0.20568323 0.17469914 -0.0059082024 0.023572464 -0.042267453
-0.057970025 -0.11130574 0.088018514 -0.13236652 0.19511351 0.0675169 0.12757055 0.01172312
-0.03099882 0.15361209 -0.008619654 -0.12460702 -0.47154438 -0.005452838 0.08775894 0.47133213
-0.024371563 -0.102546744 -0.23076569 0.037606623 0.01332597 0.08088371 0.0054456443 -0.11342786
0.036429647 0.009774913 0.13439646 0.29140192 0.3410913 0.1685214 -0.027802272 -0.17329907
0.019806411 -0.017378816 0.19414257 0.017601527 -0.006948543 -0.23842996 0.08262656 0.0212784
0.2828593 0.10447937 0.04310273 -0.03826128 -0.34480882 -0.040738553 0.046176456 0.24974976
0.025873132 -0.0094781425 0.046270974 0.042456236 0.1781493 -0.08180435 -0.17154656 -0.15071212
0.24256797 0.014663607 -0.0975278 -0.13773566 0.04388801 -0.07195601 0.20486273 -0.26296228
-0.22210413 0.07215901 0.47653154 -0.36135292 0.16034336 0.11237229 0.13352872 0.052800663
-0.094990134 0.22947145 -0.08890745 0.1174093 -0.17691958 -0.06403514 0.11574325 -0.52794445
0.0722321 -0.021747125 -0.10341252 -0.0414851 -0.022640154 0.15964876 -0.06540422 0.3171351
0.20936644 0.045131523 0.13884835 0.011959081 -0.06308156 -0.03659395 0.020795943 0.19150677
0.07174699 -0.07428432 0.068409905 -0.1375863 -0.031716026 0.2587352 -0.019383524 -0.13348122
0.014439262 0.23389842 -0.0181708 -0.035261743 -0.2906531 -0.008752501 -0.05057571 0.14174567
0.30375934 0.17090993 0.5376393 -0.18855396 -0.030187543 -0.17880131 0.01627721 0.35449323
-0.02717439 -0.52237636 -0.011987354 -0.26593256 -0.42888728 -0.2736295 -0.07133768 0.47595438
0.0145258 -0.0032217829 0.18601257 -0.1606868 -0.09532578 0.2466115 -0.042096503 -0.09646613
0.14677325 -0.12534952 0.20768493 0.025125273 0.13488379 -0.018757429 -0.104207404 -0.17329156
0.0050443844 -0.111618765 -0.06374285 -0.026967451 -0.054525595 -0.11573447 0.03482255 -0.022123355
0.1102318 0.034869988 0.14273663 0.095683865 -0.028323803 0.067088194 0.09704885 -0.033404153

conv_between.0.node_to_glob_lin.bias f4 [16]
00000000: 877c 24bf 0f16 2e3e c9e5 af3e ec62 6f3e
00000010: 7c12 173d 5ffd e8bc dd76 9dbe 1ed0 65bd
00000020: 9cdb 7ebe f85e 863e 3030 b53e 7671 67be
00000030: 8f19 a43d e9bd 493e 77dd b03e 233d 7b3c
-0.64252514 0.17000602 0.34355 0.2337758 0.036882862 -0.02844113 -0.30754748 -0.05610668
-0.24888462 0.2624433 0.35388327 -0.22601876 0.080126874 0.19701351 0.34543964 0.0153344
