GN0/model/GCN_model.pt (torch, 107007 bytes, 16 tensors)

convs.weight f4 [3, 64]
00000000: fe92 8b3f 5c32 3cbe 9c35 a43f dd97 49bf
00000010: 9fc9 4fbd bfde 0640 552c 8cbe 4334 56be
00000020: 42f7 73be 3c03 cbbd 2331 65c0 b650 2fc0
00000030: 105a 8fbe 46b8 d8bc 48c1 0c40 19a6 d03c
00000040: ae57 22be 59d2 c23e 57fe 85c0 474a 0b3f
00000050: cae8 75c0 fc80 99bd b423 c33e 86a1 73be
00000060: de57 96be 9fd2 08c0 24e8 41be 56ae f73f
00000070: 6045 803e ad32 8cbd 409c 95bc ca72 283f
00000080: 1337 16c0 c536 e9bd a8ae 62be 07c3 a8be
00000090: 2490 af3e fc41 15be 3f84 00be 2895 95be
000000a0: 3265 ffbf d789 bb3e 642d 96bd 6794 54be
000000b0: ef01 7fbf 0dbb 4ac0 32ef 62c0 cd17 2240
000000c0: ab0f 62be bd6e 15be a7ca 66be 9c9e 533f
000000d0: c210 84be 6578 81be dce0 00bf 3129 863f
000000e0: bcf4 58c0 4fad 2c40 8242 1fbe 562c 05be
000000f0: a3fc 773e cf9f 61be 7097 e83d 68e7 0fbd
00000100: d8ff 1840 7ec0 203e c91f 57c0 8332 3bc0
00000110: 6a83 b7be f88a 123f 91ec 613d 9945 bf3d
00000120: 92e4 4b3e 8dd0 b73d c879 adbe 07ad d040
00000130: c13b 303e ae65 09be 1dbb fcbf f952 f6bd
00000140: 9115 f53c e8bb d3ba 1923 023f 4f03 a5bc
00000150: 0a95 08bf 020e a8bf 799a 6ebf 5665 c6bd
00000160: ba89 153e 3cdf 75bf 3956 033e 44a6 2bc0
00000170: 1249 023e 2f6f d13d 9929 503e 9b73 85bf
00000180: 511e 33c1 d3cf 92be 27b5 463e 1925 9bbd
00000190: d467 f4be 55d5 04bd b97f a8bd cbbd 113c
000001a0: 86d1 c7bf 8011 e4bf 43cc 6cbe 70c5 683e
000001b0: cbb3 7ac0 b5a0 a93e cc8f b93f fe63 9a3f
000001c0: abb8 453d b10f 5fbe 576a 393e 84f1 1440
000001d0: 891a 343e 9b5d 95bd ddb9 c2be 2330 2fbf
000001e0: 699f f0be 7d2b 953f 5176 843d 5c5a 953d
000001f0: f0b0 3940 ad47 913f a0c2 8fbf 9299 5dbe
00000200: 0e31 ce3f 7a78 8bbe bc54 7f3f 98e8 4740
00000210: 0fa5 a2be b2cd 123f 1e75 953e 05d7 283e
00000220: 1566 89be 032b 123e 62bf 9a3f 7924 4fc1
00000230: 13e4 55be a98b e2bd dedc 8b3f be96 2abe
00000240: 090c 91bc 12ec b5be d1c6 cebe 84d3 a6bc
00000250: 8d13 0cbf 98b5 453c ee55 1e3f c8df 36be
00000260: c7fa 693e c8c2 df3f f526 96be 0841 373e
00000270: 9601 91bb e565 683d b9a7 c3c0 396a 1d40
00000280: a3e3 37c0 f5b7 25be a934 c43d 8f74 cd3d
00000290: eef5 bdbd b301 92be 4bfd 47be a8fa 873d
000002a0: 0f68 4a40 5cc7 32bc aede 3d3c 0557 493d
000002b0: b86c 8cc0 2228 cb3f 3cb6 18bf 9a8c 793f
000002c0: fb70 5a3e 6a34 703c b04f c0bd ffd2 eb3f
000002d0: ee70 313c 5cb6 113e 399c 9240 107b 2c40
000002e0: 2f1a c23f 363e 8c3f 9541 213e f9a5 f53d
000002f0: e34c 03c0 dca1 873d 1138 0fbf fab6 c13b
1.0904233 -0.18378586 1.282886 -0.7874735 -0.05072939 2.1073453 -0.27377573 -0.20918374
-0.2382479 -0.09912726 -3.581124 -2.7393012 -0.279984 -0.026455056 2.199297 0.025469827
-0.1585376 0.38051108 -4.1872973 0.54410213 -3.8423333 -0.07495305 0.38113177 -0.23792085
-0.29363912 -2.1378553 -0.18936211 1.9350078 0.2505293 -0.06845603 -0.018262982 0.65800154
-2.3471115 -0.113873996 -0.22136939 -0.32961294 0.34289658 -0.14575952 -0.12550448 -0.2921536
-1.9952757 0.366286 -0.07332876 -0.20759736 -0.99612325 -3.1676667 -3.5458493 2.5327027
-0.2207629 -0.14593025 -0.22538243 0.82663894 -0.25794035 -0.25287166 -0.5034311 1.0481321
-3.3899374 2.698078 -0.15552714 -0.13005194 0.24217467 -0.22033618 0.113570094 -0.035132796
2.3906155 0.1569843 -3.361315 -2.924958 -0.35842448 0.572433 0.055157248 0.093394466
0.19911411 0.08975325 -0.33881974 6.5211215 0.17210294 -0.13417694 -1.9744602 -0.120275445
0.02991751 -0.0016154023 0.50834805 -0.02014318 -0.53352416 -1.3129275 -0.93204457 -0.09687297
0.1460332 -0.96043754 0.1282586 -2.682023 0.12723187 0.10226285 0.20328368 -1.0425905
-11.194901 -0.28674182 0.19405042 -0.07575435 -0.47735465 -0.03243001 -0.08227486 0.008895348
-1.5610816 -1.781784 -0.23124795 0.22731566 -3.9172237 0.33130422 1.4497008 1.2061765
0.048271816 -0.2178333 0.18106972 2.327241 0.17588247 -0.072932445 -0.38032427 -0.68432826
-0.4699662 1.1653897 0.064678796 0.07292625 2.9014244 1.1349999 -1.123127 -0.21640614
1.610872 -0.27240354 0.9973867 3.1235714 -0.31766555 0.57345116 0.29190916 0.16488273
-0.26835695 0.1427422 1.2089655 -12.946404 -0.20887785 -0.11061794 1.0926778 -0.16659066
-0.017705934 -0.3553167 -0.4038606 -0.02036453 -0.5471733 0.012067221 0.6184987 -0.17858803
0.2284957 1.7481318 -0.29326597 0.17895901 -0.004425238 0.0567378 -6.114224 2.4596083
-2.8732688 -0.16183455 0.09580357 0.100319974 -0.09275423 -0.2851692 -0.19530217 0.06639606
3.1626012 -0.010911789 0.0115887355 0.049155254 -4.3882713 1.5871623 -0.5965307 0.97480166
0.21332161 0.014660934 -0.09390199 1.8423766 0.010830147 0.14229721 4.58157 2.6950111
1.5164241 1.0956485 0.15747674 0.119945474 -2.0515678 0.06622669 -0.55944926 0.005911705

convs.bias f4 [64]
00000000: e453 08c0 d541 39bd 8f3a 2ebf 7826 44bf
00000010: 1148 62bc 9e2f 70bf b5e8 abbd 0000 0000
00000020: 53cf 21bd c0fc 8ebd 9297 ee3f 3858 7bbf
00000030: 0000 0000 0000 0000 d3c1 d2bf 86b1 c2bd
00000040: 0000 0000 b3cc 61bf 5258 c13f 9458 76bf
00000050: 0fd0 ba3f 3274 dfbd 349a 8dbf 0000 0000
00000060: 0000 0000 8f4d 933d 0000 0000 7ead 0ac0
00000070: 83de 21bf ce30 78bd 8b93 a3be 0758 89bf
00000080: 8dd3 2240 0000 0000 ce83 b7bc 10a2 343d
00000090: 6c0c 02bf 0000 0000 0000 0000 0000 0000
000000a0: 56b1 883e 307d 15bf 7e2a 1e3c 61c6 30bd
000000b0: 1d9d 703f 5535 a63f c403 9f3f c4b5 a9bf
000000c0: 0000 0000 0000 0000 0000 0000 af9a 49c0
000000d0: 0000 0000 0000 0000 9e48 05c0 fe99 a1bf
000000e0: 738f e83f 7b55 adbf 03b8 55bd 8421 17bd
000000f0: 5a75 8cbd 7d5d d0bf 521b 32be 0000 0000
-2.1301203 -0.045228798 -0.68058103 -0.766212 -0.013811127 -0.9382266 -0.08393995 0.0
-0.03950436 -0.06981802 1.8640006 -0.98181486 0.0 0.0 -1.64654 -0.09506516
0.0 -0.8820297 1.5105078 -0.9622891 1.4594744 -0.10910834 -1.1062684 0.0
0.0 0.071925275 0.0 -2.1668391 -0.6323015 -0.06059342 -0.31948504 -1.0729989
2.544162 0.0 -0.022401717 0.044099867 -0.50800204 0.0 0.0 0.0
0.26697797 -0.58394146 0.009653686 -0.04315794 0.93989736 1.2985026 1.2423024 -1.3258595
0.0 0.0 0.0 -3.1500661 0.0 0.0 -2.0825572 -1.262512
1.8168777 -1.3541712 -0.05217744 -0.036897197 -0.068583205 -1.627853 -0.17393234 0.0

conv_between.0.weight f4 [64, 64]
00000000: 4d89 16be ee41 aebc dfff dabb 7fc2 39c0
00000010: 8b13 813d 43a6 4c40 a1bc 6740 4fde a3bc
00000020: c0f2 c3c0 8543 7abe 54cb 3cbe 1a48 15bf
00000030: 1df4 ee3f 37f2 47be 1525 37bc ee70 79be
00000040: 6e0a 47be b75e 1cbe 5512 65be 1bc3 1cbe
00000050: 8783 41be 247a f73d d507 04bd 0fab bfbe
00000060: 3bb0 d63f 37ab babf bd97 a0be f7cb cdbf
00000070: 1772 1ebe 1543 a2be 7ed2 ddbf 8cb0 c73d
00000080: 14d9 f63c ade5 24be 9741 87be e0fd 38c1
00000090: 13e0 85be 60ca 2fbe 6982 eabd c2ae 13be
000000a0: 543f b23a 1253 74c0 d64c 85be ed5f 723c
000000b0: 49e9 e0bd 5995 b4bf dd80 a7bd faac 84be
000000c0: e986 57bd 8bbb 04bf 4fda 173d 0132 e5bd
000000d0: 75cb 28c0 1857 253f 0734 a9be 92dd cfc0
000000e0: 63e8 c1be be26 7dc0 cae7 debe 64dd 87be
000000f0: 855b 84be 20d3 1640 486e 0cbe 36ee 0f3c
00000100: 8986 4d3d 924d 3cbe 016d 3bbe fe14 e13c
00000110: 6ae4 963c 5d75 3cbd 9f6c a73d 86d1 713c
00000120: 94a9 32be 73ef 1cbb 1fd4 64bc 83d0 febd
00000130: 7afe 4f3d 4c8c afbd 7d7d 37bd 7284 9b3d
00000140: 0c5c 06be abfe 453e 7eb7 bbbd 7dfc cdbd
00000150: 204e 92bd 44c2 91bd 8e90 213e 01a5 2c3e
00000160: 43e8 453e 07ee 8d3d f176 863c 9a45 0f3e
00000170: 332b 4abe 0423 013e e00b 1abe 8116 82bd
00000180: e7df 2fbe 24a5 8cbd df30 c43c 7524 5e3d
00000190: cffb cf3d 9453 123e 9799 c53d eb50 353e
000001a0: 1c92 bfbd 4f88 2ebe 1fce 303e 4cc7 3bbe
000001b0: cf57 30be 6a3d 2f3e f46a fb3c 73d6 713d
000001c0: 477d a2bd d5ec d1bc 7653 813d e746 2a3e
000001d0: cd71 aabd b61d be3d f89a 1cbe 2b8f 70be
000001e0: 49bc 2a3e d0f2 2b3e aefb 953a c5a4 1a3e
000001f0: a28d 05be 35cc f63d df05 96b9 25f0 8ebd
00000200: 050d f0bd 3c27 febd 7511 b240 bb7e 45bd
00000210: aff5 49be 2229 d7bf 8ebd 1ec0 536b 0440
00000220: 1606 bb3f c08c dc3d b888 14be 775d 2fbf
00000230: b46e 2ebf 3e63 c3be b9e4 be3c d819 97be
00000240: 3ff9 963c ec45 ddba fce4 8a3d ff1e 9a3d
00000250: e718 4dbe b02e c43d f0fb b2bd bebd 9c3f
00000260: 289e 18c0 bb48 05c0 2fbd 1f3f c854 9abc
00000270: 5bf3 a2be 2a07 e9bd bc87 753a c865 353b
00000280: 2e59 17bf f8b5 40be ad94 863d d921 dcbe
00000290: b735 41bb 4d1a 37be 80a7 83bd 262b 93bd
000002a0: ce4e e4bc b6db 48c0 6003 63be 0224 c5c0
000002b0: 11ee 733d 077d eac0 0d4f 9e3d f557 31be
000002c0: 1c53 1cbe 966e c0be 2b42 17bd 07ec 3abe
000002d0: cd00 53c0 3962 b23e a93b afbe 8359 69c0
000002e0: dd98 51bf be93 33c0 9c21 41bf a86e c63e
000002f0: b3f3 8ebe cb98 b43f 2752 8cbd 0030 80be
00000300: 74a5 3fbd 263c 38bd 2eb0 a540 3ed6 37c0
00000310: fcbb 94bd d771 f5be 0e80 4bc1 abb6 0640
00000320: 156e f93f 94c3 303d 9296 063e 1131 72bf
00000330: a8d3 523e b565 17be 9e2a ca3d 077e 8ebe
00000340: e659 30be b7cc d0bd f472 52be 25e2 07be
00000350: 16bc 083e 65b7 1f3d 2773 0c3e 455c 18bf
00000360: 2add 9dbf d132 ad3f 2c8f ccbf dedf cd3f
00000370: 0730 fcbc f36d 5bbe 6130 8b40 a604 1dbe
00000380: 20cf 3840 133f a1bd b2a4 75be 3b4a 14bf
00000390: b09f 5d3e d8af a63c b995 bebd 7682 70be
000003a0: d826 9a3d 66c5 bb3f 542a 3ebe f461 983f
000003b0: 2dee 42be 2eab 56c0 3843 8abd b149 7fbc
000003c0: 42d5 fa3d b9af c9be 9db2 d5bd ff72 c8bd
000003d0: 4524 99c0 75d3 bc3e 291b f5bd 006e 2f3f
000003e0: 3d5e c8be b173 883f 69c3 72be 09b2 0abf
000003f0: 607d 07be e748 6f3f 60a7 82be 900e 46be
-0.14700814 -0.021271672 -0.0066833342 -2.902496 0.06302556 3.1976478 3.620888 -0.020003466
-6.1233826 -0.24439819 -0.18436939 -0.58313143 1.8668247 -0.19525991 -0.011178275 -0.24359486
-0.19437572 -0.15270506 -0.22370274 -0.15308802 -0.1889783 0.12083843 -0.03223403 -0.37435195
1.6772531 -1.4583501 -0.31365767 -1.607787 -0.1547321 -0.31691805 -1.7329862 0.097504705
0.030132808 -0.1610324 -0.2641723 -11.561981 -0.26147518 -0.17167044 -0.11450655 -0.14422134
0.0013599196 -3.8175702 -0.26035184 0.014793378 -0.109819956 -1.4108077 -0.081788756 -0.2591322
-0.052618895 -0.5184867 0.03707343 -0.11191178 -2.637418 0.6458602 -0.33047506 -6.495797
-0.3787261 -3.9554896 -0.43536216 -0.26536095 -0.25851074 2.356636 -0.13713944 0.008784821
0.05017713 -0.18388966 -0.183033 0.02747583 0.018419463 -0.046010364 0.08175015 0.014759427
-0.17447501 -0.0023946434 -0.013966589 -0.12442114 0.050779797 -0.085716814 -0.04479741 0.07593621
-0.1312105 0.1933543 -0.09165858 -0.10057924 -0.071438074 -0.07117131 0.157778 0.16859819
0.19326882 0.06930166 0.016414138 0.13991395 -0.19743042 0.12611014 -0.15043592 -0.063519485
-0.17175256 -0.068674356 0.023949085 0.054233987 0.101554506 0.14289695 0.096484356 0.17706649
-0.0935404 -0.17044185 0.17266129 -0.18337744 -0.17220996 0.17113271 0.030690648 0.059042405
-0.07934051 -0.025625626 0.06314747 0.1662861 -0.08322487 0.09283011 -0.15293491 -0.23492114
0.16673388 0.16791844 0.0011442804 0.15101917 -0.1304231 0.12050668 -0.00028614604 -0.06979398
-0.11721233 -0.12409827 5.564631 -0.048216563 -0.19722627 -1.6809428 -2.4803195 2.0690506
1.4611232 0.107690334 -0.14505279 -0.6850199 -0.6813767 -0.38161653 0.023302423 -0.29511905
0.018429397 -0.00168818 0.067819566 0.07525443 -0.2002903 0.095792174 -0.087394595 1.2245405
-2.384653 -2.082564 0.62398046 -0.018839255 -0.3182629 -0.113783196 0.00093662343 0.0027679075
-0.5912045 -0.18819416 0.065713264 -0.42994574 -0.002948148 -0.17881127 -0.064284325 -0.07185964
-0.027869608 -3.13841 -0.22169256 -6.1606455 0.05955321 -7.327762 0.077299215 -0.17318709
-0.15266079 -0.3758437 -0.036928337 -0.182541 -3.2969239 0.34840563 -0.34225205 -3.6460884
-0.81873876 -2.8058925 -0.7544191 0.387563 -0.27920303 1.4109129 -0.06851607 -0.2503662
-0.046788648 -0.044979237 5.1777563 -2.8724513 -0.07262418 -0.47938415 -12.718763 2.1048992
1.9486719 0.043155268 0.13143376 -0.9460612 0.20588553 -0.14784892 0.0987141 -0.27830526
-0.17221794 -0.10195296 -0.20551664 -0.13269861 0.13352999 0.038993258 0.13715802 -0.5951579
-1.2333119 1.3531133 -1.5981193 1.6083944 -0.03078462 -0.21428661 4.3496556 -0.15333804
2.887642 -0.078733586 -0.23988608 -0.57925767 0.21642947 0.02034752 -0.09305901 -0.23487267
0.0752694 1.4669616 -0.18570834 1.1904893 -0.1903617 -3.354198 -0.06751102 -0.015581534
0.12247707 -0.39391878 -0.104344584 -0.09787559 -4.7856774 0.3688008 -0.11968071 0.6852722
-0.39134398 1.0660306 -0.23707356 -0.5417791 -0.1323142 0.93470615 -0.25518322 -0.19341493

conv_between.0.bias f4 [64]
00000000: 9295 2ebe 0195 49be ef94 9440 9d6e ac3f
00000010: 7c6f 36be 3f19 c63e dbb7 6840 0326 ce3e
00000020: d97f 813e 9823 96bd d0af a2bd 255e 723d
00000030: e57c 39bf aaf9 df3c 1d04 efbd a966 9cbd
00000040: 4cb1 a7bd d529 86bd 1398 c2bd ddc1 4fbe
00000050: 17f3 a3bd 65ea 01be 157e 8cbe 29ce 6c40
00000060: 0fcc 5540 9cb2 c2bf be2e 6040 41a6 23c0
00000070: d53c 4bbe e3f3 1fbe 194a 3b40 d8ce e0bd
00000080: d2a8 02bf 9fb3 bebd a39a 42be efab a740
00000090: 5722 4fbe bd8d 49bd 3535 02be f7b8 6abe
000000a0: 12b9 1dbe bf2e 33bf 89be 57be e936 0740
000000b0: c4f7 19be 6d23 bb3f 0822 23be e951 1dbe
000000c0: fcf7 a0be ce2a d4bd 203f 09be 7c92 32be
000000d0: 8938 a440 d055 1840 90f0 2cbe 989b 9240
000000e0: e382 443e ecb2 b03d 2621 afbc b825 8d40
000000f0: 5a83 0fbe 9d3b 933d f176 9bbd 2851 82bd
-0.17049244 -0.19685747 4.6431804 1.3471256 -0.17815965 0.38691136 3.6362216 0.40263376
0.25292853 -0.07331008 -0.0794369 0.059171814 -0.724562 0.027340729 -0.116707064 -0.07636768
-0.081881136 -0.065509476 -0.09501662 -0.20288797 -0.0800535 -0.1268707 -0.27439943 3.700083
3.3405797 -1.5210757 3.502853 -2.5570223 -0.19847424 -0.15620379 2.9263976 -0.10976952
-0.5103885 -0.09311604 -0.19004302 5.239738 -0.20227943 -0.049207438 -0.1271561 -0.22922121
-0.1540263 -0.69993204 -0.21068777 2.1127264 -0.15035921 1.4620186 -0.1593095 -0.15363277
-0.31439197 -0.10359727 -0.13402987 -0.17438692 5.1319013 2.3802376 -0.16888642 4.5814934
0.19190554 0.08627877 -0.021378111 4.4108543 -0.1401495 0.07189105 -0.07591046 -0.063631356

conv_between.1.weight f4 [64, 64]
00000000: 52e5 6ebe d42e c93d 086e bf3d 3821 8fbd
00000010: 52d2 4c3e 35a0 34be 9104 ee3d 74c8 ad3d
00000020: 9e82 e23d 2877 063e 2c84 143e 1e67 52be
00000030: 8e34 e53d 3eba 39be 164e 09bd c344 7fbc
00000040: d2e4 843d 4991 14be 3248 1bbe c1c5 e7bd
00000050: afad 50be 9c02 27be 23e3 53be 4f1f 4d3e
00000060: fc4d d23b 6c99 bc3d 6965 f23d 90b2 30be
00000070: da7e 2ebe c18b b53d df08 a7bb 4d57 20be
00000080: 1c3d 263e 4b28 e6bd eb3a f9bd ad9f f2bd
00000090: 3637 45be 8102 143d 1db4 c43d 9c4f ec3c
000000a0: d2e8 14be 2461 4dbe c6de 2dbe 942e 50bd
000000b0: 7a91 b0bd 6b65 73bd 5f2e cebd 3fa1 cd3d
000000c0: 976a bdbd 3bba 13be ef49 1bbe c58e ebbd
000000d0: 5cb4 033e b6e2 9c3d 4ad2 10be 151a 4e3e
000000e0: 3887 1fbe e38d c8bd 622c 45be 4cef b03b
000000f0: 0c1c de3d 73a3 f93d 45f5 3c3e 5f17 38be
00000100: 1ac9 f1bd 16f7 a6bd 4cb5 b8bc 9f35 6bbd
00000110: 0242 4e3d e8d5 4b3e 1254 8bbd f124 eabd
00000120: 088c 4fbe 21a6 e03c aaf8 46bd 3274 6b3e
00000130: b881 53be 4dc3 123e aa4b 1dbe fab2 13bd
00000140: 25dd 023e e713 bf3e 22cf 3b3c 7fa5 af3d
00000150: 647a 8e3a 9440 3cbe 6c13 e73d 4286 313e
00000160: deb4 62be 9658 823e ae44 4e3c c7e1 10be
00000170: 72d3 eebe f36c 08bd 1f68 413e 03b6 45bc
00000180: d8b3 68be eb52 90bc f4a6 64bd a552 8dbd
00000190: ed38 05be 6fb5 3c3e 4954 2bbe bfc5 2b3e
000001a0: 3c40 4dbe 4291 29be b606 20be 2759 48be
000001b0: 0829 0fbe 587c ca3d 1cf8 4c3e dd88 30be
000001c0: dcdd a4bd 277d 2c3d a3ec 86bd d98a 29be
000001d0: 2e08 21bc 13ec 21be ddd6 46bd e867 bbbd
000001e0: deb8 7abc df99 d8be a8e1 30be 0dff 16bc
000001f0: e664 6e3e 1556 603e ef9f b2bd 7db2 12bd
00000200: 7cb6 64c0 f38c dfbc 171d 8fbe 8028 3fc1
00000210: 81a1 d63f 3bfa 823d b341 d23e 5124 bbbe
00000220: 5d4b f5be 13ee 74be 0942 adbe e522 4440
00000230: e391 c2bd c484 ecbd 2a17 a9c1 be15 71be
00000240: 6faa f6c0 d7bd 55c0 e5c0 8abc 6729 01c0
00000250: 00c4 97be 87b0 0cbe 6455 5e3f 0a1c 1fbd
00000260: 1535 99c0 defb bbbf 9345 84bf 5cd6 a1bf
00000270: 780c 1f40 6280 71bf 29de 263e 697a 46c1
00000280: b476 dbbd 5bba 56be a286 aa3d 2570 c1bd
00000290: 476d 113d 411a 66be 6af8 47bf daa9 12c1
000002a0: 6685 76c0 e4c4 94be 78fb a53c 85f5 20bd
000002b0: ba3d 1cbe 5edb 92bd 0b53 92bd 9792 4cbe
000002c0: 1b29 0cbe ff11 91c0 8008 95be 5755 39be
000002d0: 1b58 b1be e41c 21be 55f8 d4bc 68b4 19bd
000002e0: 4f46 a1be 7852 14bf c35c a3be 5c81 b1bf
000002f0: 103c a13f 4439 13bf f441 c5be 6213 7abd
00000300: 134b 57c0 4399 a8be 7a84 38bd 4cd1 c8bf
00000310: 7edf 343f 41b1 d53d 40f4 0c3f 6096 10be
00000320: acb6 93c0 6d7b 08c0 2d4b 74be 7aa9 debe
00000330: d3ef 9340 a729 3bbe bdfa 7c3f a7f9 783d
00000340: eb02 a3c0 8128 b4c0 8e6e 4cbe dd1b 6bc0
00000350: 80c8 fbbd 6f66 09be e19f fbbf d4d9 423c
00000360: 0818 ff3f e73b b640 d800 b53e 5f50 8fbf
00000370: d2ce e040 99cb 463e 08e8 07be 2d75 dc3e
00000380: e764 d5bd ad69 f13d b515 073e 4fbb acbe
00000390: a3f0 46be 96d2 a8be bb40 1c3f 18b7 32c0
000003a0: 5bb8 3e40 1b93 c1bc dcb9 3fbe 65f1 1ebe
000003b0: b318 a03d 9e7e 10be a785 ca3f b8f2 b7bd
000003c0: 2e57 66be eb32 e3bf 90ae d33c 3c94 a2be
000003d0: c854 98be bf85 87be 3ed6 0a3e db55 f9bd
000003e0: c05e b93d 7979 77c0 c57d 823d a41a 8c3f
000003f0: f7c7 ebbe fcff cd3e 8798 89be 8e09 19be
-0.23329666 0.09823385 0.09347159 -0.06988758 0.20002106 -0.17639239 0.11621965 0.08485499
0.110600695 0.13131392 0.14503545 -0.20547149 0.11191665 -0.18137452 -0.033521734 -0.015580359
0.064889565 -0.14508547 -0.15164259 -0.113170154 -0.20378755 -0.16309589 -0.20692115 0.20031475
0.006417988 0.092089504 0.11835749 -0.17255616 -0.17040578 0.088645466 -0.005097493 -0.15658303
0.16234249 -0.11238154 -0.12169441 -0.11846862 -0.19259343 0.0361352 0.096046664 0.028846554
-0.14541939 -0.20056587 -0.16979513 -0.05082567 -0.086214975 -0.05942289 -0.10067438 0.10040521
-0.09248846 -0.1442651 -0.15164922 -0.115018405 0.1286177 0.07660429 -0.14142719 0.20127137
-0.15578926 -0.09792688 -0.19255212 0.00539962 0.10845193 0.121893786 0.18452938 -0.17977665
-0.11805935 -0.08152597 -0.022547387 -0.057424184 0.05035592 0.19905818 -0.068031445 -0.11432827
-0.20268261 0.027422966 -0.04857699 0.22993544 -0.20654953 0.14332314 -0.15360895 -0.036059357
0.12779672 0.37319872 0.0114629585 0.08576488 0.0010870215 -0.1838401 0.11283001 0.17336372
-0.22139308 0.2545821 0.012589617 -0.14148627 -0.46645695 -0.033307027 0.18887375 -0.012067321
-0.22724855 -0.017617663 -0.05582328 -0.06900529 -0.13009997 0.18428586 -0.16731371 0.16774653
-0.20044035 -0.16559318 -0.1562756 -0.19565259 -0.13980496 0.09886998 0.20016521 -0.17239709
-0.08050129 0.042111542 -0.065881036 -0.16556872 -0.00982861 -0.15812711 -0.048544753 -0.09150678
-0.015302865 -0.42304894 -0.17273581 -0.009216082 0.23280677 0.21907838 -0.08721911 -0.03581475
-3.573638 -0.02728889 -0.2795188 -11.947388 1.6768037 0.06395384 0.4106575 -0.36551145
-0.4790906 -0.23918943 -0.33839443 3.0646298 -0.09500482 -0.115487605 -21.13631 -0.2354345
-7.708305 -3.339712 -0.016937682 -2.018152 -0.29641724 -0.13739215 0.86849046 -0.0388451
-4.7877297 -1.4686239 -1.0333732 -1.2643542 2.485136 -0.9433652 0.16295685 -12.404885
-0.10716 -0.20969526 0.083264604 -0.09445218 0.035504606 -0.22470953 -0.78113425 -9.166468
-3.851892 -0.29056466 0.020261511 -0.039296646 -0.15257922 -0.07170747 -0.071447454 -0.19977795
-0.13687555 -4.533447 -0.29108047 -0.18098961 -0.34637532 -0.15733677 -0.02599732 -0.037525564
-0.31498954 -0.5793834 -0.3190671 -1.3867602 1.2596455 -0.57509255 -0.3852688 -0.06105364
-3.3639572 -0.3292943 -0.045048214 -1.5688872 0.7065352 0.10434199 0.55060196 -0.14119864
-4.616049 -2.1325333 -0.23856802 -0.43488675 4.6230254 -0.18277608 0.98820096 0.060784962
-5.094106 -5.6299443 -0.19964048 -3.6735756 -0.12294102 -0.13417982 -1.9658166 0.011892755
1.9929209 5.6948123 0.35352206 -1.1196402 7.0252466 0.19413604 -0.13272107 0.43058148
-0.10419636 0.11787734 0.13191874 -0.33736655 -0.19427733 -0.32973164 0.6103627 -2.7924252
2.9800022 -0.023629716 -0.18723243 -0.15521772 0.07817211 -0.141108 1.5822037 -0.08981842
-0.22494194 -1.7749914 0.025840074 -0.3175372 -0.29752183 -0.26469228 0.1355829 -0.12174579
0.09051275 -3.866789 0.06371645 1.094563 -0.46051 0.40234363 -0.26874182 -0.14945051

conv_between.1.bias f4 [64]
00000000: 5dfd 1ac0 7f0a 61be 8476 b9bd e233 c83f
00000010: e678 983f efa5 9dbd 8398 4d40 a31b 1dbe
00000020: 6424 983d 3c2f 4640 ed5c 74be a8e4 bbc0
00000030: c964 69c0 6659 9dbe 137d 2f3f de9c ddbe
00000040: 6ce1 6bc0 c0ed 01c0 da96 09be faff 33c0
00000050: aafd 26be 6f58 4ebd 029b 8c40 829c 16be
00000060: 10ad 3140 a9ba 8f40 7df4 0240 2c74 2240
00000070: bb2e 803e 7c3f 27bf b4e7 c3bd 8d1f 8c40
00000080: b7f8 91be cccc 62be 463b 07be 2027 83be
00000090: d869 41be d0e3 adbf d307 e6bd e546 6c40
000000a0: 172c 48c0 2788 42bd 66fd 04be 3172 8fbe
000000b0: e6ea c9bd 932a 88be 7ad1 4cbf 1b70 a1bd
000000c0: 8ff9 8bbe 43f1 5b3f 9059 a4be 9d0b 6cbe
000000d0: 5336 21bf c341 80bd 7051 41be d76c 5dbe
000000e0: ddf3 91be 04df e9bf 553c 3bbe dafa 8e40
000000f0: 34ea 91c0 fd58 2bbf 2367 7bbe ffa2 cabd
-2.421714 -0.2197666 -0.09055808 1.5640833 1.1911895 -0.07697665 3.2124336 -0.15342574
0.07428816 3.096633 -0.23863573 -5.871662 -3.6467764 -0.30732268 0.68550223 -0.43283743
-3.6856337 -2.030136 -0.13436452 -2.8124986 -0.16307703 -0.050377306 4.393922 -0.1470814
2.776188 4.4915357 2.0461724 2.5383406 0.25035653 -0.65331244 -0.09565678 4.3788514
-0.28510067 -0.22148436 -0.13206205 -0.25615788 -0.18888032 -1.3585148 -0.11231961 3.691827
-3.127691 -0.047493126 -0.12987289 -0.2801681 -0.098592564 -0.26594982 -0.80007136 -0.078827105
-0.27338836 0.8591501 -0.3209958 -0.23051305 -0.6297352 -0.06262543 -0.18878722 -0.2162355
-0.28506365 -1.8271184 -0.18284734 4.4681215 -4.5598392 -0.6693266 -0.24551062 -0.0989437

conv_between.2.weight f4 [64, 64]
00000000: 7529 6dbe 75e9 42be f370 b0bf 9510 633f
00000010: fc46 5f40 64b7 363f 4e14 3dc0 d266 c9c1
00000020: f1fe 8bbd c5cf c140 de4d 9fbd 1970 aabe
00000030: 17cf 883d f5e5 1640 a591 173d 0a60 2fbe
00000040: 77f4 0abe ee4d 1b3b ac2f 82be 6ff9 483f
00000050: 1d51 db3f cf6a f83f 1b75 97bd 1ba5 183f
00000060: b2c1 8dbe 936e 15bf 4b48 0dbe 782f 2c3e
00000070: 7dcf 2ebe 5481 c9bb 8baf 54bf fea0 05be
00000080: 1b57 8dbe 5d9d 353f 7903 f73c 2a9e 9dbe
00000090: 02fe bb3f 3128 55bf eef6 55bd 00ac 20c0
000000a0: 3cde 09bd 0f05 82bf 3d4f f23f 0e3c 1640
000000b0: 56bb fb3f 2298 14be c1d7 e1c1 eb38 03c0
000000c0: bde5 93be f088 cfbe f541 7cbe c870 963c
000000d0: bdab 6bbe bfce 1dc0 3aac bfbc 0c24 41bf
000000e0: 6030 bbbe d38d 7cbe c956 9540 254b 0a3f
000000f0: ac2a 04bf 2cba c6bf f222 88bb f864 e9bf
00000100: ea21 f93d dda0 9dbd 6e1a 50be f0c0 183c
00000110: ab2c 10be 439e 973b 744c 17be 481b e1bc
00000120: 2d20 9b3d 366b bd3d eb42 363e 90f9 723d
00000130: 50c7 3abe 556b 6a3e 1623 a0bd 4951 113c
00000140: 3210 f3bd c92a 20bd eacb d3bc df37 febd
00000150: 4613 2e3e 1e06 273e 4bae fabd 5fae 27bd
00000160: d0e2 b2bd b252 0abe a332 b03b 9b3d fabd
00000170: 96c2 253e f049 cfbd 706c 24be 1f8e 6dbe
00000180: 1a99 283e 1768 f03c 6ddb a83d 8aad c0bb
00000190: fc31 20be a6bd 2abe 1ee3 3a3e 9281 7e3b
000001a0: 2724 783c de95 dc3d f2a7 5a3e 5177 4e3e
000001b0: f7a3 21be 82db 3bbd 2723 03bd 42f1 fdbd
000001c0: dc9b e13d 6f3e 0abe c8b1 023e 2203 c63d
000001d0: 540a e2bd 0ca7 4dbd 1f1d e9bd d54f 153e
000001e0: fc44 14be 2292 293e d0d3 dfbd f870 c9bd
000001f0: 3d8c 2a3e e03f d03c 2161 0fbe ec51 24bc
00000200: 7c09 50be 7634 23be 90c9 54be 30bb 9d3e
00000210: 4e4f 063e 75c7 033b 8dee 233e 1b80 aa3d
00000220: fbc1 bfbd 3776 e6bd f2c0 2e3e 694b b7bd
00000230: 491a 13be 4a27 9cbd 49ac 07be 4fbf f93d
00000240: 8b82 00be 96a8 4dbe f59c 3e3e 946b 193e
00000250: 1fe5 9ebe 87dd 4bbe 745c 4d3e c26a 343e
00000260: 38cf e03d 48f2 223c d50d e4bd 55a1 dd3d
00000270: 3018 2dbd 24ee 11be 6696 983d 6518 163e
00000280: c0d0 65bd 0754 b63c 3c67 13be f46b 263e
00000290: dac7 963e 37a0 db3d 6d2c 193e 779d fb3e
000002a0: f7a9 b73c ad32 fb3d b2ca 62bc c8c8 833e
000002b0: 62a7 0a3e 2f27 53be 15e4 a13e 50e7 43bd
000002c0: bc24 79be 8e2a f03b b286 acbd e88f e2bd
000002d0: d374 95bd 3909 babd ccec d5bd dc26 053e
000002e0: 0806 ffbc 1a0f 183e 51ea febe 111f 933e
000002f0: d040 cc3d 90b4 22be ae8d a23d 2f40 b6bc
00000300: 055b 28be ea55 86bc f5eb 15c0 cdcc b3c1
00000310: 8cd3 a4bd 9d02 dec0 5298 83be 85b6 96c0
00000320: 1863 58c0 0545 3d40 5546 76bd 665c 99c0
00000330: 55ad 11be 40ea da3e 0641 8440 6d36 a0bd
00000340: c8ad 84bc 9cfd 83be d520 13c1 abc3 c7c0
00000350: 8474 cdbf 4b2e cfbe 91b0 163c 7bd7 4ec0
00000360: f52a 603c 249f 37c0 a59a 84be 73d8 1ec0
00000370: 0002 64bd 7ce4 a13d aadd 7b40 2d95 cfc0
00000380: 47d2 d63d 9a45 6dc0 9855 c43d b722 88be
00000390: bdb0 813e ddfd bc40 1933 e23c 3586 db3f
000003a0: fca3 483c bc39 3dbf 5a3b e23f dde7 7d40
000003b0: 10fa eb3f 0a13 a43d 23e7 1ac1 6f8d aac0
000003c0: 3107 b4bd 7e69 9dbe 2a01 463e 5d54 10bb
000003d0: ffc8 9cbd 1b2f 063f 98b3 8bbe 2e41 10c0
000003e0: 73d3 a2bd ed0e 513e 6a92 10c1 8b5e 4140
000003f0: 4dbf dbbd de22 2240 063a 0040 14e6 493f
-0.23160346 -0.1903437 -1.3784469 0.8869718 3.4887075 0.7137358 -2.9543643 -25.175205
-0.068357356 6.0566125 -0.07778524 -0.3328865 0.06680124 2.3577855 0.03700413 -0.1712648
-0.13569818 0.0023697573 -0.25426996 0.78505605 1.7134129 1.9407595 -0.07395383 0.5962693
-0.2768684 -0.5837185 -0.13797109 0.16814983 -0.17071338 -0.0061494503 -0.8308036 -0.13049695
-0.2760552 0.7094324 0.030153023 -0.30784732 1.4686892 -0.8326445 -0.052237444 -2.510498
-0.033659205 -1.0157794 1.8930432 2.3474154 1.9666545 -0.14511159 -28.230349 -2.050349
-0.28886214 -0.40534163 -0.24634536 0.018364325 -0.23014732 -2.4657438 -0.023397554 -0.7544563
-0.36560345 -0.24663477 4.666844 0.5402091 -0.5162761 -1.5525565 -0.0041545564 -1.8233938
0.12164672 -0.07696698 -0.20322582 0.009323344 -0.1407954 0.0046270206 -0.14775258 -0.027478829
0.075744964 0.092489645 0.17798965 0.059320033 -0.18240094 0.22892506 -0.07819192 0.008869478
-0.118683234 -0.039103303 -0.02585407 -0.12413 0.1699954 0.16310927 -0.12240275 -0.040937778
-0.08734667 -0.13508108 0.00537713 -0.122187816 0.1618751 -0.10121524 -0.1605699 -0.23198746
0.16464654 0.029346509 0.08244977 -0.0058800625 -0.15644068 -0.16673908 0.18250701 0.0038834554
0.015145338 0.107707724 0.21353129 0.20162703 -0.15785204 -0.045863636 -0.032015946 -0.12399532
0.11016056 -0.13500379 0.1276313 0.09668566 -0.11037126 -0.050208136 -0.113825075 0.14581235
-0.1447944 0.16559651 -0.10929072 -0.09836 0.16655059 0.025421083 -0.14001895 -0.010029297
-0.20316118 -0.15937981 -0.20780015 0.30806875 0.1311619 0.00201079 0.16008969 0.083252154
-0.09363171 -0.112530164 0.1706579 -0.0894993 -0.14365496 -0.07624681 -0.13249315 0.12194692
-0.12549798 -0.20083842 0.18614562 0.14982444 -0.3103418 -0.19908725 0.200548 0.1761885
0.10977024 0.00994546 -0.11135451 0.10821787 -0.042259395 -0.14251 0.07450561 0.14657743
-0.056107283 0.022256864 -0.1439485 0.16252118 0.2944935 0.10723918 0.14958353 0.49143574
0.022419913 0.12265525 -0.013842272 0.2573912 0.13540414 -0.20620416 0.31619325 -0.04782802
-0.2433042 0.0073292917 -0.084241286 -0.11062604 -0.07297673 -0.0908379 -0.10445556 0.13003105
-0.031130806 0.14849511 -0.49788144 0.2873464 0.099732995 -0.15889192 0.079371795 -0.022247402
-0.16440971 -0.016398389 -2.3425267 -22.475 -0.08048162 -6.937819 -0.2570215 -4.70978
-3.3810482 2.9573376 -0.060125668 -4.792529 -0.14226277 0.42756844 4.1329374 -0.07822881
-0.016196147 -0.25779426 -9.195516 -6.2426353 -1.6051183 -0.40465006 0.00919737 -3.231902
0.013682117 -2.8690882 -0.25899234 -2.481961 -0.05566597 0.07904908 3.9354043 -6.48696
0.10489326 -3.7073731 0.09586638 -0.26588985 0.25330153 5.905989 0.027612256 1.7150332
0.012246128 -0.7391622 1.7674363 3.9672768 1.8435688 0.08011444 -9.68143 -5.329765
-0.08790434 -0.30744547 0.19336382 -0.002202294 -0.076555245 0.5241563 -0.27285457 -2.2539783
-0.07950487 0.2041585 -9.035746 3.0213954 -0.10729847 2.5333781 2.0035415 0.78866696

conv_between.2.bias f4 [64]
00000000: f38c 83be 842a 0cbe 4c81 ad40 030a 0440
00000010: be80 5440 16e2 01c0 1707 09c1 565d 9840
00000020: d853 6640 a908 a33f 9a4d afbe f9cf 12bf
00000030: a74b 0ebe 6d7f bc3f c5a5 21c0 52be 85be
00000040: c61a 88be 4455 10be fd1c 5140 510a 373f
00000050: d18b 1440 8c15 893e 7149 90be 5764 9140
00000060: 48c7 6fbe 2faf e23f af35 46be 0706 8640
00000070: 0fed acbe ffa8 6bbe 3ed6 70c0 3f11 3d40
00000080: 1e82 29bf 4ac8 0140 3093 66be ae04 b0be
00000090: 59f8 4abe 3542 34c0 c9c7 32be 2ff5 4fc0
000000a0: 3ea2 8ebe 55c8 1d3f 4082 c840 d147 69c0
000000b0: 6ad7 0441 2115 71be 312c 5340 4a67 f63f
000000c0: abb8 31be ceca 90be 79e9 9abe b64c 83be
000000d0: 9973 1fbe d838 9bbf bfae 48bf 48b7 003f
000000e0: 0593 8ebe 4178 45bd c184 9dbf c90a d4c0
000000f0: f246 71bf 4b34 20c0 c9ef 4540 e7c1 4ec0
-0.25693473 -0.13688093 5.4220333 2.063111 3.3203578 -2.0294242 -8.564231 4.7613935
3.5988674 1.2737018 -0.34238893 -0.5734859 -0.13896047 1.4726387 -2.5257428 -0.26121765
-0.26582927 -0.14095026 3.2673943 0.71500117 2.3210337 0.2677425 -0.2818103 4.5434985
-0.23415864 1.7709712 -0.19356416 4.1882358 -0.3377461 -0.23013686 -3.7630763 2.9541776
-0.6621417 2.0278497 -0.22517085 -0.3437857 -0.198213 -2.816541 -0.17459024 -3.2493398
-0.27858156 0.6163381 6.2658997 -3.6450083 8.302591 -0.23543216 3.2995722 1.9250271
-0.17355601 -0.28279728 -0.3025625 -0.25644463 -0.15571441 -1.2126722 -0.7839164 0.50279665
-0.27846542 -0.048210386 -1.2306138 -6.6263165 -0.9424888 -2.5031917 3.0927603 -3.2305849

conv_between.3.weight f4 [64, 64]
00000000: 0ead 253c 68ea af3b aa19 833d 1424 20bd
00000010: 03d8 2e3e e84f 643e 42c8 833e e8ad 673e
00000020: c45f 66bd c080 633e 1717 cabc 7b47 12be
00000030: b7b3 0c3e 2823 c8bd a482 693d bdaa 263e
00000040: 7be6 243e edf3 3abe 32d0 4e3e dabb 8e3b
00000050: 9f84 5fbd 961c 8bbd f350 183e a008 b1bc
00000060: 5903 b4bd 177e 463d 7704 d03d 2078 8cbe
00000070: aefb 38be 0f68 6abd 1e8a 9dbd 8559 143e
00000080: 029a 3cbd d454 80bd 1a46 2dbe b0ed 15be
00000090: 4483 073e 6793 593e b30a 563d 1050 573e
000000a0: 3e99 2f3e b0af 60bc 3aef a3bd 9490 353e
000000b0: 6272 b43d 30f4 6b3c 0b1d b1bd 866b 33be
000000c0: e976 f03d 034e 93bd 7c3f b83c a6c1 4fbd
000000d0: 74b6 45be a7ad 66be a297 9bbd 525f 1dbd
000000e0: 7f4a 99bc 105f 183d 0a3a 523e e07c 97be
000000f0: c6d5 84be 696f 3fbe d2a9 163c 77bb b0bd
00000100: ecfa 43be 154d 92be 19d7 e43c 6030 17bd
00000110: 7cf3 b53e 61c8 163e b07f 0c3e e937 c4bc
00000120: 4985 163d 3654 fe3d 04bc a7bd 653a 8ebd
00000130: d6a3 3f3e a55c bd3d bb7c 15be 6124 073d
00000140: f8f7 533e 0fdf fb3c 71a0 b5bd 4154 ad3e
00000150: f8cf c5bc 0986 8dbd f5a2 073e ca90 193c
00000160: e149 903c ca76 1e3e bd92 d23d bff5 61bd
00000170: 9e0b 563e c183 423e 26b7 71bc 7d26 4c3d
00000180: 5360 98bd dfae 7a3d b1f6 6bbe 9f56 40be
00000190: 5b7a 793e 04a1 aebd 3a91 16be 1b0c 09be
000001a0: 2933 443e c858 8d3d 5ccd 12bd afae 93be
000001b0: 278a 18be 1c43 f23b ead2 98bb d100 b93d
000001c0: 8132 053e cf45 223d 745e df3d 852c ca3d
000001d0: 3ac0 03bd 0e0c 8c3d e3e2 4a3e da8d 6b3e
000001e0: 3a24 40be 7543 15bd 9807 5bbe 7178 f13d
000001f0: 06c2 0b3e e53a 0e3e 1131 a4bb 3324 c03d
00000200: c04c 34c2 ecd6 993d c15d f53f 1d3e 27be
00000210: 9eec e2bf 3f2e 8cc1 6473 e340 d23f 2a41
00000220: 2aa8 a640 1aa0 a4c0 23bf b640 8205 d73c
00000230: 3175 12c1 98b8 e6bd 2916 4e40 d60d 5dc0
00000240: 0101 aebe 0f69 653f ddba 44be 163f 18c0
00000250: 6bb3 abbe caca 333d d348 00be 596a 77be
00000260: 7cda 88be 4ff5 18be dffe 2dc0 291c 53c0
00000270: aa9b 36be 4ef3 4440 c928 46c0 dd35 ac3b
00000280: c7eb fbbf 1c3f 3ec1 72ff ad3e a555 2d3f
00000290: 89e2 91c1 588e 4dbd 69ea 00bc 6d77 8740
000002a0: d998 883d cbe3 a6bf 5c9e 5440 1c38 813f
000002b0: 1df6 3bbd cb2e 4ebe 0903 bbbe b0f5 f63d
000002c0: 58a7 03bf e0ab b0bf 1c82 abbd 57f7 9cbf
000002d0: 0737 453e 6938 4ac0 f959 39c1 d0c3 3fc0
000002e0: d5a3 06c1 ca57 983c 16d4 60c0 df78 c9bf
000002f0: 54dd 803f de51 003d 7bb5 bd3f 6a5e b83e
00000300: fd21 ecc1 f730 a6be 61fe 14bf 3919 cabd
00000310: f65e 92c0 98ee afc0 45f3 b6c1 0ee0 36c1
00000320: cbb0 98c0 2001 2341 25df 9dc1 ff75 e0be
00000330: 29b1 a93f 9edd 12be 1837 ef3f b678 2a41
00000340: f259 d7be cd0b 6fbf 673e b33f 8c03 ddbf
00000350: ad4a 9b3f 3024 c9bc cb23 c8be cb20 b33d
00000360: 19b6 0dbe 2ce9 3cbe 64e8 03c0 7575 0540
00000370: 15c8 ebbe edbd 38c1 a658 703f 873d b83c
00000380: e3f7 e2bc 4765 3540 2b6e abbe 42c3 9a3f
00000390: bf3c 19bf acc6 0c40 9884 79be ff61 b3bf
000003a0: 001e 90be cff9 8a3b 7777 aa3d b941 0ac0
000003b0: 729f bbbd aa00 863d af62 6fc0 d829 3ebd
000003c0: 2c25 91be 3a96 b7bf 2991 9bbe 7ef8 87bf
000003d0: ff50 7d40 ddb4 27c0 1eb7 ac40 3f69 55be
000003e0: c475 0a40 6d1c 443d 104d 0ac0 1a85 cd3d
000003f0: 4bfd b23f e805 a4be 90c0 84bf d82e fdbe
0.01011206 0.0053685196 0.064013794 -0.039096907 0.1707459 0.22296107 0.25738722 0.22624934
-0.056243673 0.22217083 -0.024669213 -0.1428508 0.13740431 -0.097723305 0.057009354 0.16276069
0.16103546 -0.18257113 0.20196608 0.0043558897 -0.054569837 -0.06792562 0.1487463 -0.021610558
-0.08789701 0.048460092 0.101571016 -0.27435398 -0.18064758 -0.057228144 -0.076923594 0.14487274
-0.04604531 -0.0626618 -0.16921273 -0.14641452 0.13233668 0.21247636 0.052256297 0.21026635
0.17148301 -0.013713762 -0.08004613 0.17730933 0.08810879 0.014401481 -0.08648118 -0.17521486
0.1174143 -0.07192614 0.02249121 -0.050721787 -0.19307882 -0.2252718 -0.07597281 -0.038420983
-0.01871228 0.037200034 0.20529953 -0.2958746 -0.25944346 -0.18694843 0.009195762 -0.08629506
-0.19138688 -0.28574434 0.027934598 -0.03691137 0.35537326 0.14724876 0.13720584 -0.023952441
0.036748204 0.12418406 -0.08190158 -0.069447316 0.18714842 0.09246186 -0.14598362 0.032993678
0.20700061 0.030746011 -0.088684924 0.33853343 -0.024147019 -0.06910331 0.13245757 0.009372899
0.017613353 0.15475002 0.10281894 -0.055166002 0.20902869 0.18995573 -0.014753139 0.049841393
-0.074402474 0.061201926 -0.23043324 -0.18783043 0.24363081 -0.08526805 -0.14703837 -0.13383524
0.19160141 0.06901699 -0.035840377 -0.2884421 -0.14896451 0.007393254 -0.004663815 0.09033359
0.13007547 0.039617356 0.109066874 0.09871773 -0.032165743 0.06838237 0.19813113 0.23003331
-0.1876382 -0.036441285 -0.21389616 0.117905505 0.13648233 0.13889654 -0.005010732 0.093819045
-45.07495 0.07511696 1.9169236 -0.16332288 -1.772846 -17.522581 7.107836 10.640581
5.208028 -5.1445436 5.710832 0.026247744 -9.153611 -0.11265677 3.2201025 -3.4539695
-0.3398514 0.8961343 -0.19211908 -2.3788505 -0.33535323 0.043894567 -0.1252778 -0.24161662
-0.2672919 -0.14937328 -2.718681 -3.2985938 -0.17832819 3.0773501 -3.0962393 0.0052554444
-1.9681329 -11.890408 0.33983952 0.6770881 -18.235613 -0.050184578 -0.007868388 4.2333283
0.066697784 -1.3038267 3.3221655 1.0095248 -0.04588901 -0.20135038 -0.36525753 0.1205858
-0.5142722 -1.3802452 -0.08374426 -1.2262982 0.19259273 -3.159693 -11.584466 -2.9963264
-8.414998 0.018596549 -3.5129447 -1.5740012 1.0067544 0.031328075 1.4821008 0.36009532
-29.516596 -0.32459232 -0.5820065 -0.09868092 -4.574092 -5.497875 -22.868784 -11.429701
-4.771581 10.187775 -19.733957 -0.43840024 1.325719 -0.14342353 1.8688688 10.65447
-0.4206081 -0.9337738 1.4003419 -1.7266707 1.2132164 -0.024553388 -0.39089808 0.08746489
-0.13838996 -0.18448323 -2.061059 2.085294 -0.46051088 -11.546369 0.93885267 0.022490276
-0.027706092 2.8343065 -0.3348249 1.2090838 -0.59858316 2.199626 -0.24366987 -1.4014281
-0.28147888 0.0042412053 0.08323567 -2.1602614 -0.09161271 0.065430954 -3.7403982 -0.046426624
-0.28348672 -1.434272 -0.30384186 -1.0622709 3.9580686 -2.620414 5.397353 -0.2084093
2.1634378 0.04787867 -2.1609535 0.10035153 1.3983549 -0.32035756 -1.0371265 -0.494498

conv_between.3.bias f4 [64]
00000000: 498c 28c1 f07f 4440 2789 afbf 4f2d 3cbf
00000010: bc02 2ac0 e4f4 5d40 39e1 f5bf 53ae 4840
00000020: 00a4 abc0 09c6 12c0 6254 9b40 9a25 47bf
00000030: efea 43c0 5ec1 943d b108 c4be 6d11 8bbf
00000040: 128f a3be 9607 a33f 1c39 3cc0 cfb5 41c0
00000050: b848 b9c1 a17e 1abf c369 68be 3d54 22be
00000060: 2f31 bebe b6da 42bf 4d3c 10c1 f070 d340
00000070: 2da6 03bf 9cd6 04c0 3d94 2140 fd30 23bf
00000080: 6a69 2040 91e7 683f 92e8 763f 8fec 3a40
00000090: 85ce d73e 39e6 42c0 051f 23be 3855 de3e
000000a0: 9bc4 5fbf dc5c 10c1 5a98 08c0 412a 0740
000000b0: 718e e0be a48d 8dbe 4c53 4640 966e bebe
000000c0: 5ffb 56bf a154 0240 4fad 0cbe 5ebb 55bf
000000d0: bc62 0e40 ca6f 62be 91b3 c940 c2bb 4bbe
000000e0: 047d d040 7fd3 38bf 865a d0c0 5242 a840
000000f0: f27f cec0 241a b2be 4a9e cd3e 0d7a d0bf
-10.534249 3.0703087 -1.371373 -0.73506635 -2.656417 3.468072 -1.9209358 3.13564
-5.3637695 -2.293337 4.8540506 -0.7779175 -3.0612142 0.07263444 -0.3828788 -1.0864693
-0.3194509 1.273669 -2.9409857 -3.0267217 -23.160507 -0.6034947 -0.22696595 -0.15852447
-0.371469 -0.76114976 -9.014722 6.6075363 -0.5142544 -2.0755987 2.5246727 -0.63746625
2.506434 0.9097834 0.96448624 2.9206884 0.4214975 -3.0453017 -0.15929802 0.43424392
-0.8740937 -9.022671 -2.1342988 2.111954 -0.43858674 -0.27647126 3.098834 -0.37193745
-0.8397731 2.0364153 -0.13737987 -0.83489025 2.2247763 -0.22112957 6.3031697 -0.19895843
6.5152607 -0.7219772 -6.51105 5.2580957 -6.4531183 -0.3478557 0.40159827 -1.6287247

conv_between.4.weight f4 [64, 64]
00000000: 25c8 8fc0 2bd7 94c0 d757 363f 0d14 c2c0
00000010: 24c2 003f 1504 8dbe 55d4 babd ef51 51be
00000020: 115a 0fc0 aab3 a9c1 9e81 b9c0 eee1 80c1
00000030: feac 63c1 4d8a 8abe 0984 da3f 12df a1be
00000040: be34 15bf ec40 47c1 dd38 8fbf 31de b83e
00000050: 93ce aabf f2fd 9abd 36f1 d33f 98da e7bf
00000060: c925 adbe 80d7 eac0 f8af 9ec1 4d5f 08c1
00000070: c9d3 8cc0 0a3e 7b3f e890 eebe 8a3f edbf
00000080: 27fa d83f 3802 c6be ff59 71be 02ca 46be
00000090: 0215 86bf 3f12 85c0 dca5 6cbf c5fc 4ec0
000000a0: 7220 9ebf b240 1ac1 7307 373d fff2 2d3d
000000b0: 2c26 f93c 0cc3 04c0 bd28 b1be b723 12be
000000c0: a207 0bbe e0e3 26be 180e d63e 8d15 60be
000000d0: 7891 a6c0 e678 03c0 480f 3bbd 2567 f3c0
000000e0: b6b4 9f40 cb5b b4be 820e 34c0 09b6 adbf
000000f0: c06c 05c0 4048 313e fa53 50c0 a72f c3c0
00000100: 853c 2dc1 5000 35c1 fad2 09c0 40ca f5be
00000110: 959a b23f c135 cebd cdd7 3ebd 5e72 313d
00000120: d1e2 ae3f 45b6 37c0 ef2f bbbf 4af8 37be
00000130: 2a0c 0a3f 1c71 4bbd 2e61 9cbf 0fe2 c33b
00000140: e4f5 973f 3fd2 453f daf5 33bf 6852 9ec0
00000150: c1fc 39c0 12c3 2bbd f70f 07c0 8f19 6fc1
00000160: 5a11 a93e 137e cbbf 746a 63c1 411b 3ac0
00000170: c66d d93f ce31 da3d 5760 c3bd 63f2 32c1
00000180: dbc6 4fbf 43da b4be a752 00c1 c1a0 07be
00000190: 1d3e 6540 ca1b 2fc1 f155 4bbf b8ea 15c0
000001a0: cf63 b13f ceae 80c1 4a89 71be ef1b 193d
000001b0: c01f 8cbe d4fd 6b40 1763 cfbc 6860 a03d
000001c0: d31c 9abe 02bf b4be 3bed a6c0 ae6a 48bd
000001d0: 30d3 2040 ee62 d2bf fa22 0e3d bdd6 73c0
000001e0: ebb8 ac40 7c6e dabe 82ea 5541 3426 34bf
000001f0: adbf b6bd f054 bebe e67b 65bd 4bb2 cb3e
00000200: 5fd6 80bf 6bdc 81c0 cd72 86bf b0f9 db3d
00000210: ca19 073e 420a 693b 269f a5be d4e7 edbd
00000220: ec1c 8bbe 18b4 31bf 070f 3f3f 33ff c4be
00000230: 36e1 22c0 7126 ae3c 4eac ccbe cf82 12bf
00000240: 7560 e03e 48be 19bf 704f 1b3d 55d1 eabe
00000250: 1ffe 133f edf6 c3bc 0fc5 56c0 91f1 a1be
00000260: bac2 51bf 1284 f0bf 64ba 603f 503b 59bf
00000270: cf20 bdbe e2b5 4dbf dc1e 2cbe c23b a93f
00000280: 3d42 79bf 08ec 8bbe 749b a6bf b09c 0d3c
00000290: eb96 8bbf 5efa 33bf 697e bcbd 9bb9 30bd
000002a0: 135a a93e 3242 2f40 d5cf 8cbe 7d7e bfbd
000002b0: 5583 40be 67ef 8cbf a682 d7bb 115f 24bd
000002c0: aa58 9abe 0b7c 24be ad9e 333e d69f 4cbd
000002d0: 4538 e0c0 9824 183e e93f 34be 91f4 84be
000002e0: 9180 023f 960c cebd 4139 ecbf 2d25 0fc0
000002f0: 417e 50c0 04d1 64be 8db6 d33a 3a94 91bd
00000300: 26a3 3cbf e709 0b3f 2562 993f eb32 fc3e
00000310: ae05 7e3f 65f3 6abe 13f2 97be 9434 dabd
00000320: 4698 22c0 aa5f f63f 48bc f63f 3514 ab40
00000330: 2d44 6b40 5738 66be d3f9 70bf 3a71 86bc
00000340: f824 b93f 562c ed3f 1c98 82c0 6be7 583f
00000350: b7ef f0be 6126 90be 22ab 2540 e663 cfc0
00000360: 3501 85bf 783f 47bf faaa 7a40 9307 8e3e
00000370: 42c8 073f 16ff 47bf 5fd1 93be bec6 9140
00000380: 157a 953f 9532 72be a671 b33e b7da 3cbe
00000390: 5efe 373f ba2e 2d40 9cac 6ebe 94d8 8c3e
000003a0: 8d7b e7c0 4186 4340 3927 0bbd c241 8abe
000003b0: 9fdd 5ebe 3ffa cac0 a671 0cbe 6114 1e3c
000003c0: 3ba9 493d 8469 0bbd a633 e8bf a268 aebe
000003d0: e86a c6bf d3c3 bdc0 a926 2abe bf8c 0440
000003e0: f050 2ebf dbd7 0cbe faf0 01bf 9031 eac0
000003f0: 640a 4cc1 fe7f 90be 1568 ec3f 16e8 783f
-4.4931817 -4.6512656 0.7122778 -6.0649476 0.50296235 -0.27542177 -0.0912253 -0.20441411
-2.2398722 -21.212727 -5.7970724 -16.110317 -14.229734 -0.2705864 1.7071544 -0.31615502
-0.58283603 -12.45335 -1.1189228 0.3610702 -1.3344291 -0.075679675 1.6557987 -1.8113585
-0.3381789 -7.338806 -19.835922 -8.523267 -4.4008527 0.9814154 -0.4659493 -1.8535016
1.695134 -0.38673568 -0.23569487 -0.19412997 -1.0475161 -4.1584773 -0.9244058 -3.2341778
-1.2353652 -9.640795 0.04468484 0.042468067 0.03041371 -2.0744047 -0.34601393 -0.14271437
-0.1357713 -0.16297865 0.41807628 -0.21883221 -5.2052574 -2.054254 -0.04566887 -7.606341
4.9908094 -0.35226282 -2.8133855 -1.3571178 -2.0847626 0.17312717 -3.2551255 -6.099567
-10.827275 -11.312576 -2.153502 -0.48005867 1.3953425 -0.100688465 -0.046592522 0.04332196
1.3662969 -2.8704998 -1.4624003 -0.17965809 0.5392481 -0.049668416 -1.2217157 0.005977876
1.1871915 0.77273935 -0.70297015 -4.9475594 -2.9060519 -0.04193408 -2.1103494 -14.94374
0.3302105 -1.589785 -14.21349 -2.9079134 1.6986625 0.10654031 -0.0953986 -11.184176
-0.81162804 -0.3532277 -8.020179 -0.13244916 3.581916 -10.944284 -0.7942801 -2.342451
1.3858584 -16.085354 -0.23587528 0.037380155 -0.27367973 3.6873674 -0.025315804 0.07830888
-0.30100116 -0.35301977 -5.216459 -0.048929863 2.5128899 -1.6436441 0.034701325 -3.8099816
5.397573 -0.42662418 13.369753 -0.70370793 -0.08923278 -0.37174177 -0.056026362 0.39784464
-1.0065421 -4.0581565 -1.0503784 0.107409835 0.13193431 0.0035559093 -0.32347983 -0.11616483
-0.27170503 -0.69415426 0.74632305 -0.38475952 -2.5449958 0.021258565 -0.39975208 -0.5723085
0.4382359 -0.6005597 0.037917554 -0.45862833 0.57809633 -0.023921454 -3.3557775 -0.31629613
-0.81937754 -1.8790305 0.8778441 -0.8485613 -0.36939093 -0.80355656 -0.16808647 1.3221362
-0.97366697 -0.27328515 -1.301619 0.008643314 -1.0905432 -0.70303905 -0.09203798 -0.043145757
0.33076534 2.7384152 -0.27502313 -0.093502976 -0.18800099 -1.101056 -0.006576854 -0.040129725
-0.3014577 -0.16062944 0.17540999 -0.04995712 -7.006869 0.1485771 -0.17602505 -0.2596784
0.50977427 -0.10060994 -1.8454973 -2.236644 -3.257706 -0.22345358 0.0016152427 -0.0710835
-0.73686445 0.54311985 1.1983076 0.49257597 0.99227417 -0.2294441 -0.29676875 -0.1065456
-2.540544 1.9247944 1.9276209 5.3462167 3.6760361 -0.2248243 -0.941312 -0.016411413
1.4464407 1.8529155 -4.081068 0.84728116 -0.47057888 -0.2815428 2.58857 -6.4809446
-1.0390993 -0.7783122 3.9166856 0.27740154 0.53039944 -0.78123605 -0.28870675 4.5555105
1.1677881 -0.23652108 0.35047644 -0.18442808 0.7187251 2.705977 -0.23308033 0.27508986
-7.233832 3.0550692 -0.033972953 -0.27003294 -0.21764229 -6.3430476 -0.13715228 0.009648413
0.049233656 -0.034036174 -1.8140762 -0.34064204 -1.5501375 -5.9301543 -0.1661631 2.0710905
-0.6809225 -0.13754217 -0.50758326 -7.31855 -12.752537 -0.2822265 1.8469263 0.97229135

conv_between.4.bias f4 [64]
00000000: 79bd 14c0 1719 5e3f e263 1ac1 bcac 6a3f
00000010: f881 cebf 121d 7cbe 160d c1be 1690 14bf
00000020: 99e9 50c0 1a66 2940 5f5a 48c0 32b2 83bf
00000030: 8695 0e40 0eef d6be c86e 1740 c2ff febd
00000040: 0270 8b40 83a2 cfbf f7f2 b440 1e5c a23f
00000050: 55e0 4b3f 990d 2cbf 5b88 6240 eb8f bc40
00000060: 2fdf 3bbe 1176 8f3f 1fc5 7140 de61 4c40
00000070: 59b5 8640 c15b 28c1 930b 8ebe 49ff 53c1
00000080: bd1b 70bf 2308 4cbe 5a8b a140 fe71 5dbe
00000090: 928c 7340 076e 1c41 edff 41bf 6311 2b40
000000a0: 4af8 0341 24cb 54c1 78cf cfbe aa73 f6be
000000b0: 1920 08bf 01fb 3d40 1cc7 a8be 37c5 e2be
000000c0: a8b2 04bf e9ba ecbe a3b1 dd40 964e a2be
000000d0: 1a2b 0ec1 9908 d440 6221 d5be 151f febf
000000e0: b57c 3540 da8f d3be 711e 3dc1 b6eb 4a3f
000000f0: 0d3f 2840 7a30 05bf 59c2 a4be ea1b b7bf
-2.3240645 0.86757034 -9.649385 0.9166982 -1.6133413 -0.24620464 -0.37705296 -0.5803236
-3.2642577 2.6468568 -3.1305158 -1.0288756 2.2278762 -0.4197926 2.3661366 -0.12451126
4.357423 -1.622147 5.654659 1.2684362 0.7963918 -0.6720825 3.5395725 5.892568
-0.18346857 1.1207906 3.7776563 3.1934733 4.209637 -10.522401 -0.27743205 -13.2498255
-0.93792325 -0.19924979 5.0482607 -0.21625516 3.8054547 9.776862 -0.75781137 2.6729362
8.248117 -13.299595 -0.40587974 -0.4813512 -0.5317398 2.968445 -0.32964408 -0.44291088
-0.5183511 -0.4623635 6.927934 -0.3170058 -8.885523 6.6260495 -0.41627032 -1.9853235
2.8357365 -0.41320688 -11.819932 0.79265916 2.6288483 -0.52027094 -0.32179525 -1.4305394

conv_between.5.weight f4 [64, 64]
00000000: da24 57bf 18ce e53e 6661 3640 525c 3a3d
00000010: 0825 abbf 952a a63f 6352 c73e e89e 8ac0
00000020: db74 ecbd 476e 73bf 5d31 8b3d 5878 15c0
00000030: eaf8 14be 416d 5d3d b88f 15bf 97e7 5040
00000040: ba80 c13f 5a0c 6e40 5574 d5bf 4d68 7f3f
00000050: b744 0fc0 5ca7 0b40 3d4f 6bbe d263 c93f
00000060: f59c a83f dd6d 4140 ffbf 87be b383 f7bf
00000070: e61d 83c0 dae3 d840 5487 6640 a6e1 92c0
00000080: 3fd8 8fc0 e7db 4bc0 a5be 4d3f 9ab2 8b3f
00000090: a685 1440 c0e3 0cbf d1fa 27c1 3e58 07c0
000000a0: fded 8abc 7fcc 28c0 9641 8b3e 9390 09c0
000000b0: 8e0d 36c1 355c 223f d2d0 4e40 81dd 5ac0
000000c0: 43c1 8040 40f2 a43f cfb7 4fbe 707f c23f
000000d0: 5d58 9cbf 676e 6c40 b375 aec0 2c02 95c0
000000e0: fefb 45be e02e f8c0 9ca8 2040 2acb d9bf
000000f0: bf7e 8fbf 4329 e0be 9f7c 563e 9b43 c03e
00000100: e3ee 0640 f0d9 8cc1 514e 57c0 835a 40bd
00000110: c18c eabf 4029 693f 353c 77c1 16c9 3b3f
00000120: 32e0 23c0 3b33 86c0 4140 bcbd e0db 0a40
00000130: 0ff1 adc0 9250 55c1 774e 1bbf b5de 353f
00000140: 146d 5bc1 6e2b a6c0 b32b 2ec0 9aa7 ecc0
00000150: f434 a4bf 0825 84c0 9c37 58be fa2d 63bf
00000160: 228c a2c0 6e06 a03e 7a9c 7740 a402 a8c1
00000170: 29b3 3740 d5f5 31bf 45eb ad3f c472 0f40
00000180: e6eb fa3f 9173 06c0 e48b aebc 7288 f1bd
00000190: 7786 3fc1 9484 7ec1 87bb 07c1 a831 cdbe
000001a0: a81c 0b40 467f 973f 880e 86c1 a684 2ec1
000001b0: 2011 03c1 8fa0 8c40 ea30 71c0 47af 1740
000001c0: 7e4c d43f 54ae 25c0 e433 873d 90f7 17c2
000001d0: 47dc dfc0 8c96 97c1 e39b 00c1 37ac 133e
000001e0: abaf a33d b89d d6c0 ecbd 1fc0 d1d3 013f
000001f0: e5c0 64c1 dd87 7a40 7b04 cfc0 dcf4 bac0
00000200: 6141 83c1 962d 6840 7669 3141 f2f6 31be
00000210: 93af 78c0 446b 20c0 7c2d 6940 2988 1b40
00000220: ffb5 7541 0448 1dbf fdf9 41be 3eca 90c0
00000230: 0ac5 65c1 43b0 9040 d9ec 69bd 0ef3 73c0
00000240: 29bf 30c0 1f0d 343e 74ea a2c0 f769 02c1
00000250: 1fe7 8dbf e51e 50c0 f539 cebe a7ab 5441
00000260: 8819 6ec1 afef 5440 7b5e 9440 451f 90bf
00000270: 7081 1240 18fa ea40 62d9 64c0 c4d2 cd40
00000280: 9e46 3cbd bdab a840 a948 7541 2559 c8c0
00000290: 5ed9 4841 c603 15c0 2f1f d240 0ed1 0940
000002a0: 8a93 bf40 18dd 7b40 b198 d43f 2331 d0c0
000002b0: c929 6840 453d f4c0 b020 d53f 4795 2ec0
000002c0: adc9 b3bd 30be a741 c9bf 513d a7ed e53f
000002d0: 8fe3 dd40 753a 40c0 9080 8c3f 0240 67c0
000002e0: 9e75 6ebd 5119 82bf 0d6b 2fc0 1631 ec3e
000002f0: a5fb 2440 8111 9fc0 7720 ef3f f6a6 0c40
00000300: ad00 d53e 4d06 30bf 451d 8dbf 870b debe
00000310: 3dae 2d3f 3e3c 41bf 20d8 30c0 cefb 4140
00000320: bc5a a43f ed78 633f 4010 7cbe 8b5c 42c1
00000330: 53ef e63f ded7 adc0 9886 573f 34f7 dbbf
00000340: 3e39 0b3e e961 093e eee9 43c0 c744 c23f
00000350: 3ab8 543d 7cae 67bd 0b30 3abe d070 62c0
00000360: 0c7d 173f 2a89 893f f94f 213f d450 a2bf
00000370: b58a 66c1 321d ffc0 d364 e2c0 6e41 f33e
00000380: 610d 45c1 45ce 1940 d94d d8bb b6b6 133e
00000390: a0b8 5ebe 46c1 1ec0 6de6 93c0 b6cf 83c0
000003a0: 9618 e2be 1a5a ddc0 f87e 813f d97b 21c0
000003b0: 4f5d 733e 3ad4 f7c0 650f f7bf f079 c6bf
000003c0: acd3 27c0 7194 a73f 0d14 53be e90b 11c1
000003d0: 86b5 813f d824 b53e c087 3cc0 46ce 8cbf
000003e0: 2abd 17bf 76b7 01c2 dd3a bcbf a826 c1be
000003f0: 681b 1440 f54e ef3b 81c7 3ac1 dd29 403f
-0.84040606 0.448838 2.8496947 0.0454982 -1.3370676 1.2981745 0.38930044 -4.3318977
-0.11545726 -0.95090145 0.06796525 -2.3354702 -0.14548078 0.05405927 -0.5842242 3.2641351
1.5117409 3.7195039 -1.6676127 0.99768525 -2.238569 2.1820898 -0.22979446 1.5733588
1.31729 3.0223305 -0.2651367 -1.9337066 -4.0973997 6.777814 3.6020098 -4.590045
-4.495147 -3.1852968 0.80369025 1.091388 2.3206573 -0.5503502 -10.498734 -2.1147609
-0.016959185 -2.6374815 0.27198476 -2.149449 -11.378309 0.63421947 3.2314954 -3.4197695
4.0235915 1.2886429 -0.20284961 1.5195141 -1.2214466 3.6942384 -5.4518676 -4.656515
-0.19334409 -7.755722 2.510291 -1.7015126 -1.1210555 -0.4378148 0.20945977 0.3755158
2.1083305 -17.606415 -3.364155 -0.04696132 -1.8324205 0.9107857 -15.452199 0.7335371
-2.5605588 -4.1937537 -0.09191943 2.16967 -5.435676 -13.3321705 -0.606666 0.7104295
-13.71413 -5.1928015 -2.7214172 -7.395459 -1.282866 -4.1295204 -0.21114963 -0.8874203
-5.079606 0.31254905 3.8689256 -21.00129 2.87031 -0.69515735 1.3587424 2.2413797
1.960324 -2.1008036 -0.02130694 -0.11793603 -11.970328 -15.907368 -8.483283 -0.40076947
2.173624 1.1835716 -16.757095 -10.907385 -8.191681 4.3945994 -3.7686105 2.370073
1.6585844 -2.5887651 0.06601694 -37.99176 -6.9956393 -18.94851 -8.038058 0.14421163
0.079924904 -6.706753 -2.495967 0.5071383 -14.297093 3.9145424 -6.469297 -5.84239
-16.406923 3.6277823 11.088247 -0.17379358 -3.8857162 -2.506547 3.6434011 2.4301856
15.356933 -0.6143801 -0.18943019 -4.524688 -14.360605 4.5215163 -0.05711064 -3.81171
-2.7616675 0.1758313 -5.09112 -8.15087 -1.1086158 -3.2518857 -0.40278593 13.291907
-14.881233 3.3271291 4.6365333 -1.1259543 2.2891502 7.343029 -3.575768 6.431978
-0.045965783 5.270964 15.330239 -6.260882 12.553068 -2.3283553 6.5663066 2.1533847
5.98676 3.9353695 1.6609098 -6.505998 3.6275504 -7.632479 1.66506 -2.7278612
-0.08778701 20.967865 0.05120829 1.7963151 6.934028 -3.003568 1.0976734 -3.6132817
-0.058217637 -1.0163976 -2.7409089 0.461312 2.5778592 -4.9708867 1.8681782 2.1976905
0.41602078 -0.68759614 -1.1024557 -0.4336817 0.6784399 -0.7548255 -2.7631912 3.030994
1.284019 0.88856393 -0.24615574 -12.1475935 1.8041786 -5.432601 0.8418975 -1.7184815
0.13596055 0.13416256 -3.061153 1.5177239 0.051933505 -0.056562886 -0.1818239 -3.5381355
0.5917518 1.0744984 0.63012654 -1.2680917 -14.408864 -7.972314 -7.0748076 0.47510856
-12.315766 2.4032147 -0.006601077 0.14425167 -0.21750116 -2.4805465 -4.621878 -4.1191053
-0.44159383 -6.9172487 1.0116873 -2.523184 0.23766063 -7.7446566 -1.9301573 -1.5505962
-2.6222944 1.3092176 -0.20613118 -9.065408 1.0133522 0.35379672 -2.9457855 -1.100045
-0.59273016 -32.42916 -1.4705464 -0.37724805 2.3141727 0.0073031136 -11.673707 0.7506388
