GN0/model/GraphSAGE_best.pt (torch, 402043 bytes, 245 tensors)

gnn.convs.0.lin_l.weight f4 [32, 4]
00000000: 19ef c9bc e27a d3bd 84cd a6be 6e3d 48bd
00000010: 4c0d 94bc 18cc 3b3f 9c59 b13f 6528 9abe
00000020: 22cd d7be 78f2 dabe 3d77 0ac0 7d8b 9ebc
00000030: 967b 82be de20 b2be f6fe 9d3c 3e8a b0be
00000040: 9fa7 e3bb d06b dfbf 95dd 893f e657 8d3c
00000050: 4025 fbbe da9a d4be 5159 bfbf 2c3e 86be
00000060: 32d1 d73c 78de 7c3f ee9e 16bf a13f a53e
00000070: dbc6 d0be 52f0 99bf c605 1dc0 f537 38be
00000080: 73c4 c5bd 6f9a a5bd 242c 7fbf da8a dfbe
00000090: f213 233c 8e0a d4be d92e 23bf 90cc cabe
000000a0: 3fa6 b8bc a774 6f3e 8d87 513e e388 1bbe
000000b0: d3bc a7be 8fe1 2ebf d312 ac3f 82bd 553e
000000c0: 86cc 3ebf 5557 cd3e baf3 a1bd 6e72 1dbd
000000d0: 2f62 f23d bf20 e93e 216d 293f 1cd2 aebe
000000e0: cf7d 963c a9ab 3940 c6fa 8cbf 2eda cebd
000000f0: 8b90 733d a1d0 c2be 3b2c 54bf 8e8f a33e
00000100: 5e25 3dbe 7edd 38bf aeb1 16c0 5a1a 5dbe
00000110: 76fd 9d3c b763 a23e 6a97 063f 4c32 323e
00000120: e6f7 45be d515 81bf 0611 87bf d182 5bbf
00000130: 48b9 cc3e 8a2c 473f cc63 633f b4c8 2d3e
00000140: d0a8 a5be 9c4a f0be e9b8 1fbf a824 08be
00000150: 5fd6 99be 7372 72be c7e2 7c3f d2dd 813e
00000160: 491a d83c 30ff 83bf ade4 2840 a276 2e3e
00000170: e3da 93be 7cf0 04bf c5cf 933e 2ac0 47be
00000180: 12fc 90be f316 023f 37ab e8bf 6a08 e13b
00000190: 1b20 133f e633 0b3f 4f4d c33e 4c41 db3d
000001a0: cfc3 273d 6a35 acbf 6c18 b1bf c0ff aabc
000001b0: ea0a c63e df68 cfbe 5837 9fbf c88a 0c3d
000001c0: 4967 773e c6d3 b33f 54fa edbf 02f2 cc3e
000001d0: 8d43 ea3e 72ca 4ebe 1e82 eabe 96ec d7bc
000001e0: 20c3 b5bd c784 933f 34cd ac3f edf0 e9bd
000001f0: bb4d 563c 55c9 c2bf 69ca 0fc0 3cb4 fcbd
-0.024650143 -0.103261724 -0.3257867 -0.04888671 -0.018072747 0.733583 1.3855472 -0.30108944
-0.4214869 -0.42763114 -2.1635277 -0.019353623 -0.25484914 -0.347907 0.019286614 -0.3448047
-0.006947472 -1.7454777 1.0770746 0.017253827 -0.49051857 -0.41524392 -1.4949132 -0.26219308
0.02634487 0.9877696 -0.5883626 0.32275108 -0.40776715 -1.2026465 -2.4534774 -0.17990096
-0.0965661 -0.080860965 -0.9967673 -0.43660623 0.009953486 -0.41414303 -0.6374336 -0.39609194
-0.02254021 0.23384343 0.20461865 -0.15188937 -0.3276125 -0.68312925 1.3443245 0.20873073
-0.7453083 0.40105692 -0.07907815 -0.038439207 0.11835133 0.45532796 0.6618214 -0.34144676
0.018370537 2.9011023 -1.101403 -0.10100208 0.05946402 -0.38049796 -0.8287999 0.3194546
-0.18471286 -0.7221297 -2.3545947 -0.21592084 0.019285899 0.317167 0.5257479 0.17401999
-0.19332847 -1.0084788 -1.055207 -0.85746485 0.39985108 0.77802336 0.8882415 0.16971093
-0.32355356 -0.46931922 -0.62391526 -0.13295233 -0.30046365 -0.23676471 0.98783535 0.25364548
0.026379721 -1.0312252 2.6389573 0.17037442 -0.28877935 -0.5192945 0.28869453 -0.19506899
-0.28317314 0.5081627 -1.8177251 0.006867458 0.57470864 0.54376066 0.3814492 0.10705814
0.040958222 -1.3453801 -1.3835578 -0.020873904 0.38680202 -0.40509698 -1.2438765 0.03431204
0.24160494 1.4049003 -1.8592019 0.40028387 0.45754662 -0.20194414 -0.45802397 -0.02635793
-0.08875108 1.1524895 1.3500123 -0.11422906 0.013080056 -1.5217692 -2.2467291 -0.123390645

gnn.convs.0.lin_l.bias f4 [32]
00000000: 7da7 9d3e 9f3b 1fbe d56c e03d 19a3 1d40
00000010: fdaa 33bf 5102 03bf e57e e4bd 45a8 b33e
00000020: 4a66 be3f befc 1d3d cf98 98be 1e2b b7bd
00000030: a36b 5abf 33be 1e3f 37c5 03be 9897 8f3e
00000040: d5a7 ecbe 0fb8 493c c130 96be 5feb d03d
00000050: 5996 163d 6948 3b3e 7365 d3bd ef1e 033f
00000060: b50c 173e b20f 5e3d 5157 263f ba48 08be
00000070: 1a47 9c3d 28d5 d33e aec9 883e cfdb 3b3f
0.30791846 -0.15550087 0.10958258 2.4630797 -0.7018278 -0.5117541 -0.11157016 0.35089317
1.4874966 0.03857111 -0.29804084 -0.08943771 -0.8532049 0.6200897 -0.128682 0.28045344
-0.46221796 0.012311949 -0.2933407 0.102011435 0.036764476 0.18289341 -0.10322084 0.51219076
0.14750941 0.054214187 0.64976984 -0.13308993 0.07630749 0.41373563 0.2671637 0.73382276

gnn.convs.0.lin_r.weight f4 [32, 4]
00000000: d4cf ccbe 8341 b5bf f58e 88bf ff22 693d
00000010: 4ef6 6b3e e72e 5c3f 67c5 623f 4bea 9d3e
00000020: 1b50 ff3e 4b29 373f a668 303e 5cf2 b13c
00000030: 4c22 5dbe cfb2 253f b89b 203f a6d0 a93e
00000040: 9d46 5d3e 34d3 04bf 7b86 653f 0e9f c8bc
00000050: 105d b73e a399 0c3f 53eb 2ebf bf58 8b3e
00000060: 0e68 553e af21 c8bf 5e71 d1bf 7dc9 9fbe
00000070: 4b99 a43d 23f7 5b3e 496c 1d3f 3e92 363e
00000080: fa24 f5be 2ada 163f 6bbb 973c 0d2e de3e
00000090: a869 d0bc 2e4f 27be 4510 4440 e44e c83e
000000a0: 1781 87be 4d42 533f c02c b03f a814 183e
000000b0: 1845 f63e 8be3 05be 7d14 813f 96f5 60be
000000c0: 57f6 57be 34ec 603d e651 2b3e 9ac9 7c3d
000000d0: 28eb 27be d600 e9be 34ad 963f 1f10 b83e
000000e0: 819d 67bc 5b67 323f b338 b0be 432e c63d
000000f0: bb1b 10bf 643c 12bf 5a32 77bf 6a84 a0be
00000100: f26b a53e 3c03 933e fc91 3b3d c01a d0be
00000110: e443 1cbd 234d 1a40 64b8 013e 2ac9 31be
00000120: 8ff9 853c a558 383c 777e f43e 90b4 80bf
00000130: 6115 46be 488d dfbe 3d1e a3bf 5d8d 30be
00000140: b8c2 053f 55e8 dabe 2cca 5bbf f3f3 123e
00000150: a1b6 063f d3dd 3a3e 81f0 bd3e 9032 82be
00000160: fc0b b9bc ca0a 693e 79ce e8bd 8072 2fbe
00000170: 892d 5f3e 6015 febf 59d4 d6bf 8304 513e
00000180: f8d5 7e3e 37b0 0bbf e2c7 0ebf b8e4 ffbb
00000190: dd1e 0cbe 760d ccbf 4a2b 1a3f a7a0 cdbd
000001a0: 1180 a5be 67ad 73bc 7a29 8bbd df2f 993c
000001b0: e502 6abc 5f78 823e dba4 98bf 138b 30bd
000001c0: 9e74 9c3d 3e2d 873d 41ba 94be 36c2 c9be
000001d0: 6a6d 31bf 926c 3bbf 8da7 6fbf 02e5 223d
000001e0: 286b 503c fbc2 5dbf 2424 32bf f8f2 e13d
000001f0: f374 9c3e 8ec1 fdbd 36dd 15bf 86f7 013e
-0.4000231 -1.4160618 -1.0668627 0.05691814 0.23043177 0.8600907 0.8858246 0.30842814
0.49865803 0.71547383 0.1722742 0.021722011 -0.21595114 0.64725965 0.6273761 0.33167
0.21608968 -0.5188477 0.89658326 -0.024489906 0.3581319 0.5492193 -0.68327826 0.27216145
0.20840475 -1.563528 -1.6362722 -0.3120841 0.08037051 0.21480994 0.61493355 0.17829224
-0.47879773 0.5892664 0.018521985 0.4339451 -0.025441006 -0.16338798 3.063493 0.3912269
-0.26465675 0.8252304 1.3763657 0.1485163 0.4809959 -0.13075082 1.0084378 -0.21968684
-0.21090065 0.05491276 0.1673046 0.0617157 -0.16398299 -0.4550845 1.1771607 0.359498
-0.014136673 0.6968896 -0.34418258 0.096767925 -0.56292313 -0.571234 -0.96561205 -0.31351024
0.32308918 0.28713405 0.04579352 -0.4064541 -0.038150683 2.410958 0.12667996 -0.17361894
0.01635435 0.011251603 0.47752735 -1.0055103 -0.19344093 -0.43662477 -1.2743603 -0.17241426
0.5225024 -0.4275538 -0.85855365 0.14350872 0.5262242 0.18248682 0.37097552 -0.254292
-0.022588722 0.22758022 -0.113675065 -0.17133522 0.21794714 -1.9850273 -1.6783553 0.20411877
0.2488631 -0.5456576 -0.55773747 -0.007809248 -0.13683648 -1.5941608 0.60222304 -0.10040408
-0.3232427 -0.014872885 -0.067950204 0.018699585 -0.014282917 0.2548246 -1.192531 -0.04310138
0.076394305 0.06600426 -0.2904835 -0.39405984 -0.6930758 -0.7321254 -0.9361504 0.03976918
0.012720861 -0.8662564 -0.69586396 0.11032671 0.30557975 -0.12390433 -0.58540666 0.12692079

gnn.convs.1.lin_l.weight f4 [32, 32]
00000000: 2e84 11bf b9cf 993e 76e0 2e3e 84c6 163f
00000010: a3cd d03e 9dee 2f3e 0b7e f73e 9325 5abe
00000020: 3b89 f0be 91e7 bdbc 4e1e 683f 9605 e83e
00000030: b6bb b83e e92d cc3a 0e01 f93e b8aa 283f
00000040: edfb 9d3e bc9b bd3c 67a3 3fbe 7b5e 18bf
00000050: a64b a03e 6d05 453e 172f c83e 2335 643e
00000060: 44cc a93d e39c 5fbf 4f54 863e a851 ffbe
00000070: 22a3 653d 2eaf 7c3e c27b c73e afc1 5bbf
00000080: 6366 e23d 46d2 ebbd dffb 4d3e 686e 5ebe
00000090: 7c62 f13c bb62 60be f728 eb3e 8836 a33d
000000a0: 1f89 c83d fb42 a8bd 78ad fabc 3438 82bd
000000b0: d1e9 3e3e e37d ba3c 2895 17be 66b7 e1bd
000000c0: a720 2fbd bc73 63be fc68 603e 33ee 4dbc
000000d0: 064a 483e b78b c93d 7d21 12bd 3c1b 37be
000000e0: 143f bb3c 1712 473e 1abc 2abe 5ba3 d13d
000000f0: 45d7 56bd a4e2 543d d3dc fe3c 17b6 e43d
00000100: 0f8d 88be 71e0 5cbe b5b3 c1be 392a eb3d
00000110: 27b3 76be 4d51 b33d 9338 223f e6c6 d53e
00000120: d6ab 09bf 5c18 1fbe 6e96 6fbf afe7 83be
00000130: b51b c2be 22b5 193f ccef d6bd 0a30 643f
00000140: 0897 aebe 8e24 4a3e 632b febd 0fb2 1d3f
00000150: e418 d7bd 5230 c63e 94ef 96be bcde cd3d
00000160: 3efa 65be 7161 dbbe 037b c63e ab3c c33e
00000170: 02c4 91be 787e 4c3e 25fb 8b3e f14e 05bf
00000180: 4fb5 e43e 394d 343c 623d 31be 6096 003f
00000190: 7258 e1bd 2fc0 133f 0d00 acbe e60f 5b3e
000001a0: 2dde 153f 94b0 c0be bf9a 673f 76ed c7bc
000001b0: ce85 b53d 3668 08be 222c 1fbe 4fb6 4a3e
000001c0: ebcc a43d 8c91 4fbd 98e5 863e d55c 08be
000001d0: a015 083f d62f e5bd 4671 593e cec8 8d3f
000001e0: 7979 283e bbc8 54be f730 f43e da1d c2be
000001f0: b671 2c3e a809 a23c 2c42 e93d 2d7f b03e
00000200: 95d0 0c3e 57cd 3ebe 162a e43d 2dd5 14be
00000210: 0b90 b83c 1e31 8cbd 9600 a93e 145e a8bd
00000220: 7227 21bf d52d 5f3e 9c5e aabf 60ce 1c3d
00000230: afaf dd3b c678 43bc e694 203e 2b29 1dbf
00000240: c0e0 1f3d bb9f fdbb 4f51 6e3f c869 b5bd
00000250: 45ad 5abe d186 883d bb99 993e fe79 9abe
00000260: 7f92 09be 5138 df3e 015f a8bf 5691 b2be
00000270: 403b 88bc b22c ae3d 0803 9bbe 3696 483e
00000280: e3b1 cf3e 2e0d 7e3e 0468 e8bd 3dbe 40bd
00000290: f781 89bc 0312 ec3e c2c9 04bc 77ba 38be
000002a0: ea0c 3a3e 51ac a73d 4919 cabf c618 89bd
000002b0: ec74 45be 9a26 07bf d44a 73be 7947 f0bf
000002c0: 64d9 3d3e e0e8 663d efee 86bc f199 29be
000002d0: cafb ce3e 7bcf 38be ef7e adbe 0c06 34bd
000002e0: bacf 07bf 154c 9e3d b8e5 b23f 7bab dcbe
000002f0: 48a4 7fbe 0590 023f 959b c9be 92ef 3a3d
00000300: fa6a 5c3e 607c c8bc dd8a b63e 4bc1 cfbe
00000310: 329c aabe 6838 2fbe 1c44 c4bd 5095 e9be
00000320: 56b0 92be cca5 01bf b6b6 37bf 0dc2 483d
00000330: c355 10bf 2321 84bd 320d 853e 2593 60bd
00000340: 4ef1 ba3d bad3 a6be 69a7 e5be 73c2 123b
00000350: a408 2d3e 775e 41bf fb5e 26bf 44e4 1abf
00000360: 6ef9 b23c 863c 7cbd 16ed aabd eabb 0a3d
00000370: ca0d 2a3e 8093 4e3e 46e7 b6be 7d21 e13c
00000380: 7017 49be 8bba 00bd 9004 7fbd 567f 86bd
00000390: 5c99 513d cbc4 15be 33bb c23d bfe3 863e
000003a0: 78e0 88be 0540 51be 4cee 633e 54c0 a1be
000003b0: 8192 b1be d705 633f 216d f83d e185 30be
000003c0: 27cc 8f3d dcf2 67be f38f fabd fdf4 27be
000003d0: 8fa3 7c3d 863e 64be ba25 9a3d b187 5dbe
000003e0: 7a6a b1bd a29d bd3e ebfc 4a3e e2eb c0be
000003f0: f74f f1be 5563 84be 6ce5 e33d 30e8 d5be
-0.56842315 0.30041292 0.17077813 0.5889666 0.40781888 0.17180867 0.4833835 -0.21303396
-0.469797 -0.023181709 0.9067124 0.45316762 0.36080712 0.0015577647 0.48633617 0.65885496
0.30856267 0.023145549 -0.18714677 -0.59519166 0.31307715 0.19240351 0.39098427 0.22285895
0.08290914 -0.87348765 0.26236197 -0.49866986 0.05606378 0.24676201 0.38961607 -0.8584241
0.11054685 -0.11514716 0.20115612 -0.21721804 0.029465906 -0.21912663 0.4592969 0.079693854
0.09791779 -0.082159005 -0.030600294 -0.06358376 0.18643881 0.022765106 -0.14802992 -0.110213086
-0.04275575 -0.22212118 0.21915048 -0.012568998 0.19559488 0.098411016 -0.03567647 -0.17881483
0.022857226 0.19440494 -0.16673318 0.10236236 -0.05245139 0.051973954 0.031111157 0.111675434
-0.2667012 -0.21569993 -0.37832418 0.11482663 -0.24091779 0.08755741 0.63367575 0.4175331
-0.53777826 -0.15536636 -0.9358891 -0.25762698 -0.37911764 0.6004201 -0.104949564 0.891358
-0.34099603 0.19740507 -0.12410619 0.6159982 -0.105027944 0.3870874 -0.2947966 0.10052249
-0.22458741 -0.4284778 0.38765725 0.38132223 -0.28469855 0.19970119 0.27340046 -0.5207358
0.44669577 0.011004739 -0.17308572 0.50229454 -0.11003198 0.57715124 -0.3359379 0.21392784
0.5854214 -0.37634718 0.904705 -0.024405222 0.08863412 -0.13321003 -0.15544179 0.19796108
0.080468975 -0.050675914 0.2634704 -0.13316663 0.53158 -0.111907646 0.21234617 1.1076906
0.16452588 -0.20779698 0.47693607 -0.379134 0.16840252 0.019779995 0.113895744 0.34472027
0.13751443 -0.18633018 0.1114084 -0.14534445 0.022529623 -0.06845306 0.3300826 -0.08221069
-0.62950814 0.21794827 -1.3310122 0.038282752 0.006765328 -0.01193065 0.156818 -0.6139094
0.039032698 -0.0077399886 0.9309282 -0.08858067 -0.2135516 0.06666339 0.300001 -0.30171198
-0.1343479 0.43597654 -1.3153993 -0.34876508 -0.016629815 0.08504619 -0.3027575 0.19588551
0.40565404 0.24809715 -0.113479644 -0.047056425 -0.016785605 0.46107492 -0.008104743 -0.1803988
0.18168989 0.081871636 -1.5788966 -0.06694178 -0.19282883 -0.52793276 -0.23759013 -1.8771812
0.18539959 0.05637443 -0.016471354 -0.1656263 0.40426475 -0.18047898 -0.33885905 -0.04395108
-0.5305134 0.07729355 1.3976355 -0.4309958 -0.24965012 0.51001006 -0.39376512 0.04563863
0.21525183 -0.02447337 0.3565282 -0.40577158 -0.33322293 -0.17111361 -0.09583303 -0.4562173
-0.2865016 -0.5064361 -0.7176317 0.049013186 -0.5638086 -0.06451633 0.2598663 -0.054827828
0.091280565 -0.3258341 -0.44854286 0.0022393733 0.16897827 -0.75534767 -0.6498868 -0.60504556
0.021847453 -0.061581157 -0.08346002 0.033870615 0.16606823 0.20173454 -0.35723323 0.027481789
-0.19637847 -0.0314279 -0.06226021 -0.06567256 0.051171646 -0.14625852 0.09508362 0.2634563
-0.26733756 -0.20434578 0.22258872 -0.31592047 -0.34682086 0.88680786 0.1213019 -0.17238571
0.07021361 -0.22651237 -0.122344874 -0.1640205 0.06167942 -0.22289476 0.07526727 -0.21633793
-0.08662887 0.37034327 0.19823043 -0.37679964 -0.4713132 -0.25857034 0.11127743 -0.41778708

gnn.convs.1.lin_l.bias f4 [32]
00000000: 56e2 09bf 129d 963e f118 a43e 9273 23bf
00000010: d9b0 183f 192f 05be 5f05 b53f d06a eabd
00000020: aac4 09bf 6880 d4bd fe4c 853e ced3 08be
00000030: 1e6b 0bbc 8348 d8be a5eb f0bc d734 223f
00000040: 66aa c83c b50b b23e 1613 bdbd effa f83e
00000050: a16e 0d3f c731 91bd ac88 b03e 615e c93e
00000060: 6577 913e 04e3 71be f5c8 1cbe 60f2 b1bd
00000070: 1fd7 3f3e 220f bc3e 2a72 913e c922 efbe
-0.53860986 0.2941671 0.3205028 -0.6384822 0.5964485 -0.13006248 1.4142264 -0.11446154
-0.5381571 -0.10376054 0.26035303 -0.13362047 -0.008509425 -0.42242822 -0.029409239 0.6336188
0.024495315 0.34774557 -0.09232156 0.48628947 0.5524693 -0.070895724 0.34479272 0.39329818
0.28411403 -0.23621756 -0.15311034 -0.086888075 0.18734406 0.36730295 0.28407413 -0.46706226

gnn.convs.1.lin_r.weight f4 [32, 32]
00000000: 4313 913d 3d4e b5bd a8a0 51be c813 9e3d
00000010: 329d 023e 1345 063d c63f 04be be45 ba3c
00000020: 801a 83bd 9ea4 46bd 930c f6be fe2e 993d
00000030: eda5 ffbe 243c a7bd 896e c2bd 2524 abbe
00000040: f539 103d c780 03bd c9d0 4ebe 9710 18be
00000050: 31af c43e f6b6 ce3c a4c2 15be 95ea c73e
00000060: a40d 46be 1f2b 7fbd 1b5b af3e ffc5 77be
00000070: 9108 3dbf 83e4 003e ab8d 6dbe 7d10 fc3d
00000080: 9bf2 29bf a4b3 033f 59c0 3c3d 6776 bebe
00000090: 1f61 593e 8cc5 35be ac58 d4be dc1e e43d
000000a0: 6671 cabe 8b64 f0bd 3d69 11be 4687 0e3f
000000b0: 699b b2be 4f0e 9cbe 2a46 613d 2168 80be
000000c0: c835 633e 412d 79ba bab0 bebe de79 e3bc
000000d0: 86ed edbd a72d 213f 5c55 80be 85c8 2dbe
000000e0: 9553 a53d 15ca b8be 094d b0be 4145 813e
000000f0: e1b3 b43e 1b26 c8be ac09 82bc 1620 963e
00000100: 0552 f6bd 760a 22be efcd 6d3d 39a7 45bd
00000110: 7c50 47bf 94a1 063f 2287 9d3e 38a9 4a3d
00000120: 67d9 a6be 3dbb 793c 36ce e3be 2153 02be
00000130: 6608 8a3d d438 b43c 6735 a3be 00f1 ddbc
00000140: 70c7 7c3d 1677 73bc baa1 2e3e 642f 503a
00000150: 4cf6 953d 49e3 063e 63b2 edbd 6325 20be
00000160: 71b5 3ebe 6396 8fbd 73a1 a53e 97c4 0a3c
00000170: 4188 4dbd 096d 593e ddc7 613e ba8d 4cbf
00000180: 9b30 65be e523 6d3e 5f85 d5bd 668b 98be
00000190: 8870 6ebd edce 863e f66d 0dbf 2744 a2be
000001a0: eb08 f33d 692a 78bd 779a 483e 8e83 c23c
000001b0: 5263 5abe 966e ebbe 1639 edbe f636 473f
000001c0: 4f73 cf3d 1ab1 913e 5245 abbd 5798 d4be
000001d0: cda6 8b3e 421d 103e c02f 273d aac5 2b3e
000001e0: 14d7 843e 6a2a b0be d0fe 013f 2e20 0f3f
000001f0: 1615 313e aee0 8cbd f677 95be f8da ba3d
00000200: 3f9f 163f 07f1 653e 814a 4a3e ae66 873d
00000210: 0af1 003e a477 0a3d 21dc c0be 3868 9bbd
00000220: 3826 4e3e d3dc 17be 6d75 9c3e 8930 2c3e
00000230: 35fb 9abe 9630 913e 867c 333e 5065 4e3f
00000240: a3b9 5d3e 0653 4c3e 77fa 67bf 1303 c93d
00000250: 493e b93e 3d0b 873b af11 453d 1d05 1fbd
00000260: 7f3f b93e ed92 3bbe 629f 1f3f 88f6 3fbf
00000270: c083 c5be 51e0 0b3e 7f53 7b3d 9045 f13e
00000280: 549c 85be eb4e f43d 7b94 3ebe 3339 493e
00000290: 3f9d af3e 16ba 40be 476a 9abd ae7b b13d
000002a0: d267 84be 381a 16be 8d84 04be 7ea0 44bd
000002b0: e105 6cbd a141 4f3e 139b 9c3e a374 afbe
000002c0: bf48 2b3e cbae e13d 043a 7c3e 9397 4b3d
000002d0: 9aee 23bd 4acb f8bc 4985 3ebe d605 4e3e
000002e0: e794 b93d 898e c63d bace 783d 5ab3 ce3c
000002f0: b1a9 15be bda7 c3bd 5a36 37be 8512 1cbe
00000300: db63 9a3d 2422 403e fe01 e4bc dfe6 963e
00000310: 9cbf 7dbd 92fc 123e a920 8e3e 5704 d03e
00000320: e6b8 283e ea1a 20bd 3ccc 983d d016 eabd
00000330: 4628 0e3e 49a2 31be 5976 213d ef44 99bd
00000340: ea39 09bd 7e29 8d3f 58b5 4f3e 8af3 b23e
00000350: f77c 5abe 9dd8 13be 5ba4 de3e 1ef3 df3d
00000360: 29c7 64bd 3ab3 acbe cdba 283d 06cb 123e
00000370: ea2c f83d 7d33 c4be 8e3e 76be 09d9 043e
00000380: 087e 1a3f 429a b1be 375c 54be b64b 07be
00000390: 0953 1dbe 69cf bfbd 59e0 7fbf 2c6c 153e
000003a0: ffda 1f3f 07df afbe 576b a33e 1378 fdbd
000003b0: 399a 07be bcb7 a43e 3d12 0cbe 67a8 5f3f
000003c0: 980b 81bd a89f 42bd b7dc 1d3e 094a 82be
000003d0: 342d 86bd c2a8 5f3e 702a 763e 890a ef3e
000003e0: d7a3 65be bc0a 323e c93a 333f 3e3c 2e3e
000003f0: 53f3 b63e 1629 9b3e ae85 61be e665 b4be
0.07083752 -0.088528134 -0.20471442 0.07718617 0.12755278 0.032780718 -0.12914953 0.022738334
-0.06401539 -0.048496835 -0.48056468 0.07479666 -0.4993128 -0.08165768 -0.09493739 -0.33426014
0.035211522 -0.032105234 -0.20196833 -0.14850079 0.3841491 0.025233727 -0.14625031 0.3904616
-0.19341141 -0.062296983 0.34249195 -0.24196623 -0.73841196 0.1258717 -0.23198573 0.123078324
-0.6638581 0.51445985 0.046081875 -0.3719971 0.21228455 -0.1775114 -0.414739 0.111386985
-0.3953964 -0.11737927 -0.14200301 0.5567516 -0.34884194 -0.30479667 0.054998554 -0.25079444
0.22188485 -0.00095053395 -0.37244207 -0.027768072 -0.116175696 0.62960285 -0.25065124 -0.16971023
0.08072583 -0.36091676 -0.34433773 0.2524815 0.35293487 -0.39091572 -0.015873753 0.29321355
-0.12027363 -0.15824303 0.05805772 -0.04825518 -0.77857184 0.525903 0.3076716 0.049477786
-0.3258774 0.015242395 -0.44493264 -0.12727024 0.06739883 0.021999754 -0.3187668 -0.027092457
0.061713636 -0.014859935 0.17053881 0.0007941632 0.07322368 0.1317264 -0.1160629 -0.15639262
-0.18623902 -0.07011106 0.32349738 0.008469722 -0.05017877 0.21233 0.22048898 -0.7990376
-0.22381823 0.23158224 -0.10425829 -0.29793853 -0.058212787 0.26329747 -0.5524591 -0.3169262
0.11866935 -0.06058732 0.19590174 0.02374437 -0.2132695 -0.45982808 -0.46332616 0.7781824
0.10129415 0.2845543 -0.08362831 -0.41522476 0.27275696 0.14073661 0.040817022 0.16774622
0.25945342 -0.3440736 0.5077944 0.5590848 0.172932 -0.06878792 -0.29193085 0.09123796
0.5883674 0.22455226 0.19754983 0.066113815 0.12591949 0.033805504 -0.37667945 -0.075882375
0.20131767 -0.14830332 0.3055834 0.1681539 -0.3026978 0.2835738 0.1752797 0.8062334
0.21652846 0.19953546 -0.90616554 0.098150395 0.36180332 0.0041212128 0.048112568 -0.038823236
0.36181256 -0.18317766 0.62352574 -0.7498555 -0.3857708 0.13659789 0.061358925 0.47123384
-0.2609583 0.11929115 -0.18611328 0.19650726 0.34299657 -0.18820986 -0.07539802 0.08666168
-0.2586046 -0.14658439 -0.12941189 -0.04800462 -0.057622794 0.20239879 0.30587062 -0.34268674
0.16726969 0.11019667 0.24631506 0.0497051 -0.04002247 -0.030370373 -0.18605532 0.20119414
0.09061604 0.09695155 0.060744025 0.025232006 -0.14615513 -0.09553478 -0.17891827 -0.1524144
0.07538577 0.18763024 -0.027832981 0.29473016 -0.06195031 0.1435416 0.27759293 0.4062831
0.16476783 -0.039088167 0.074608296 -0.114301324 0.1388255 -0.17347063 0.039419506 -0.07483851
-0.033502497 1.1028287 0.20284021 0.3495143 -0.21336733 -0.144381 0.43484768 0.10935043
-0.055853996 -0.3373049 0.041193772 0.1433526 0.12117942 -0.38320532 -0.240473 0.12973417
0.6034856 -0.34688002 -0.20738302 -0.13212475 -0.15363707 -0.09365732 -0.999517 0.14592046
0.62443537 -0.34349844 0.3191783 -0.12376418 -0.13242425 0.32171428 -0.13678832 0.87366337
-0.063010395 -0.04751554 0.15416227 -0.2544711 -0.065515906 0.2184172 0.24039626 0.46687725
-0.22425781 0.17386907 0.70011574 0.17015168 0.35732517 0.30304784 -0.22023651 -0.35233992

gnn.convs.2.lin_l.weight f4 [32, 32]
00000000: 4d06 2dbd fbe7 863e 927d 333e de73 cc3e
00000010: 2075 333e 552c 48bf fee0 aa3e 36d4 9fbd
00000020: 5d28 a63d e6d9 24be 4bfb a4be 3a3f 303e
00000030: 9a8a d93e 87d2 c3be 88f9 3abf e646 d7bd
00000040: 0b88 a9be 570f b53b c245 0d3e 5f95 353e
00000050: 5b29 193f f807 233f 5501 b4be c4db acbe
00000060: c5c9 393f f9df 15bc a061 113e 05ed 46bd
00000070: cd5a 123e bfd8 0abf 6518 f3be 02f4 0bbd
00000080: 94b2 16be ea80 d63e ce42 3cbb c731 b239
00000090: 05e4 ddbe 20a8 043e d8f3 3f3e 3b24 ffbd
000000a0: 1d36 2f3e b98c 943d 99b4 d73d 7cdf 9abe
000000b0: 3562 b23e fd38 10be cf7c 01bf 4353 163f
000000c0: 3e1b 0abd b973 a8be 608d c03e 518f 903e
000000d0: 1706 54be f8b3 433f b538 8bbd cae7 1ebe
000000e0: 0a97 3bbe a76e 243e 84e4 33bf bd00 e8bd
000000f0: ce74 2fbe 80c4 86bd 19fe d0bd 851d 57bf
00000100: 2330 923e b29f 3abe b6ee 59be f670 a0be
00000110: 5730 ddbe 94fe c63e cb7a 553e 80d5 b9bd
00000120: 0bec ce3c 8377 ea3e bbce 0dbd 32c1 9cbd
00000130: 42b5 a53d d481 373e cb59 73bc 07be 133f
00000140: b5bf 8f3e d670 0dbf 311e 323f 210d 813e
00000150: e691 3b3d c797 9dbd 6e4b 0abd 522f d0be
00000160: 2c12 f23d b4a0 c3be 7a70 363f 330e 223d
00000170: adb5 163e 9c18 f73e 32ed 32bd 0a8f 04be
00000180: 4d03 1bbd e169 7dbe 0bf1 92bc d5a8 2dbe
00000190: 1107 803c 9088 babd 68ba 3a3e 65ec 01bc
000001a0: 37a1 483e 18bb 52be 7ba7 04be 9335 0fbf
000001b0: 3e23 963e de8a d1bd 0df4 9fbd 91ad 363e
000001c0: 7669 a6bd 9efe 5c3d 36a3 dabc 7a86 873d
000001d0: 0d6e 363d 9636 3f3e dac2 e43c 9f44 af3d
000001e0: e934 40bd b686 2a3e 683e 843d c4d4 033d
000001f0: 0733 4c3d 6d62 643e b593 56bd 2d39 643d
00000200: 088e 07bf 59be 363e 1fc6 083e 435d 4a3e
00000210: c5e2 d23f 3fa6 943d 5b1b c73e b20f 31be
00000220: 139c 833e 8a22 013e 8ea2 5abe 3d6c 593d
00000230: 4240 3c3e 2e27 753e a7ec 81be 9f46 bd3d
00000240: 1524 ebbe b385 d73c 23fd 983e ee85 fe3c
00000250: e33b 083e 95ab 45bf 65a1 d0bc 4976 843d
00000260: 91ec 563e 0924 983e 782f 7a3d 8538 20bf
00000270: b986 16be 4a11 43be 3f69 443f 81e2 4a3e
00000280: f47b 4ebe 09f8 b0be c90f 58be 7fa3 26bc
00000290: 0561 2fbf 4cb5 843e 822c 343e 29c1 5d3e
000002a0: 938e bebe b4bf b33c 58a4 4fbf 9f85 3c3e
000002b0: f729 7e3d f45f 79be 5fb7 36bf d5e4 febe
000002c0: 2c70 41be ba87 bc3e 8b9d 0dbe eeaa 3d3e
000002d0: fff6 283e 1923 413f 00fa 17bd b7f7 25bf
000002e0: 25b5 7f3e da13 023f 32c2 74be 6427 54bf
000002f0: f504 16be b30b ca3d 05b6 bb3d 71c7 0a3f
00000300: 504e 21bf be59 16bd 4f61 c33e cd38 17bf
00000310: b52d 593e f555 793e bd75 cb3d 1f63 203f
00000320: 8bc1 e3bc 877c 443b 74c5 b43e 8888 833e
00000330: d688 193e eaf9 773e 9acb ccbe e949 1cbe
00000340: 2a3d 0abf 732c b3be 4da9 d7bd 3b20 83be
00000350: 9870 383e a523 193f 651f c33e b616 693c
00000360: 405d 543e 259d b73e d0c2 fcbe b15f a83e
00000370: baec b9be c98e 93bd 23a6 713c cf73 3b3e
00000380: daf2 a63e fe2e 803d 880a a13e e22a 3fbd
00000390: 7426 963e e3bb 15bf 6305 f63d d652 d7bc
000003a0: 817b 1d3e 8a0b 1abf c0f5 05bf 98f7 b83e
000003b0: 82c0 ecbe fb44 17be d4fc 493e 02aa 93be
000003c0: 8288 b53e c757 aa3d 9a69 363f 7e42 513e
000003d0: 48b1 c5be ae67 2ebe 41ac 623d e12a 8cbe
000003e0: 5398 d63e e0a6 233e 2827 f2be 31a5 663e
000003f0: 0c50 ff3d 90c1 503e a154 303e 7b1b 413e
-0.042242337 0.26348862 0.1752837 0.3993215 0.17525148 -0.78192645 0.3337478 -0.07804148
0.081131674 -0.16098747 -0.3222297 0.17211619 0.42488557 -0.38246557 -0.73037004 -0.1051157
-0.33111605 0.0055255103 0.13796142 0.17732762 0.5982873 0.63684034 -0.35157266 -0.33761418
0.725735 -0.0091476375 0.14197397 -0.048565883 0.1429245 -0.5423698 -0.4747955 -0.03416825
-0.1471656 0.4189523 -0.0028726342 0.00033987893 -0.43338028 0.1295476 0.18745363 -0.12458082
0.17110486 0.07253403 0.10532493 -0.3024863 0.3484055 -0.1408424 -0.5058107 0.587208
-0.033717386 -0.3290079 0.3760786 0.28234342 -0.20705448 0.76446486 -0.067979254 -0.15518108
-0.18319336 0.16057836 -0.7027056 -0.11328266 -0.17134401 -0.06580448 -0.10204715 -0.8402942
0.2855235 -0.18224981 -0.21282467 -0.31336182 -0.43200943 0.38866103 0.20847623 -0.09073925
0.025259038 0.45794305 -0.03462098 -0.076540366 0.08091213 0.17920619 -0.014852951 0.57711834
0.28075948 -0.552503 0.6957732 0.2520533 0.045793436 -0.07694965 -0.03376334 -0.40661103
0.11819872 -0.38208544 0.71265376 0.039564323 0.14717741 0.48260963 -0.04368324 -0.1294519
-0.037844945 -0.24747421 -0.017937204 -0.16958936 0.01562837 -0.091080785 0.18235171 -0.007929896
0.19592749 -0.20579183 -0.12954514 -0.5594112 0.29323763 -0.10231565 -0.07810221 0.17839648
-0.08125584 0.05395376 -0.026689153 0.06617446 0.044538546 0.18673167 0.027924944 0.0855801
-0.04692546 0.1665295 0.064572155 0.03218533 0.04985335 0.22303171 -0.05238696 0.05571859
-0.529511 0.1784605 0.13356827 0.19762139 1.6475455 0.072582714 0.38888058 -0.17291144
0.25705013 0.12610832 -0.21351072 0.05308174 0.18383887 0.23940727 -0.25375864 0.092419855
-0.45925966 0.02630887 0.29880628 0.031069722 0.13304095 -0.7721494 -0.025467584 0.064678736
0.2098868 0.29714993 0.061080426 -0.6258624 -0.1469983 -0.19049564 0.7672309 0.19812967
-0.20164472 -0.34564236 -0.21099772 -0.010170816 -0.68507415 0.2591957 0.17595103 0.21655716
-0.3721815 0.021941997 -0.81110144 0.18410347 0.06205174 -0.2435301 -0.7137355 -0.4978396
-0.18890446 0.368223 -0.13829629 0.18522236 0.16500472 0.7544418 -0.037103653 -0.6483111
0.24971445 0.5081154 -0.23902205 -0.82872605 -0.14650328 0.09865513 0.09165577 0.54210573
-0.6301012 -0.03670668 0.38160178 -0.59071046 0.21208842 0.24349196 0.09934566 0.62651247
-0.02780225 0.002998145 0.35306895 0.25690103 0.14993605 0.24216428 -0.39999086 -0.1526257
-0.5399958 -0.3499485 -0.105303384 -0.25610527 0.18011701 0.59820014 0.3810989 0.014226606
0.20738697 0.3586208 -0.4936738 0.32885507 -0.3631342 -0.072049685 0.014749083 0.18305896
0.32607156 0.06258963 0.31453347 -0.046671756 0.29326212 -0.5848982 0.12012746 -0.026284616
0.15379144 -0.6017386 -0.5232811 0.361264 -0.46240622 -0.14772408 0.19725353 -0.28840643
0.3545571 0.083175234 0.71254885 0.20435521 -0.38611817 -0.17031738 0.055340055 -0.27376464
0.4191309 0.15981627 -0.472955 0.22523953 0.124664396 0.20386338 0.17219783 0.18858139

gnn.convs.2.lin_l.bias f4 [32]
00000000: 39b7 2d3e f110 a93e cff0 b73d 9ad3 a53e
00000010: 6469 e73e 2bf1 9d3d ba83 3c3f 016e 493d
00000020: c2cb e03e 3c27 75be d3b9 4b3e 6d91 9d3e
00000030: 7161 1abc 7e7c 4d3e a30d 0d3e c4e0 f2be
00000040: 5873 273f 01aa 3fbd 730f ac3e 56dc 153f
00000050: 7d46 93be c37d 55be 018a 91be ead2 7e3e
00000060: 1652 0f3f fac7 63bf 7280 e83e cf06 b73e
00000070: 4d5b 0ebf 0e24 8bbe 7066 513f c31f 95be
0.16964425 0.33020738 0.089814775 0.32388002 0.45197594 0.07712015 0.736385 0.049177174
0.43905455 -0.23940748 0.19895105 0.30775014 -0.009422646 0.20067021 0.13774733 -0.47437108
0.65410376 -0.046792988 0.33605537 0.5853933 -0.28764716 -0.20848756 -0.284256 0.24885145
0.5598463 -0.88977015 0.45410496 0.35747382 -0.55608064 -0.27175945 0.8179693 -0.29125795

gnn.convs.2.lin_r.weight f4 [32, 32]
00000000: ac03 4dbd f590 4c3e 259c 54be 0c55 39bd
00000010: 5a61 55bf 5ef7 8a3e 908b 373e c66b 353e
00000020: 6b90 37bd 47b9 80bc 0eca 9cbe f378 06bd
00000030: 16f3 03be e008 c439 3236 bd3d eb78 173e
00000040: 2177 36be 9346 b03e 3d82 dbbc db14 23bf
00000050: db9e f4be 7ddd e53d 8152 03be bc04 10bc
00000060: 286b 46be ac10 05be 719c aebd c1f4 c8be
00000070: 9229 893e 21fe d33c ee52 7b3b c9b9 bf3c
00000080: f13c 3f3d d06a 9ebd 5e9b 373e 2c22 8ebe
00000090: e090 00be b03f b93c 9681 cfbe b62b a83e
000000a0: 8cc1 76be 20b3 783e 5f5a cf3d e02f 6bbd
000000b0: 6322 53bf d551 b23e 25ff d8bd ab7d 203e
000000c0: d928 373d 8c19 173e fc3f 6fbd 2ede 6f3e
000000d0: 0c31 413e b3fb 273e 5736 64be b86c ea3d
000000e0: a40a 873e 132d 60be 47b3 b03e d3f2 8cbe
000000f0: c3de 4ebc 2e7d 073f e666 883e 6846 2fbf
00000100: 74c9 2fbe c56e afbd be9b 9f3e 5788 723d
00000110: c84f 043c fdda b43d 200d 6b3e 6d1c 94be
00000120: c94f 513e c99a c5be f28e c6bd 4e8b fa3e
00000130: 09b4 603d 0a01 a93e dc6f a43d fc7d 003d
00000140: 1e25 1a3d e314 813d 438e a3be 052c 853e
00000150: 7b8c 13be afe5 fcbd 59d6 c9be 5d73 d23c
00000160: 132e 5a3e db96 bf3d 8611 f03d 3c4f 37be
00000170: 7bbd 8d3e 0b4e 6cbe 9ee3 263e fb20 8f3e
00000180: cf95 273d ee69 39bf 9ad5 05be ee40 193e
00000190: a90e cf3d 0122 04be 6c89 693e 8267 d73e
000001a0: c49b fc3d 7be2 9d3d 8b1e 86bd 5853 80be
000001b0: 550c 35be 031a 403f 8729 30bc b6b3 233d
000001c0: 78a1 65bc 7a50 47bd bc95 b73c ae57 413f
000001d0: c63f f4bd f609 863e 3ed8 dbbe b0d4 5bbe
000001e0: 446e ae3d 92d4 ce3d 67d9 923d 5b36 013e
000001f0: b4d2 c43e b529 783d b576 483f ffcb f3be
00000200: 3863 8abe 9274 433e 5db0 e5be a618 f03d
00000210: 328c c1bd b0f0 9ebd 2755 06be b513 0d3f
00000220: fc8e 0a3e ec49 383c 9315 c9be 051b bf3d
00000230: 31fc 893e 17e6 343e 7b07 4bbe f371 b63e
00000240: acf8 0c3e 084d e23d 35b2 95bd 2033 08be
00000250: 3166 893e bff4 aebe 7c77 c2bd dddf a93e
00000260: fb3d 8b3d 5c77 023f e29a aebd 634b afbd
00000270: f434 6d3e f53d 2f3d 3665 943e 24b7 493e
00000280: 9292 cdbd 2ad4 083d 0914 a43d 0b07 84be
00000290: ca13 7ebc 5956 573e 5c5d d4bd 6348 5a3e
000002a0: 3c5c 1f3e dc4c 1c3e c0af cebd c88c 62be
000002b0: f36d f63d 7c23 2abd d3f5 753e 5b0e d6be
000002c0: 79e4 4f3d 5763 543e d206 a83e 9803 9abc
000002d0: b4f9 9dbe 6495 783e aeb4 5fbd e073 4cbe
000002e0: 11ce 01be 70fa 39be cec7 bfbd e593 7abe
000002f0: 9f5a d1bc df67 7cbe 08ef e4bd 07bc fc3d
00000300: 439c 36bd ba0a 11bf 50a8 b8be 4ffb bb3d
00000310: 612d da3e ef78 26be 8d5d c7bd b1a2 3ebd
00000320: 5cd6 67be be69 833e 5012 52be d9e1 88be
00000330: c080 2cbd 253d 1bbe 6ced 53bd 0d32 93be
00000340: 5039 f1be 587d 9a3e 7ab7 5bbe 62b7 7ebe
00000350: 00a9 55bd c501 f7bd 3758 a93d 20c1 95be
00000360: 52d2 54be 771d 50be 2eaf b2bd cd5b 5a3e
00000370: 23c5 37bd 8f0f 8ebd 962b cdbe e46d 09be
00000380: 8f79 203d 59f8 963d 37c3 6e3c 6c71 dd3b
00000390: 2de1 8f3d 2159 c13c 410b 413e 0608 e5bd
000003a0: f336 b83e 7694 a8bd de50 f83c ec9a 613f
000003b0: e078 66be f630 5abd c4cc 683e f67b bd3d
000003c0: 3d37 da3e df09 a5bb d060 89bd d43d b8bc
000003d0: b385 2ebe 4dc6 87bd 8e8c 11bd 3727 653d
000003e0: b980 153e 4638 0ebf ee46 a83c 8e1a 89be
000003f0: 2c40 b6be e943 87be f724 383e 04f3 af3d
-0.05005233 0.19977172 -0.2076269 -0.045247123 -0.8335167 0.2714185 0.17924333 0.17716894
-0.044815462 -0.015713347 -0.30622905 -0.03283019 -0.12885699 0.00037390646 0.092388526 0.1479222
-0.17818882 0.34428844 -0.0267955 -0.637037 -0.47777447 0.11223886 -0.12824441 -0.008790191
-0.19376814 -0.12994641 -0.085259326 -0.39249232 0.26789528 0.025878014 0.003834899 0.023404019
0.046688978 -0.077352166 0.17930362 -0.27760446 -0.12555265 0.022613376 -0.40528554 0.3284585
-0.2409727 0.24287081 0.10124659 -0.057418704 -0.82474345 0.34828058 -0.1059554 0.15672939
0.04471669 0.14755839 -0.05841063 0.23424599 0.18866366 0.1640461 -0.22286354 0.11446518
0.26375306 -0.21892194 0.34511778 -0.2752901 -0.012626353 0.52925384 0.26641005 -0.68466806
-0.17166692 -0.085660495 0.3117351 0.059212055 0.008075662 0.08830831 0.22954226 -0.28927937
0.20440592 -0.38594654 -0.096952334 0.48934406 0.054859195 0.33008605 0.08029148 0.031370148
0.037633054 0.06302812 -0.31944475 0.26010147 -0.14409058 -0.12348496 -0.39421347 0.025689775
0.21306638 0.09354945 0.11722092 -0.1790132 0.27683625 -0.23076646 0.16297767 0.2795485
0.040914353 -0.7242726 -0.13069764 0.14966175 0.10110218 -0.12903596 0.22806329 0.42071158
0.123343974 0.07709213 -0.06548794 -0.25063586 -0.17680486 0.7503969 -0.010752088 0.039966308
-0.014015548 -0.048660733 0.022410266 0.75524414 -0.11926226 0.26179475 -0.42938417 -0.21467853
0.08517125 0.10099138 0.071703725 0.12618391 0.38442004 0.06058665 0.7830613 -0.47616574
-0.27028823 0.19087437 -0.44861117 0.11723451 -0.09450568 -0.07760751 -0.1311842 0.55108196
0.13531107 0.011248093 -0.39274272 0.093313254 0.2695022 0.17665897 -0.19827072 0.3563381
0.13766736 0.11049849 -0.07309381 -0.13300753 0.26835778 -0.341711 -0.09495446 0.33178607
0.06798931 0.5096338 -0.08525635 -0.08559301 0.23164731 0.042783696 0.28983468 0.19698769
-0.10037722 0.03340546 0.08011634 -0.25786623 -0.015507648 0.21029033 -0.103693694 0.21316676
0.15562528 0.15263695 -0.100921154 -0.22124016 0.1203269 -0.041537747 0.24019556 -0.41807827
0.050754998 0.2074102 0.32817703 -0.018800542 -0.3085457 0.24275738 -0.05461567 -0.19966078
-0.12676264 -0.1816194 -0.093642816 -0.2447048 -0.025555907 -0.24648999 -0.11178404 0.12340551
-0.044582617 -0.5665699 -0.36065912 0.09178793 0.42612746 -0.1625707 -0.0973464 -0.046541873
-0.22640365 0.25666612 -0.20514798 -0.26734808 -0.042114973 -0.15160044 -0.051740095 -0.28749123
-0.47114038 0.30173755 -0.2145671 -0.24874642 -0.052163124 -0.120608844 0.08268779 -0.29248905
-0.20783356 -0.2032374 -0.08724819 0.21324082 -0.04486574 -0.06936561 -0.40072316 -0.13420826
0.039178427 0.07371587 0.01457291 0.0067579057 0.07025371 0.02360207 0.1885195 -0.11183171
0.35979423 -0.08231442 0.030311998 0.8812702 -0.22507048 -0.05326935 0.22734362 0.09252159
0.42620268 -0.005036577 -0.06707919 -0.02249042 -0.1704319 -0.0662962 -0.035534434 0.0559456
0.14599885 -0.55554616 0.020541634 -0.26778072 -0.35595834 -0.26419 0.17982851 0.085912734

gnn.convs.3.lin_l.weight f4 [32, 32]
00000000: f6ac 6ebf 6cb9 023c e328 15bd ef39 c2be
00000010: edad 02bf 7ed3 4b3e fd36 163f 5fdd 8c3e
00000020: c23e e23e 9029 14be 1601 96be e78d 063e
00000030: 1633 be3e 7860 6bbc 6882 863e 9967 863e
00000040: 5475 d33c 422c 663e e2c9 df3e 5df8 f5be
00000050: a8f8 18be f354 0dbe 8bd0 37bf 8da0 33bc
00000060: 812c 273f 45f4 98bc 0fd2 7dbe 64b1 16bf
00000070: 8aad a0bc 4ed9 fa3e 5f7e 0d3f ae58 333e
00000080: 7c6e ae3d f6e0 803d 78d0 eb3e 2910 b2bd
00000090: fd42 543e c4b8 d63d 2bbb d83d a521 82bc
000000a0: 2781 afbc d7de 1cbf 2bdc f9bb 60f1 2ebe
000000b0: b346 b73e deb7 f8be 7118 56be 0c54 1d3e
000000c0: ea56 243e 2e9f 383f 23f2 063e 83a1 aebd
000000d0: 251d c93e cde1 6cbd 4229 243f 84bb 6abe
000000e0: 1f31 883e fb6d 2e3e 5fc1 89bc 0e74 f6be
000000f0: fb61 41bd c8eb 59bf c0f1 0e3f 8141 693e
00000100: 1df0 123f 14e8 903d dc80 1fbe 94d5 123f
00000110: a1d6 793d 1255 843e a7ad f63d 2fa4 10bd
00000120: b0d3 02bf f868 2dbd de9b 42be 508a a53e
00000130: 2ed1 bcbd 5d88 0dbf 1886 20bf 332a d03e
00000140: a375 a13e 6092 883e 103a 44bf 59f1 1bbe
00000150: f645 bebe a5ea 85be 4ccf 3bbf 26d2 56bc
00000160: 9952 2fbe 182d ffbd 4dbf ff3c 371f 46bc
00000170: ebaf 92be 2d32 cabe b2df 8e3e 6121 803e
00000180: b654 843e ed1f b43e e6ce f7bc 1204 843d
00000190: 310d 98be 8e81 a9bd 832b edbc 5982 89be
000001a0: 294d 763d 4b32 47be f7b2 d7bd c225 9abe
000001b0: 0d38 5bbd 0d4e 30be 164d 8d3d 230f 59bd
000001c0: 1c33 4abd 8a78 c43d d969 07be 798c 8dbe
000001d0: c842 29be 9a0b 15be 286d bf3d 7a62 3fbc
000001e0: 54b8 833e d121 a83e ba54 d1be f4cd b4bc
000001f0: 3bd0 e73d 4f2b 06bf db37 4f3d ccdc b33d
00000200: 8fa8 363f c3b4 763e dab3 43be e774 c6bb
00000210: 4d5d 61be 02eb f93e 5aef fc3e ea38 32bc
00000220: d7be 05be 35f3 a53d aa60 0fbe c63d 843e
00000230: ece3 613e 2a4c 88bd 3e1b ef3d faaa bd3e
00000240: 3786 66be 430e 02be 05f9 dbbe 055b 0dbe
00000250: 405a 93be db1b 0c3f 1e59 113f bcaf 2fbf
00000260: ca16 8e3d f181 2a3c fe53 35bd 6edb 003d
00000270: a35b a8be 073c 6dbe c912 963e 3488 bbbc
00000280: 7ebe 98bd 4914 96bc 93f7 f3ba ed6c 0dbe
00000290: 13de 92be 3e74 5ebe f120 c23e ed53 5a3e
000002a0: 07e0 a8bb b55d 90bd e2b8 993e d8a6 2d3e
000002b0: af02 3c3e 6b7c 15bd 7415 b63d 2810 cc3d
000002c0: b0a2 3abe de06 2c3e a712 21bc e015 0cbd
000002d0: 87c6 b4bd 61fe 3d3e af69 363d d59d 2f3e
000002e0: fb7f cb3e a4f4 f6bd b0c5 bebd 072e 8a3d
000002f0: 7142 33be eb05 a33c d9b2 a43e 6ad2 d73d
00000300: c6db ae3e c335 83be 400d 9dbe a404 82be
00000310: 967a 2bbe 61ff c1bd ffa4 dcbe 7f98 a33e
00000320: b6c2 dabd 635a 893f f9bb acbe 7496 753e
00000330: 2dc9 9c3e 857d e43d db3b e03e 8163 bb3e
00000340: 916c 00bf a999 273d cabb 913c e107 a3be
00000350: e04e 1a3f 70bd 673d a1a2 84be 6e91 13be
00000360: e6cc 9ebe da72 e8bd 0eef 0e3f 2e9e 16bf
00000370: e59f 8bbc dc93 42be 2188 02bf b262 f43e
00000380: 170c b23f ac81 213f c8ef 80bd a344 3abe
00000390: 9d26 183e d387 b43e f514 e5be 7f8f 493e
000003a0: c493 b33e 040c 25bf b2d5 4bbd 7fa9 163f
000003b0: ea06 23bf ede8 0ebe b138 90bd 521d 953e
000003c0: 0ac4 b6bd 9d26 b0bc e60c bdbe e10b 51bd
000003d0: 4928 783c f2e4 463e 7a3a ea3e 6528 a5be
000003e0: 6c5c 483f 3350 2cbe 5222 31be f5d6 fd3e
000003f0: b39b 9e3d cc50 a93e 71c4 e93e ece3 94be
-0.9323267 0.007978778 -0.036415946 -0.37934825 -0.5104664 0.19904897 0.58677655 0.27512643
0.44188505 -0.1446898 -0.29297704 0.13140069 0.3714835 -0.014366262 0.26271367 0.26250914
0.025812782 0.2247782 0.43708712 -0.4804105 -0.14938605 -0.13801937 -0.71802586 -0.010963571
0.6530228 -0.018671164 -0.24787162 -0.58864427 -0.019614 0.48993915 0.5527095 0.17514297
0.08517167 0.06292908 0.46057487 -0.086944886 0.20728679 0.1048446 0.105825745 -0.015885184
-0.02142389 -0.61277527 -0.007625123 -0.17084265 0.35796127 -0.4857778 -0.20907761 0.15364093
0.1604878 0.7211789 0.13178305 -0.085269 0.39280048 -0.057832528 0.64125454 -0.22923094
0.26599976 0.17034142 -0.01681584 -0.48135418 -0.047212582 -0.851254 0.5583763 0.22778894
0.57397634 0.070755154 -0.155765 0.57357144 0.0609957 0.25846153 0.1204484 -0.035312828
-0.5110426 -0.042336434 -0.19004771 0.32332087 -0.09219585 -0.552862 -0.6270461 0.40657195
0.31535062 0.26674175 -0.76651096 -0.15228786 -0.3716275 -0.26155582 -0.73363185 -0.013111627
-0.17121352 -0.12459773 0.031219149 -0.012092403 -0.2864984 -0.39491406 0.2790504 0.25025466
0.2584588 0.35180607 -0.030250024 0.06446089 -0.29697564 -0.08276664 -0.028951412 -0.2685726
0.06013218 -0.19452779 -0.10532182 -0.30106932 -0.05352025 -0.17217274 0.068994686 -0.05299295
-0.049365148 0.095933035 -0.13223971 -0.27646235 -0.16529381 -0.14555207 0.09346992 -0.0116811935
0.2572657 0.328383 -0.40884954 -0.022070862 0.11319014 -0.52409834 0.050590377 0.08782348
0.7135095 0.24092393 -0.19111577 -0.0060564163 -0.22008248 0.4881211 0.4940136 -0.010877827
-0.13061081 0.08103029 -0.14001718 0.2582838 0.22059602 -0.06655152 0.11675118 0.37044507
-0.22512136 -0.12700753 -0.42963424 -0.13804252 -0.28779793 0.54730004 0.5677661 -0.68627524
0.069379404 0.010406957 -0.044269554 0.031459264 -0.32882413 -0.2316743 0.29311207 -0.022892095
-0.074582085 -0.01832022 -0.0018613212 -0.13811083 -0.28685054 -0.2172403 0.37915757 0.21321078
-0.0051536593 -0.07049123 0.30023867 0.16958177 0.18360399 -0.036495607 0.088908106 0.09964019
-0.18226123 0.16799495 -0.009831107 -0.03420055 -0.088269286 0.18554069 0.04453438 0.17150052
0.3974608 -0.1205838 -0.0931505 0.0674706 -0.17505814 0.019900283 0.321677 0.1053818
0.3415205 -0.25626954 -0.3067417 -0.25394166 -0.16745982 -0.09472538 -0.43094632 0.31952283
-0.106816694 1.0730709 -0.33737162 0.23983175 0.30622235 0.111567535 0.43795666 0.36599353
-0.5016566 0.040918026 0.01778974 -0.3184195 0.60276604 0.056577146 -0.25905326 -0.14410946
-0.310157 -0.11350031 0.5583352 -0.58835113 -0.017044017 -0.19001716 -0.50988966 0.4773155
1.390994 0.6308849 -0.06295735 -0.18190245 0.1485848 0.35259876 -0.4474255 0.19683646
0.35073674 -0.6447146 -0.049764343 0.5885238 -0.63682425 -0.13956042 -0.07042063 0.29123932
-0.0892411 -0.021502787 -0.36923903 -0.05103672 0.0151463235 0.19423273 0.4574774 -0.3225738
0.78266025 -0.16827469 -0.17298248 0.49578062 0.07744541 0.33069456 0.45657685 -0.2908014

gnn.convs.3.lin_l.bias f4 [32]
00000000: fc81 4cbd 3e3e 38bc ca19 9dbe 5291 03bf
00000010: 309f dbbe c5e9 a7bf 9eab 81bf afc2 9bbe
00000020: 3a7f 09bf 5c76 d3be d1ae 10bf baa6 e6bd
00000030: c0e6 833e 6b54 5b3e c996 0e3f de14 623f
00000040: f587 83be 7f60 023e 0ff8 25be a797 803e
00000050: dd3d a43d db7b 003f 8c48 62be ed21 fa3d
00000060: 90f9 7f3e bd55 003f ab95 d43e 9907 e3bf
00000070: e073 123f 882a 2d3f 797f b7be 2fac 533e
-0.04992865 -0.011245308 -0.30683738 -0.51393616 -0.42894888 -1.3118216 -1.0130498 -0.3042197
-0.5370976 -0.4130124 -0.5651675 -0.11262269 0.25761986 0.21418922 0.5569883 0.8831309
-0.25689664 0.12732123 -0.16207908 0.25115702 0.08019612 0.5018899 -0.22097987 0.12213502
0.24997544 0.50130826 0.41520438 -1.7736694 0.5720806 0.6764302 -0.3583944 0.20671152

gnn.convs.3.lin_r.weight f4 [32, 32]
00000000: 5a0b 943e da29 25bf 716e 94bd 1c8b a4be
00000010: dbb1 5cbe 50b1 14be 45ff 51bd d081 c9bd
00000020: b256 59be a1df 2ebe 0af0 0a3e a300 833e
00000030: 21e1 ed3e 5cb4 89be 74bb 5d3e 7fe5 c9bb
00000040: 11b9 523e 191c 683d ceec 883e 68c7 74bd
00000050: ff65 013f 81b1 eabe 4fd2 f6bc e567 42be
00000060: 9c8c cdbd 9488 5ebe 0ab7 913d 98e7 19bc
00000070: 5637 3e3e a806 873e eba9 9dbd 439f 7d3e
00000080: 6bb0 bf3c 79bf 18ba afc4 9fbe 06d6 a2bd
00000090: 8d7b 7f3e 7593 923c 51cf 373e 1891 bbbe
000000a0: d4df 963e 92cc 11be 45b4 873e 05d4 84bd
000000b0: 48b1 2ebe 40fa 233e 70da d6be dece 82be
000000c0: d1f1 1e3f 4c0b 3ebe c3dc dcbd 23fd ebbb
000000d0: a343 77be a245 81be ff06 bdbd b011 08be
000000e0: 4ce4 3bbf 9932 243e cc34 efbe 750b c0bd
000000f0: 80bc 5f3d edca babd 2d39 823e e02f 1abc
00000100: a408 ce3d e08a f8bc 9077 0ebf 2714 ecbe
00000110: 7443 3cbf 9f70 a5bd f85d 6abe 46ae 213e
00000120: 6f35 56bd 9335 ccbd 0134 853e e531 9a3e
00000130: 8050 60bd 7526 5cbc aaf3 003b a33e 34bf
00000140: a6ac 0b3e fe2a e33c 0bbb 103e dbce e2bd
00000150: 9bef 2d3d b244 743e 1d49 933d 6b3d 2c3d
00000160: 7318 3fbe 66d9 0c3d 4bc7 353e df6b 3ebd
00000170: 25d0 cabe 7e6e acbe c892 7abc f9c9 53bd
00000180: f7c5 f43d e253 1b3f da82 4abd 644f 363f
00000190: 3fde 3d3e c251 8f3d 90b6 0b3e 72ac 98be
000001a0: 56f1 95bd 7b54 dd3d b6db 1cbe 206c e7bd
000001b0: e1e9 a03e 4db1 70bd 2931 08be d506 96be
000001c0: 93f1 c63e 1052 163e 93d9 233e 80ed 283d
000001d0: b506 303e 8b8b b3be 0de8 ca3d f3c9 b03c
000001e0: 67fe 4fbd 9a51 97bc 51da 1e3e cf93 79bd
000001f0: 165d ed3e b906 48bf 261c 88bd 111d 3f3f
00000200: 1a68 123c fc48 73ba f026 2c3d 321e 943c
00000210: e04f 7ebe ec86 aabe b8d1 a5be 9547 0f3e
00000220: 1ab3 58bd e30a 4d3e b425 49be 2cbb ab3e
00000230: 5fcf 32bd f11a a83d f2dc d7bc 5c8f efbe
00000240: bd40 b5be 6130 ffbb b60f e7bc b626 783e
00000250: 8344 7abd 1476 0abd 470c 66bd 74db 79bd
00000260: b774 00bf 4309 c0be 7352 bfbc 0201 66be
00000270: 8307 bfbe 676f d9be 7065 b2bd a161 b13e
00000280: 74c1 2d3e 687e fe3d 95ed 18bc b01d 0cbf
00000290: ce79 ae3e 21ae ae3c 193e 12be e078 b63e
000002a0: a1d9 173e f32f e2bd db63 533e 289d e13e
000002b0: 1689 d9be d457 03be 0137 5abd 68bd a13e
000002c0: 9d22 9cbe 5d9e 973d 16b7 47bd 841f 5e3e
000002d0: 6c29 e83d 2660 083f 84a2 13bd 2b2b 1f3e
000002e0: 1f60 993d d2fc 763f 5468 a2bc ece5 0dbe
000002f0: 15ac 46be 22fc 383e a73f 5ebd 8474 b7be
00000300: 434e d63d 3f5d 90be 7ce9 e9bd 61fd fd3d
00000310: 4390 5f3e a38b 523e 6628 72bd 3eee abbe
00000320: 629e 6fbe 0036 c93e b039 30be c4a4 c6bd
00000330: de42 61be c0bf 93bc 9209 66be f46b 853d
00000340: 2ae5 15be b6e6 763e 525a 71be 5221 7cbe
00000350: 9d9e 113e 83ca 073e ba32 e33c cdb0 063e
00000360: 41e4 9b3d eba6 0f3e cebb 893e a529 44be
00000370: fc7c 383e 1251 083e 50d2 3c3c 43cc 81be
00000380: b33b dc3e b030 593e 3614 813d edf4 ce3d
00000390: f3fc 83be 8057 c0bd c0d2 1ebe 8596 553e
000003a0: 310d 873c 40ba 36be 2a76 32be a2fd 383e
000003b0: aeb4 983e 4105 1ebe a94a 61be 7e3c faba
000003c0: 799e 39be b0a3 bfbd 48f5 7c3e d4d8 853e
000003d0: 483b 343e fcf8 8abe 3fc3 edbe 3956 16be
000003e0: b6d6 643d d87b 90be 4cfe 95bd 9f1c d43e
000003f0: 8527 c3bd b3e6 7abd 1b45 af3e 92a6 e8be
0.2891491 -0.64516985 -0.072476275 -0.32137382 -0.21552221 -0.14520764 -0.051268835 -0.09839213
-0.21224478 -0.17077495 0.1356813 0.25586423 0.46460822 -0.26895416 0.21653539 -0.0061613913
0.2057841 0.05666742 0.26743168 -0.05976048 0.5054626 -0.4583855 -0.03012958 -0.18984945
-0.10036585 -0.21731788 0.0711499 -0.009393595 0.18575796 0.26372266 -0.07698425 0.24767785
0.023399552 -0.00058268715 -0.31204745 -0.07950978 0.24949475 0.017892579 0.17950179 -0.36634135
0.29467642 -0.14238194 0.26504722 -0.06485752 -0.17059815 0.16013432 -0.4196353 -0.25548452
0.6208773 -0.18558997 -0.107842945 -0.007201807 -0.24146895 -0.25248438 -0.0922985 -0.13287997
-0.7339523 0.16034926 -0.46719968 -0.09377185 0.054623127 -0.09120736 0.25434247 -0.009410828
0.10060242 -0.030339658 -0.5565119 -0.46109125 -0.73540425 -0.080781214 -0.22887409 0.15789136
-0.052297052 -0.09971156 0.26016238 0.30116192 -0.05476427 -0.013436903 0.0019676485 -0.70408076
0.13640079 0.027730461 0.14133851 -0.11074611 0.042464834 0.2385433 0.071916796 0.04205076
-0.1866167 0.034387015 0.17751805 -0.046489593 -0.39611927 -0.3367805 -0.015293784 -0.051706288
0.11951821 0.6067487 -0.049441196 0.7121489 0.18541811 0.06998016 0.13643861 -0.29819065
-0.07321422 0.10807129 -0.15318188 -0.1129992 0.31428435 -0.058762837 -0.13300003 -0.29302087
0.38856182 0.14679742 0.16000967 0.041242123 0.17190059 -0.350674 0.099075414 0.021580672
-0.050779726 -0.018471528 0.15512969 -0.060931977 0.4636008 -0.7813526 -0.06645994 0.74653727
0.008935953 -0.000928059 0.04202932 0.018080804 -0.24835157 -0.33306062 -0.32386565 0.1399215
-0.05290518 0.20023684 -0.19643289 0.33541238 -0.043654796 0.08208264 -0.026350472 -0.46789062
-0.35400954 -0.0077877496 -0.028205734 0.24233517 -0.061100494 -0.033804014 -0.056164052 -0.061000302
-0.5017809 -0.37507066 -0.023354745 -0.22461322 -0.37310418 -0.42467806 -0.08710754 0.34644797
0.16968328 0.12426454 -0.009333988 -0.547328 0.34077305 0.021323266 -0.14281501 0.35639095
0.14829113 -0.11044302 0.2064356 0.44065213 -0.424874 -0.12826473 -0.053275112 0.31589818
-0.30495158 0.07403252 -0.04875859 0.2169171 0.113360256 0.5327171 -0.03604366 0.15543811
0.07489037 0.96479523 -0.019825138 -0.1385724 -0.19401582 0.18064931 -0.054259922 -0.35831082
0.10464146 -0.2819614 -0.11421487 0.12401844 0.21832375 0.2056108 -0.05912056 -0.33580202
-0.23400262 0.3929901 -0.17209506 -0.09699395 -0.21998164 -0.01803577 -0.22464588 0.06514731
-0.146382 0.24111447 -0.2356961 -0.24622086 0.14220662 0.13260846 0.02773415 0.13153382
0.07611895 0.14028518 0.26901096 -0.19156511 0.18016428 0.13312176 0.011524752 -0.25351152
0.43014297 0.21209979 0.06302683 0.1010531 -0.25778922 -0.09391689 -0.15510082 0.208582
0.016485782 -0.17844486 -0.17427889 0.18065503 0.29825348 -0.15431692 -0.22001137 -0.0019091514
-0.18126859 -0.09357393 0.24702942 0.2614199 0.17600739 -0.27143085 -0.46438023 -0.14681329
0.055868827 -0.28219485 -0.07323894 0.41428086 -0.09529022 -0.06125517 0.3423241 -0.45439583
