GN0/model/GraphSAGE_unnormalized.pt (torch, 360761 bytes, 224 tensors)

convs.0.lin_l.weight f4 [32, 3]
00000000: 960f 3abd 96b4 993f b18e a63f a8ec 363d
00000010: f3e6 0c3f 297d 143f 273a 2dbd 6d5b 30bf
00000020: 83ab 52bf 80ee b6bb be33 84bf b6a8 0dbe
00000030: 068f 84bd 5afd bfbe 0b3b 82be 031b 1bbf
00000040: 4840 53bd 8fd1 91bf 1b0f 13bf 1f8f 29bf
00000050: 477d 883e d3c2 923d be96 923f f730 f2be
00000060: a56c f839 9b25 2dbe 211c abbf 243e 7c3e
00000070: 3a56 bcbf ad94 dc3f 0673 24be e2e4 0fbf
00000080: 41ca 2abf 9b0f 833b 23e5 83be 4b2d a33f
00000090: c8aa 79be a752 c13f 07a0 90be 2588 083f
000000a0: 19dc 28bf a8d3 883e d367 463d 9889 64bf
000000b0: 605d 00bf e526 f8be b4ff 5fbf 790f f9bf
000000c0: 5b6b 60be c42b 2f3f 3840 93be cb90 0bbe
000000d0: 26f9 a9bb 12b3 f4be 27b6 c8be ce94 08be
000000e0: 5afa 213f 8bf9 653e acb6 4f3f 6f03 903f
000000f0: c3b1 8e3d 9c09 c0be 5e26 51bd 792b 833b
00000100: c90a ecbb 27c1 48bb e2eb 553e efa1 92bd
00000110: 3d90 e33f e626 053d 7d8f 0440 0c93 08c0
00000120: 10ee d1be 4120 64bf f7ca 8ebf ca57 08bf
00000130: aab2 283f 97b9 cbbf 42bc 603d 0df8 24bf
00000140: d2b7 52bf b4dc 4b3d eadb e5bf fc58 ddbf
00000150: 7f5b 5b3e 9434 b23f 97b1 3c3f 8899 52bf
00000160: 1a98 0cc0 e73a 1dc0 3cf3 cb3d fc6e 5d3f
00000170: a9b7 313f a4e4 373e dc53 babf 1831 b8bf
-0.04542502 1.2008235 1.3012296 0.044659287 0.550399 0.5800348 -0.042291787 -0.68889505
-0.82292956 -0.0055826306 -1.032829 -0.1383389 -0.06472592 -0.3749798 -0.2543567 -0.6058809
-0.051574975 -1.1392077 -0.57444924 -0.6623401 0.2665808 0.07166066 1.1452253 -0.47302982
0.00047383193 -0.16908877 -1.3367959 0.2463308 -1.4713814 1.7232872 -0.16059503 -0.5620862
-0.66714865 0.003999663 -0.25760755 1.2748197 -0.24381554 1.5103348 -0.2824709 0.5333274
-0.6596084 0.2672398 0.04843886 -0.8927245 -0.5014248 -0.48467174 -0.87499547 -1.9457847
-0.21915953 0.68426156 -0.28759933 -0.13629453 -0.0051871715 -0.4779287 -0.3920147 -0.13338014
0.6327263 0.22458474 0.8113811 1.1251048 0.06967499 -0.3750733 -0.05106198 0.004002985
-0.007203434 -0.0030632706 0.20890763 -0.07159793 1.7778393 0.0325078 2.0712578 -2.133975
-0.4100194 -0.89111716 -1.115569 -0.53258955 0.6589762 -1.5916013 0.054867037 -0.64440995
-0.8231174 0.049771026 -1.7957737 -1.7292781 0.21421622 1.3922296 0.7370848 -0.8226552
-2.1967835 -2.45672 0.09958503 0.86497474 0.6942087 0.17958313 -1.4556842 -1.4389982

convs.0.lin_l.bias f4 [32]
00000000: 4cfc e93d 5740 0ebf cb9f 8b3f 8a32 66be
00000010: ec0f 163e 1b52 8d3d 6588 5940 b89d 00bd
00000020: 376d 86bc 7c6a a8bc 4a62 993f 91d4 1cbe
00000030: 4d80 9a3e 611f 6cbe d0da a13f f9f3 4ebf
00000040: a389 3fbf 410a ad3e e1e3 fb3e ede4 37bf
00000050: f274 9cbf 6e19 03be 9fe9 5c3e 1639 8abf
00000060: f6e5 673f 28d3 e03d 6e35 6f3d 2b9d 1a3f
00000070: 7175 44bd 68de 8fbd fb4d 5c3f 9806 2c3f
0.11425075 -0.55566925 1.090814 -0.22480217 0.14654511 0.06900426 3.3989499 -0.031400412
-0.0164095 -0.020558588 1.198312 -0.15315463 0.3017601 -0.23058845 1.2644901 -0.8084102
-0.7481939 0.33796886 0.49197295 -0.7183369 -1.2223189 -0.1280267 0.21573494 -1.0798671
0.9058527 0.10977775 0.058400564 0.6039607 -0.047963563 -0.070248425 0.8605649 0.6719756

convs.0.lin_r.weight f4 [32, 3]
00000000: 90d7 663c 9aaa b8be 7f50 0abf c43d 6abe
00000010: 2ac2 5e3f 6ed5 643f dc81 1cbf 0405 a73d
00000020: 867e 963e 018c d63e 27bd 503f f0f2 7e3f
00000030: bcc0 0cbf 8bf1 eabf 8ace e4be 14eb de3e
00000040: 3923 bdbe 2d0e 49bf 76bf b6be ea0e 573e
00000050: 1bfe 183e b4a1 b2bd 29db 3bbe f636 8f3f
00000060: c7e0 ef3e 2dcc f33e 5b32 afbe 32d2 963d
00000070: 871c 79bf d579 653d 6d69 a3be 7c1f 6c3f
00000080: a34f 693f bc4d 373f 8f1a 83bf 13aa 0dbf
00000090: ea52 e13e fd5c ecbe 8181 acbf c62a debd
000000a0: d8b3 dabf 09b4 903e 02ac 21bf 2a19 3b3f
000000b0: 1efb 3dbe 0b7b fd3e a944 d73c 24cb 833d
000000c0: 65e6 c63e e75e 8abe 728e cb3f 28a5 603d
000000d0: 8c64 193b 1cf0 2940 179d b13e 0f35 9ebf
000000e0: 73fc d13e e8ff 04be 8e34 a7bf b346 8bbf
000000f0: 8c94 8a3f 7674 303e 6303 93be 3bd5 8bbb
00000100: 1200 8a3f 536b 6b3f 4d15 a23d f789 b9bf
00000110: 326b 91bf 55bc 7bbc 5d05 913f 18cf a8bf
00000120: f38e 093e 5601 983f 8d55 12be 3615 ff3e
00000130: 9a19 e1be 78bc 80be 091a a9bf 5b6f fbbd
00000140: 0ede 493e 92c1 b13c 57d9 1abf 733b 36bf
00000150: cc3b 70bd 40a1 943f 894c 72bf 1898 023c
00000160: d763 9cbe c95c 4e3d 4be5 93be e310 933d
00000170: a6df eabd be14 0a3f ec52 5abf 615a 7dbf
0.01408948 -0.3606766 -0.5402908 -0.22875124 0.8701502 0.8938817 -0.6113565 0.081552535
0.29393405 0.4190369 0.81538624 0.99589443 -0.5498159 -1.8354963 -0.44688827 0.43538725
-0.36940935 -0.78537256 -0.35692948 0.21001783 0.14940684 -0.08722249 -0.18345322 1.1188648
0.4685118 0.4761671 -0.34218106 0.0736431 -0.97309154 0.05602439 -0.3191637 0.9223554
0.9113714 0.7160299 -1.024248 -0.5533764 0.4400857 -0.46164694 -1.3477021 -0.10848002
-1.7086134 0.28262356 -0.6315309 0.7308527 -0.18552825 0.49507937 0.026277857 0.064352304
0.38847652 -0.2702553 1.5902846 0.054845005 0.0023405878 2.65528 0.34690163 -1.2359942
0.41012916 -0.12988245 -1.3062913 -1.0880951 1.0826583 0.17231926 -0.2871352 -0.0042673624
1.0781271 0.9196064 0.07914219 -1.4495229 -1.1360838 -0.015364726 1.1329762 -1.31882
0.13433437 1.1875408 -0.14290448 0.4982087 -0.43964845 -0.2514379 -1.321107 -0.12277099
0.19713613 0.021698747 -0.60487884 -0.7118446 -0.058650777 1.161171 -0.94648033 0.007970832
-0.30544922 0.050381456 -0.28885874 0.07180955 -0.11468439 0.539379 -0.8528278 -0.9896603

convs.1.lin_l.weight f4 [32, 32]
00000000: 473b b8bf 9a64 f2be d24e 973a b8c6 063f
00000010: 343e cb3f f79f b9be 15c7 e6bd 4665 b2be
00000020: 9b31 6cbe 4085 b4bd a787 3ebf a065 b3be
00000030: 329b 573d b64c 823e d46a 08c0 ab08 03bb
00000040: 15ed e0be 2446 413c fe13 32bf 528e 7dbf
00000050: 5edc 0d3e f0e1 6bbe 4d3c 74bd 69c0 03be
00000060: ec38 3cbe 6a7f 01bf 2667 1dbe 4f5c 233c
00000070: 0260 03bd 8f34 d43e d6b6 2cbc a50f 62be
00000080: 2da1 dd3d 3f33 8f3e aaa4 213e 1fd8 abbd
00000090: 404b c4be b5db 4bbd 09c0 e23d 072b f83d
000000a0: b35b bcbd 3eef 443d c422 b43d 4cda ac3d
000000b0: a993 21be b780 8cbd 0bd0 dd3c 2e23 213e
000000c0: 2c99 a13d 1077 0a3f 1bf2 21bc 3374 c53e
000000d0: 9a6b 983d b0c4 013f 9ef7 3e3e 59eb c83c
000000e0: 0202 71be a2a0 d13c 2926 8e3e e345 abbe
000000f0: c51e 38bd 2c03 733e 9e05 d53e c37e b23e
00000100: ba46 f9be d2d4 103f d397 ff3e a644 813f
00000110: ba28 33bf def9 28be 45b3 f2be 0557 79be
00000120: db56 ebbd 9772 00be 72ae e53d 12e3 dcbc
00000130: 4ff5 85be c5bb a3bb ba04 9d3e 8656 493e
00000140: 2d94 e0bd d520 74bc cd06 6ebe cb75 f03e
00000150: c9d0 d93e 06ee 00be bb73 0f3f cfeb 173e
00000160: c6f2 ac3c 52cc 35be aaf0 7fbe 3901 25bf
00000170: 29d6 70bd 470b aebe fbfa d33f d29d 27bf
00000180: 8dc1 193c 9eca 763e 8f7b b5be d55d bbbe
00000190: 4e41 b0bd b2f3 77be 4a52 473e 1776 13be
000001a0: aebe cbbe a2c1 c33e 4222 8e3e 5c72 d93e
000001b0: bac0 2fbe 06db 513e 4eff 893e b5c9 e73c
000001c0: 3af4 263e e34a 913c 2c58 7b3e 2669 ecbd
000001d0: 55b3 80be acf5 5dbd 2e5f 06bf 4590 6b3e
000001e0: 54cc 233d ffea 253e c37e cdbc 74e4 333e
000001f0: db80 d8bc 4618 ddbd 1c05 dbbe 51f1 8c3e
00000200: 385e 6fbd 885a 87be b3d6 abbd f382 c4bd
00000210: 3103 963f 7b7e b3be 5fd8 0f3e 54e5 493f
00000220: c5af 7dbe a3aa 933d 193a 48bf d9b4 41be
00000230: eabf a23e 7c2a bebd c983 99be fe31 1f3f
00000240: ed79 f33d 47bd ad3e 6fce 2d3e 876a 883e
00000250: 0600 a7be 5a8c 4a3d 72c3 1a3f e339 8fbe
00000260: a845 8b3e d800 9a3f 2cec 10bf d109 9cbe
00000270: 7059 ebbd 7b3b 6bbf 8b40 413f 7f84 a03d
00000280: e2ef 6c3b 97d3 4fbd 396b 863e 90d7 c7be
00000290: e49e 8fbf 15a6 133f 6037 a23f 65e9 973e
000002a0: 08dc 01be a124 06bf f59b e8be b834 3abd
000002b0: 9f42 463d 1a81 6abd f8c4 293f bf7b 803f
000002c0: ced3 bd3e b7fc 0dbe baa5 293f 41a1 163e
000002d0: ab70 19be e483 98be 0069 ba3c 4289 14be
000002e0: a6b6 453f 4109 4b3f 2089 cfbe 245a 27bd
000002f0: 9c9b a33e ebe8 ab3d 4fed 7d3e 960a babe
00000300: 2151 97bd ad74 0ebf 1cbd 0b3e b23f 48bd
00000310: 5e34 0abf 9a66 51be 0466 763e d992 0b3e
00000320: 433d 85be 6a02 e83d 771c 00bf 19d3 77be
00000330: 02a8 3b3e fa25 423e 64c9 34bd 939d 0a3e
00000340: 3971 2cbe bb04 f6bc 0849 703e 6e70 96bd
00000350: 8ae1 5dbe fa14 323e 9348 1a3e 3c62 ec3d
00000360: 2986 303e ec23 603d 77a8 26be f773 073f
00000370: 2d02 7dbe 2652 523e dca2 093e 2e5c 6e3e
00000380: 92ef 0e3e ad17 d5be ecb7 5b3e 26bf b8bc
00000390: cbfe f53d 903e de3e 6c78 fd3d 5851 10bf
000003a0: 44f9 153e 3116 0fbe f654 62be d7b4 993e
000003b0: 4183 9a3e a180 a23c 3894 aabe 8b9e 983e
000003c0: 28fe 153f ab8a 273f c191 e23e 79e0 c43e
000003d0: 83ea 6e3e c4fa b13d 7ca4 3b3f 9271 1fbc
000003e0: 75b8 b13e c25a 3b3e b81a 6e3d 2474 a5be
000003f0: 2f49 33bc a49a a2be f8ae b0bd 6be9 21bf
-1.439309 -0.47342378 0.0011543876 0.5264697 1.5878358 -0.36254856 -0.11268441 -0.3484289
-0.23065798 -0.08814478 -0.7442574 -0.3503847 0.05263824 0.2544915 -2.1315203 -0.001999418
-0.4393088 0.011796508 -0.69561756 -0.9904529 0.13853595 -0.23035407 -0.05962782 -0.12866367
-0.18381089 -0.50585043 -0.1537138 0.009970739 -0.032073982 0.4144635 -0.010541638 -0.2207628
0.108217575 0.27968785 0.1578547 -0.08390831 -0.3833866 -0.049770076 0.11071784 0.12117582
-0.09197178 0.04807972 0.087956935 0.08440074 -0.15778984 -0.06860488 0.027076742 0.15736076
0.07890543 0.54087925 -0.009884383 0.38565215 0.07442398 0.50690746 0.18649146 0.024526285
-0.23535922 0.025589291 0.2776349 -0.33451757 -0.04495122 0.23731679 0.41605848 0.34862337
-0.48686773 0.5657474 0.4992052 1.0099075 -0.6998402 -0.16501567 -0.47402397 -0.24349602
-0.11491176 -0.12543713 0.112149134 -0.026963744 -0.26163718 -0.004996749 0.3066767 0.19661912
-0.10965762 -0.014900406 -0.23244782 0.4696487 0.42542103 -0.12590799 0.56035966 0.14836048
0.021111857 -0.17753723 -0.2499415 -0.6445499 -0.05879799 -0.3399298 1.6560968 -0.6547519
0.009384525 0.2410073 -0.3544583 -0.36595026 -0.08606206 -0.24214056 0.19464985 -0.14400516
-0.39793915 0.38233668 0.27760512 0.42470062 -0.17163363 0.20493707 0.26952595 0.028294424
0.16304103 0.017735904 0.24545354 -0.11543493 -0.2513682 -0.05418937 -0.5248898 0.23004253
0.039989784 0.16202925 -0.025084859 0.17567617 -0.02642863 -0.107956454 -0.42777336 0.2752786
-0.058439463 -0.26436257 -0.0839056 -0.09595289 1.1719724 -0.35057434 0.14047383 0.7886555
-0.24774082 0.07210281 -0.7821365 -0.18916644 0.31787044 -0.09285447 -0.29983357 0.6218566
0.1188849 0.3393347 0.1697328 0.26643774 -0.32617205 0.049450256 0.60454476 -0.27973852
0.2720158 1.2031507 -0.5661037 -0.3047624 -0.11491668 -0.91887635 0.7548911 0.078377716
0.0036153723 -0.050738897 0.2625368 -0.3903165 -1.1220365 0.57675296 1.2673149 0.29670253
-0.12681592 -0.5239964 -0.45431486 -0.045460433 0.04840338 -0.057252027 0.66316175 1.0037764
0.37075657 -0.13865934 0.66268504 0.14709951 -0.14984386 -0.29788125 0.022755146 -0.14505485
0.77231824 0.79310995 -0.40534306 -0.04085745 0.31954658 0.08394035 0.24797557 -0.363362
-0.07388521 -0.55646783 0.13646358 -0.04888887 -0.53986156 -0.20449296 0.24062353 0.13630237
-0.260233 0.113285854 -0.50043434 -0.24201621 0.18325809 0.189598 -0.044137374 0.13536672
-0.16840066 -0.030031553 0.23465359 -0.07345663 -0.21668068 0.17390814 0.15066747 0.11542174
0.17238678 0.054721758 -0.16275202 0.52911323 -0.24707861 0.2053915 0.13441032 0.23277351
0.13958576 -0.41619626 0.2145688 -0.022552084 0.120114885 0.43407106 0.12376484 -0.5637412
0.14645869 -0.13973309 -0.22102723 0.30020782 0.30178264 0.019836726 -0.33316207 0.2980846
0.58590937 0.65445966 0.44251826 0.3845251 0.23331647 0.08690408 0.7329786 -0.009731667
0.34711042 0.1829634 0.05813095 -0.3231517 -0.010942741 -0.31758606 -0.08627123 -0.6324679

convs.1.lin_l.bias f4 [32]
00000000: 24a1 5a3f 9bc3 cb3e 89cf 3a3f 6fa1 d93b
00000010: 2ab2 963e 5006 84bf c7f3 763e e4e3 883f
00000020: 5132 6a3e dc0f b63e 350e a9be d3e1 173e
00000030: 7665 9dbf 34c8 913e 8469 a4bf 8548 2e3f
00000040: 0454 fc3c 13a4 593f 20c2 31bf e3dc 493f
00000050: a269 bb3f dbca ab3c fe99 83bd 9e47 1a3d
00000060: 7359 8c3f b412 c03e 975e 4f3f 8178 b8be
00000070: fddc fabc 95b6 d8bc a6e2 8fbd 46d3 9e3b
0.8540213 0.39797673 0.72972924 0.006641559 0.29432803 -1.0314426 0.24116431 1.0694547
0.22870757 0.35558975 -0.33018652 0.14832239 -1.2296588 0.28473055 -1.2844701 0.68079406
0.03080178 0.8501598 -0.69436836 0.7885267 1.4641612 0.020970752 -0.06425856 0.037665956
1.0964798 0.3751427 0.8100371 -0.36029437 -0.030622954 -0.02645425 -0.07025652 0.004846963

convs.1.lin_r.weight f4 [32, 32]
00000000: c317 be3e f14b d93d 1e9c 97be 279c 203f
00000010: 208c 9cbe 6336 18bf 5ef5 99bd f73d 5cbc
00000020: e956 843e 7e91 0b3e 25c8 233b 7a65 02bd
00000030: 91ee efbe 94bb a13e a7bf 1d3d 3865 e9be
00000040: 5d46 933e 5ed7 a33e e5bc 9bbd d0ab 8e3e
00000050: 533a 763d b088 a7be 923e 94bd 3571 cc3d
00000060: cebb 113e 34c8 c8be ff07 c23d 4c7f afbe
00000070: 8034 f83c 90b7 8c3f 6e48 453e 3d52 09be
00000080: b187 b13d b4d5 1ebe 4149 35be 4cde 6e3e
00000090: 7675 7a3e 6fca f83c a0f4 62be 2a1b a53e
000000a0: 60c4 8c3e 67a3 b23d b9db f3be 68a9 363f
000000b0: 9b2b 283f a681 5ebe d32a d0be e3a7 cc3e
000000c0: bc10 d93c 3178 1d3e 3d08 5d3e d327 8f3d
000000d0: 43d6 5a3e cc04 87bd 3a9f c2bc ffb3 4ebe
000000e0: 0f8c dbbd 8afe 213e 6992 96bf 621c 523e
000000f0: 0dc9 393d 715c 45bd 7246 59bd 7ee9 8cbe
00000100: 42a6 2cbd b6da 8f3d 804f 7f3e 01a2 6bbe
00000110: bacc e13d 7597 913d 4de8 c63d ab48 683e
00000120: 4c58 1dbf 5564 0cbf 5466 a6be 292d bdbe
00000130: 80af 103e d159 1e3e faa2 293e 5ca6 f5bd
00000140: 441a 0cbf 522a a1be 2acb b13d 0893 503e
00000150: 2832 c4be c0e7 7bbe 2fad b03f fa09 a6bd
00000160: 5333 cfbe c742 3ebe 8f59 ab3e efa1 163e
00000170: 5d77 fdbd b5c8 c3ba 5005 b83e 234d a73e
00000180: 980f aebd 066f 453d fa3f 1cbf a6dc d6bf
00000190: dab2 87bd 755d 333f dd58 b2bd 35dd 2abe
000001a0: 1327 f4bf ba92 fb3e cd6c 3e3c aa23 6c3f
000001b0: 292c d93d 8885 ed3d 74af 1c3f 4fdf 05bf
000001c0: 7e8f 44be 0a9c a1be 9be4 b2be f583 cebe
000001d0: 8b32 84bf 3c95 ac3d 6879 21be cb08 9e3d
000001e0: a971 3d3e ba26 8a3e e742 c13e 8138 1bbd
000001f0: 32c5 08bd 19a2 82be b434 fcbd eecd ad3f
00000200: 59cc febe 7efd d1be a174 8c3e a6ad 973e
00000210: 56d6 c33e 36a8 66be 596c 2bbd 0626 d63e
00000220: 9b3e 933e b11d ab3e dc6d 76bd 26cc 5d3d
00000230: f0c3 b83e bf3a 703d 3fda 0fbf ddc6 903e
00000240: d7ef 2dbe f5a0 11bf 23a8 14bf 7fb8 bbbe
00000250: 8c33 1e3e 2c81 d23d 225f 5fbe ee58 f33d
00000260: cc9f 253c 89f8 14be 8744 24be 8e53 a6bd
00000270: 05c7 963e 4145 ab3e 334a d93e dd6a 03bf
00000280: 2187 443e 2110 92be 6ccd 6bbe c712 283e
00000290: a998 513e 68e4 afbd 2bc0 0cbf 2c92 393c
000002a0: 0e12 f03d 5764 4e3d 4950 11be b088 c53d
000002b0: eb99 ccbd ead8 ee3d afe3 63bd 9f86 d6bc
000002c0: 3135 c53b 6107 cd3d b4a3 a13d b795 98be
000002d0: be02 da3d fdf7 6cbe ac5c 4e3e a3f3 1b3d
000002e0: 494e a3bd 380a 97be df8f aebe a565 c33e
000002f0: 3937 d5be c676 1f3f 6436 e3be 782e 39bd
00000300: 4463 e3bd dd9e 8cbe 9872 8d3f 94e2 073f
00000310: f76b 853e 3250 583e 6077 90bc 8eb4 443d
00000320: 4551 033f 84e0 39be f19e 44bd 8b7b d3be
00000330: bae4 97be 471c d93d b23f 2dbf eab6 d43c
00000340: 9db0 1dbd 47eb 963d 9207 763d 8c9b 2c3e
00000350: 508c 1e3f 75f1 ba3e dd45 37bf 8289 083d
00000360: 73fd a13e 4af8 533e 3639 e9be 2feb 18bf
00000370: 2bbb 23bd 837a 84be 6bf5 2cbf 9812 23bf
00000380: 7400 a7bd 5285 7dbd c396 ffbd 1e30 e73e
00000390: 75ad 443c 5bf4 22be 7404 eb3d 60e6 ab3e
000003a0: 45ff 56be 7901 753d af6f 5bbe 2afd 1d3e
000003b0: 114a ccbe 77da 443e 26ec 30be f343 883d
000003c0: 3ffd c03e f927 f83e b337 603d c68d edbe
000003d0: 4fd6 fb3d ea86 9c3e 7c1d 823e 3558 0ebf
000003e0: cb59 8abe e272 e3bd ea0b 9fbc 8fc4 eebe
000003f0: 9a10 11bf 9ee6 bdbd e6f6 73bc eab1 efbe
0.37127504 0.10610188 -0.29611295 0.6273827 -0.30575657 -0.5945799 -0.07517503 -0.013442508
0.25847557 0.1362972 0.0024991122 -0.031835057 -0.468617 0.31588423 0.038512852 -0.45585036
0.2876462 0.3200025 -0.07604388 0.27865458 0.060114216 -0.32721472 -0.07238497 0.0998253
0.14231798 -0.39215243 0.094741814 -0.34276807 0.030298471 1.0993519 0.19265911 -0.13410278
0.08668459 -0.15511209 -0.17703725 0.23326987 0.2445887 0.030369965 -0.2216363 0.32247287
0.27493572 0.08722573 -0.47628573 0.71352243 0.65691537 -0.21729144 -0.40657672 0.39971837
0.026497237 0.1537788 0.21585174 0.06990018 0.21370797 -0.06592712 -0.023757566 -0.2018585
-0.107200734 0.15819755 -1.1763431 0.2051864 0.045357753 -0.048183862 -0.053045698 -0.2752189
-0.042150743 0.07024138 0.2493267 -0.23011018 0.110253766 0.07108966 0.097122766 0.2268397
-0.61462855 -0.54840595 -0.32499945 -0.36948517 0.14129448 0.1546395 0.16566077 -0.11994621
-0.5472758 -0.314776 0.086813286 0.20368588 -0.38319516 -0.24600124 1.3802851 -0.08107372
-0.40468845 -0.18580161 0.33466765 0.1471021 -0.12376282 -0.0014937135 0.35941553 0.32676038
-0.08499068 0.048201583 -0.6103512 -1.6786087 -0.0662591 0.7006448 -0.087083556 -0.16685946
-1.9074425 0.4913538 0.01162262 0.9224192 0.10604126 0.11597735 0.6120522 -0.52293867
-0.19195363 -0.3156436 -0.34940037 -0.4033505 -1.0327924 0.08426902 -0.15768969 0.07716521
0.18500389 0.2698267 0.37746355 -0.037895683 -0.033391185 -0.25514296 -0.1231474 1.357847
-0.4976528 -0.41013712 0.2743273 0.2962467 0.38249463 -0.22525105 -0.041851375 0.41825885
0.28758702 0.3342109 -0.060163364 0.05414977 0.36086988 0.058649775 -0.5619239 0.2827672
-0.16986023 -0.56886226 -0.58069056 -0.36664197 0.15449351 0.10278544 -0.21813634 0.11882196
0.010108899 -0.14547934 -0.16041766 -0.081214055 0.29448715 0.33451274 0.42439422 -0.51334935
0.19192173 -0.2852793 -0.23027581 0.16413413 0.20468391 -0.08588487 -0.54980725 0.011326354
0.11722194 0.05038866 -0.14190783 0.09645212 -0.09990295 0.11662467 -0.055637058 -0.02618724
0.006018304 0.10011173 0.07892552 -0.29801723 0.10645054 -0.23141475 0.20152539 0.038074147
-0.07973916 -0.29499984 -0.3409414 0.38163486 -0.41643694 0.6229061 -0.44377434 -0.04521033
-0.11102918 -0.27464953 1.1050596 0.53080106 0.26058933 0.21124342 -0.017635047 0.048023753
0.5129588 -0.18152052 -0.04800314 -0.41305193 -0.29666692 0.106010966 -0.67675316 0.025966126
-0.03849851 0.07369094 0.060065813 0.16856211 0.6193285 0.36512342 -0.7159098 0.033334263
0.3163868 0.20700184 -0.4555146 -0.5973386 -0.03997342 -0.2587472 -0.6756198 -0.63700247
-0.08154383 -0.061894722 -0.124799274 0.45153898 0.012004246 -0.15913527 0.11475459 0.335742
-0.20995815 0.059815858 -0.21429323 0.15428606 -0.39900258 0.19223963 -0.17277583 0.06653585
0.3769321 0.48467997 0.05474062 -0.46397227 0.122967355 0.3057168 0.2541312 -0.55603343
-0.27021632 -0.111058965 -0.01941486 -0.46634337 -0.56665957 -0.09272502 -0.014890408 -0.46815425

convs.2.lin_l.weight f4 [32, 32]
00000000: 2c4d e6bb b174 39be 7819 d7bd 0eaf 3d3e
00000010: f58a 033e 07c4 0abd 63cc 5ebe e49a 6e3e
00000020: 6a96 71bb abce 223e 52cc 153d 391a 74bd
00000030: dc41 ca3c b52d ab3d f5aa 973d 3d18 093d
00000040: 5f37 0dbe 9bd2 9dbd 8b05 d4bc fc9c 603d
00000050: eeb6 383e de36 833d ea02 a23d a7fb b6bd
00000060: 5e28 1dbd 6515 923d 48c5 1c3d c769 13bd
00000070: 4e9d 24bc 888c b83e f37f 90bc eb5a 74bb
00000080: ad61 d93e 8097 9bbe 8f6a a53e 36a9 8ebe
00000090: 6cad 1ebf 9618 20bf 09e2 d5bd c47b 62be
000000a0: 39d8 7ebf c9a5 d13c 66e5 113f f51d 4cbe
000000b0: 851f 8b3e f4f3 59bf 3061 013f 8c5e 06be
000000c0: 778a d43d 1401 05bf 4831 13be 003e e1be
000000d0: 3764 20bf 69e0 133e ebb2 f33e 04ac e63d
000000e0: 09f4 95be 803e 02bd 4e41 443f 1004 00be
000000f0: b6c2 de3e 7755 bb3e b40c 19be 295b 82be
00000100: 6ff3 dbbd ced9 763d 3553 3f3f 55c8 bfbd
00000110: 4464 383e e69f 7a3d 4055 97bc cf86 9e3e
00000120: 56c4 14bf d0dd 3bbf e57d b23e 6f58 1fbf
00000130: 31e7 ffbe 8914 56be 6d9e d03d f1c3 583e
00000140: b8f6 96be bbd9 8bbd 739b fb3e 9fcc 113e
00000150: 2841 22bf 13ac 8dbe a030 c4bc eafc ea3c
00000160: 971a 3c3f 5094 47bf 43e3 c63e 3163 5b3e
00000170: db5f 6d3b 2140 0a3f f476 1d3e 77a7 423e
00000180: faaa 0f3e 00c3 5c3e 4c02 3dbe ee29 a33e
00000190: 9b20 f03d 6baa 4f3f 9740 413e f957 6ebf
000001a0: e8e4 f63d 9ac1 813e 61ef 663e 1326 823e
000001b0: da8b 06bf fb17 dbbd 274a 4fbe d85a b9bd
000001c0: b5a0 9bbe 919f aabf 9f95 a73d e86e 68be
000001d0: fef7 8bbf 10cf 2abd 75d7 07be f911 bcbe
000001e0: 8948 6c3e 24fe 5bbe 74e0 6dbf e611 bbbc
000001f0: cbb4 bd3e e9cc 763f c920 4abf a1a3 3dbd
00000200: e89c 1fbf 23af 203e db0c 1b3f ecab 28bf
00000210: 8794 32be 591f 1a3f b570 a13e 8ed6 7b3e
00000220: 42bd 9e3e b265 343f 29f6 4b3e 2160 0e3e
00000230: 34bb 02be 75d6 ffbd 1e64 06bd c6d7 d83c
00000240: 10ea 163f 283f 793d 434d f9bd 7acf abbe
00000250: e26f 903e 1006 2ebe b0e8 3fbf c61a 17bd
00000260: 765b 0abf 0c61 b73e 7b6a f4be 47f4 bbbc
00000270: 6372 cabe 3152 65bd f60f 0bbe 98a3 99be
00000280: bc0b 9cbe 277a 033c f1cc 263f 0b3d dc3e
00000290: f6c5 96bc 5d1d 32be 40fc 30be cede 883e
000002a0: 3560 2cbe ae5b 553d 704e 253f a66e 893e
000002b0: 1a09 3abe b34f dfbe 6a26 b23d 3eb1 f6be
000002c0: 70d2 0bbe e56b 353e 0c34 d53e f8ac 013d
000002d0: 6f9a 243e 07bb d23e 80c9 fabc ca9c 32be
000002e0: 2a1e 94be e539 503f e0f0 22bd 56a1 313f
000002f0: 95e4 0abf edf3 4f3e 1ef4 7abe e192 56be
00000300: 983f b23d 85fa 753e ba4a 3abd b5ba 213f
00000310: 408b 213e c0ed 503e e05a 52bf d9d9 8e3d
00000320: 6a46 ae3d 37a7 83bd f50b 3ebe a719 a43d
00000330: 8281 873e 9a74 1b3e 3b53 1cbd 336e e63e
00000340: b739 703d 33bb d4bc b88c de3e 317c 54bf
00000350: 20f6 44bf 6385 f43e 480b 25bc f628 25be
00000360: ea1d 10be 857f dd3e 89b3 c73e a47e 973e
00000370: 04de 96be c23a aebe 34af 52bd e8a9 d03c
00000380: 42fc a7be c80c 23be 442a c73e 9b08 f4be
00000390: 7e79 803e d058 5dbe b5ae e83b 31fe 58be
000003a0: 61e1 f2be fae6 63bd bbc9 f63d 24a5 18be
000003b0: 35b4 a13c 4bca 0f3e e483 243d ee72 9bbe
000003c0: 795b 29bf fc9b 8d3e e34b 0cbf 0fbb 8abe
000003d0: da8f d0bd 55f4 15be 930c 513e 983f 96bd
000003e0: d2e2 a1bd 33e4 e23d 5a81 c53c b5f1 15be
000003f0: 27a4 01bf 5b50 993e 9f39 9fbe 4604 b83e
-0.0070282426 -0.1811092 -0.10502905 0.1852381 0.12845977 -0.033878352 -0.21757655 0.23301274
-0.0036863335 0.1589915 0.03657181 -0.05959532 0.024689607 0.08358327 0.07405654 0.03347038
-0.13790654 -0.077061854 -0.02588155 0.054837212 0.18038532 0.064069495 0.07910712 -0.089347176
-0.038368575 0.07132987 0.03827408 -0.03598955 -0.01004727 0.36044717 -0.017639136 -0.0037285637
0.42457333 -0.30389023 0.3230786 -0.27863473 -0.6198337 -0.62537515 -0.104435034 -0.22117525
-0.9954868 0.025591748 0.5699066 -0.19933303 0.27172485 -0.8513787 0.5053892 -0.13122004
0.103779726 -0.5195477 -0.14374268 -0.43992615 -0.62652916 0.14441074 0.4759744 0.11263278
-0.29287747 -0.031797886 0.7666215 -0.1250155 0.43507928 0.36588642 -0.14946252 -0.25460175
-0.10739791 0.06026631 0.7473634 -0.09364382 0.18006998 0.061187647 -0.018473268 0.30962226
-0.58112085 -0.73385334 0.34861675 -0.62244314 -0.49981073 -0.20906271 0.10186467 0.21168496
-0.29485106 -0.06828638 0.49142036 0.14238213 -0.6338067 -0.27670345 -0.023948967 0.028685052
0.7347807 -0.7796068 0.38845262 0.21424557 0.0036220464 0.540041 0.15377408 0.19009195
0.14030066 0.21558762 -0.18457907 0.31867927 0.11724969 0.8111941 0.18872295 -0.93102986
0.12055379 0.2534302 0.22552253 0.25419673 -0.52557147 -0.10697933 -0.2024313 -0.0905053
-0.30396047 -1.3329946 0.08182835 -0.22698557 -1.0935056 -0.041701376 -0.13265784 -0.36732462
0.23074545 -0.21483666 -0.92920613 -0.022835683 0.37051997 0.9640642 -0.78956276 -0.046298627
-0.62348795 0.1569181 0.6056649 -0.6588733 -0.17439471 0.6020408 0.315313 0.24593565
0.31003767 0.70467675 0.19918121 0.13903858 -0.12766725 -0.12492076 -0.032810323 0.026470076
0.589509 0.060851246 -0.1217294 -0.3355673 0.2821036 -0.169945 -0.7496443 -0.036890768
-0.5404581 0.35816228 -0.47737488 -0.022943629 -0.39540395 -0.055986587 -0.13580307 -0.30007625
-0.30477703 0.008024729 0.65156466 0.43015322 -0.018404942 -0.17394014 -0.17283726 0.26732486
-0.16833575 0.052089386 0.6457281 0.2684223 -0.18167534 -0.43615493 0.08698733 -0.481821
-0.13654494 0.1771694 0.4164127 0.031659096 0.16074537 0.41158316 -0.03061366 -0.17442623
-0.28929263 0.8133834 -0.039780498 0.69386804 -0.5425504 0.20307894 -0.24507186 -0.20954467
0.08703536 0.24021347 -0.04548142 0.6317552 0.15775776 0.20403194 -0.82169914 0.06975145
0.08509524 -0.06428378 -0.18559249 0.08012705 0.26465994 0.15181199 -0.038165312 0.4500595
0.05864879 -0.02596817 0.43466735 -0.83002 -0.76938057 0.47758016 -0.01007349 -0.16128907
-0.14073911 0.43261352 0.39004162 0.29588807 -0.2946626 -0.34029204 -0.051436618 0.025471643
-0.32809645 -0.15922844 0.38899434 -0.47662815 0.2509269 -0.2161591 0.007100905 -0.21190716
-0.47437575 -0.0556402 0.12050196 -0.14906746 0.01973925 0.14042012 0.040164843 -0.30361122
-0.661552 0.2765807 -0.54803294 -0.2709584 -0.101836875 -0.14643987 0.20414953 -0.07336348
-0.07904591 0.11078682 0.024109531 -0.14642985 -0.506411 0.2994412 -0.3109865 0.3594076

convs.2.lin_l.bias f4 [32]
00000000: a957 753d b051 373f a05d bcbd 54ee 253f
00000010: 5a6f 143f 08ef f93e 7049 87bd e5a3 46bd
00000020: ce3a 86be 4a6f 03be d930 f43e 9685 c2bc
00000030: 1dd2 5d3f cae8 9ebe 2f11 a93e 5fba 023f
00000040: 2fa0 e23b c2d4 7f3f 693b 5fbf ee5e cdbe
00000050: ab8d 9d3e 03de aa3d 0f3a 833c 8df9 11bf
00000060: 2360 90be 924b d43f 030a 263f 9a2b d53e
00000070: aa2a 4abf 9b27 823e 8fdc a1be 2776 fa3e
0.059898052 0.7160902 -0.09197545 0.64816785 0.5798241 0.4881518 -0.06605804 -0.048496146
-0.2621674 -0.12835422 0.47693518 -0.02374534 0.8664873 -0.3103698 0.33020923 0.5106563
0.006916068 0.9993402 -0.8720003 -0.40111488 0.30772147 0.083431266 0.016018895 -0.5702141
-0.28198346 1.6585562 0.64859027 0.41634828 -0.7897135 0.25420842 -0.31613585 0.48918268

convs.2.lin_r.weight f4 [32, 32]
00000000: 771e 73bd 936c 5d3f 6ec4 7cbd e098 5a3e
00000010: d3a7 6b3e beab 943d 500e 793e 5f30 7e3e
00000020: 2cbf 33be 4088 a9be 5eff 353e 6414 d43e
00000030: 49bf fc3d 6c08 aebe 4d50 e3be 2eca 963d
00000040: ab04 0b3f 8395 1abe dedc 43bd cf2a d13c
00000050: 3202 6a3e 8892 14bd dbda bc3e a12e 5a3f
00000060: 7567 c93d 2849 87be b86e 223e 5352 97be
00000070: 8ef4 56bc 863f 623e 7cf0 f63d d290 6bbb
00000080: c21d a23d f3fb 98bd 89be 003d 3bef 02bf
00000090: def2 833e 6228 d53c cc71 45bc 7ea9 18bf
000000a0: f363 9c3e 806f 0abe 96bd 373d 7364 0bbc
000000b0: 0242 043e 2c27 b6be 222c 973e 5141 0b3e
000000c0: 1eb3 53bd 9ee9 a93d 8da3 c0be 3045 f43e
000000d0: 56c8 a13d 2296 38be 983a cdbd 6b55 b0bd
000000e0: 045b 713e 03d6 233f e402 ebbe 7eb1 f83c
000000f0: 99f5 67be 5e4a 35be ac02 86be 3c11 073f
00000100: 161a c43e 9e87 273e 1c28 8a3e 6637 4f3d
00000110: 360d 85bd 84a6 693e 7e1e da3d 2fda ae3e
00000120: 33c9 1d3e 0ee2 5fbe ae7b 573e a095 babe
00000130: fa3e 9bbd a703 91be 3e9c cf3e af36 3c3c
00000140: e01e a63d aa97 e73e 5bdc 883e ba2b 5bbe
00000150: 3a28 a9bd e767 e4bc 3249 80be ec0b 39be
00000160: 57b6 0fbe 4f54 e3be 1793 91be f1c6 d5bc
00000170: 6b4a d3be 059d 14be ec29 b7be 556b 083e
00000180: 03e1 2b3e 30eb dabc a27a abbc 220a df3d
00000190: 40f9 eb3c 55f3 12bd 6662 d03d 0ce7 173e
000001a0: 970e cfbd e01b 80bd 4c2c 96be a80a 42be
000001b0: fe87 793e 74ba eebd cf54 39be 678f 12bf
000001c0: f3c5 3b3b 21ac 0b3f 71d9 5f3d df32 f1bd
000001d0: 18aa 2f3f 9de1 9a3d 5f21 833e aa91 3339
000001e0: 57fa c03c 666f b4bd a1a9 323e 1a85 9e3e
000001f0: 84f1 c63d 20ed a73d 5bad 91bc 58cd a73e
00000200: 01d1 6d3e 6db0 0bbe 8fe3 b53c e2d9 39bd
00000210: d028 18bf 9e87 073e e176 6cbe c85d ddbd
00000220: e8db 0a3e 4d3b 2bbf 940c efbe 5efa 57be
00000230: fb8d 83be f00a 1a3c 67e4 c33c 3466 c9be
00000240: 6496 c93e 64a7 1fbe c142 a73e bfc7 69be
00000250: 962c 873e fa1c 5abe 7d35 adbc d378 8a3d
00000260: f48f e3be 42da 913d 9314 6f3d cfd1 523e
00000270: 80a9 c53c 506a ad3e e163 a53e 5de5 05bf
00000280: c9f4 30be eb91 993e ff55 0d3e 2656 63bd
00000290: 97d9 8b3d 9542 b23e 715f c1be e3be 65be
000002a0: b251 b93e 3d5a 623d 698b a1be fe98 513d
000002b0: 7995 bdbe 75a6 943d dabd 85be 1894 b63b
000002c0: f2d1 553e 84fe 733e 444b b2bd 9c85 523e
000002d0: 8a50 563d d363 3a3e 241a f8be 4c0e d93e
000002e0: 95bd c43d 5916 61bf ccd2 4abf b169 bdbe
000002f0: 3d9e 9f3c 0fa1 1a3e 5ab5 fdbd c560 bcbe
00000300: ad55 bcbe cfca 193e fd47 283e 372f a83e
00000310: d259 e9be 624d 5dbe 0459 7c3e 98bf 0dbd
00000320: 08d0 003f a2a7 cfbd 4116 773e b19b 803d
00000330: ff31 983e 3e95 c63d b547 b4be b0a4 da3d
00000340: 8c73 553d 5daa 27bd 4800 07bf cedd 103e
00000350: 57db bdbe cd48 b3be 89a3 2dbe 140c fdbd
00000360: d832 ca3e 337c 903e e1b8 86be 3f70 7b3e
00000370: e91a e53e 365b c83e 30bd 813e c933 493d
00000380: 0841 8cbd c1fe db3e f93f 003e a0ba dc3e
00000390: 24a5 90bf b6c9 013e 460b 10bf 288e 1a3f
000003a0: 5a77 9a3d 8ac5 6d3e 65db 02bf ae5d 6d3e
000003b0: fb7f 293e 41e2 103f f2f3 c0be 06e7 85be
000003c0: 78a1 cfbd 6caf e43c 0180 8ebd c04d d43d
000003d0: e089 a5be 57c3 d53c f207 c7be 7ad8 ebbe
000003e0: 2c80 88bd 5de7 93be d0a5 743c 099c b3bd
000003f0: c56f b13e 09d9 3ebe ac2a eb3e b0a9 4b3e
-0.059355225 0.86493796 -0.061710767 0.2134738 0.23013239 0.0725932 0.24321866 0.2482314
-0.17553395 -0.33111763 0.17773196 0.41421807 0.12341172 -0.339908 -0.44397202 0.073627815
0.54304 -0.15096097 -0.047818057 0.025533108 0.228524 -0.036272556 0.36885723 0.852274
0.09834186 -0.26423 0.15862548 -0.29554996 -0.01311983 0.22094545 0.120575875 -0.0035944474
0.07915832 -0.074699305 0.03143171 -0.51146287 0.2577123 0.026020233 -0.012051057 -0.59633625
0.30545005 -0.13519096 0.044858538 -0.008507836 0.12915805 -0.3557676 0.29525858 0.13599135
-0.05168449 0.08296512 -0.3762478 0.47709036 0.07899539 -0.18026021 -0.100209415 -0.08610042
0.23569876 0.6399843 -0.45900643 0.030358072 -0.22652282 -0.1770415 -0.26173913 0.5276067
0.38301152 0.16360328 0.26983726 0.05058994 -0.064966604 0.22817427 0.10650347 0.34150836
0.15408783 -0.21863577 0.21043274 -0.3644228 -0.07580371 -0.283231 0.4054889 0.011487647
0.08111358 0.45232898 0.26730618 -0.21403399 -0.08259626 -0.027881576 -0.25055844 -0.18070954
-0.14034401 -0.4440026 -0.28432533 -0.02609584 -0.41267714 -0.14513023 -0.3577417 0.13322194
0.16785054 -0.026723474 -0.0209325 0.108906046 0.028805375 -0.03587659 0.10175018 0.14834231
-0.10110205 -0.06255317 -0.2933067 -0.18949378 0.24368283 -0.11656657 -0.18098758 -0.57250065
0.0028651922 0.5455952 0.054650728 -0.11777281 0.6861892 0.075625636 0.25611398 0.00017125034
0.023556871 -0.0881031 0.17447521 0.30960923 0.09714034 0.08199525 -0.017782858 0.32773852
0.2322426 -0.1364152 0.022203235 -0.045373805 -0.59437275 0.13235328 -0.23092224 -0.10808903
0.1356045 -0.6688736 -0.46689284 -0.21091601 -0.2569426 0.009402022 0.023912622 -0.39335787
0.3937255 -0.15591198 0.32668117 -0.22830103 0.26401204 -0.21300116 -0.02114367 0.06761327
-0.44445765 0.071217075 0.05836923 0.20587848 0.024128675 0.33870173 0.32302764 -0.52303106
-0.17280878 0.2999414 0.13802336 -0.05550208 0.06828611 0.34816423 -0.3776813 -0.22436099
0.3619514 0.05526184 -0.31551674 0.051171295 -0.370281 0.07258312 -0.26121408 0.0055718534
0.20880869 0.23827559 -0.08705762 0.2055878 0.0523229 0.18202142 -0.48457444 0.4239372
0.096064724 -0.87924725 -0.792279 -0.369947 0.019484634 0.15100501 -0.12388106 -0.3679258
-0.36784115 0.15018772 0.16433711 0.32848522 -0.4557634 -0.2161155 0.24643332 -0.034606546
0.5031743 -0.10139395 0.24129583 0.06279696 0.29725644 0.096964344 -0.35210958 0.10675943
0.052112147 -0.040933955 -0.52734804 0.14147112 -0.37081406 -0.3501648 -0.16956915 -0.12355819
0.39491916 0.28219756 -0.26312926 0.24554537 0.44747093 0.39132088 0.2533965 0.04912165
-0.06848341 0.429678 0.12524404 0.43111134 -1.1300397 0.12674603 -0.562672 0.60373163
0.07542296 0.23219886 -0.5111602 0.23180267 0.16552727 0.56595236 -0.37686116 -0.2615282
-0.101382196 0.027915679 -0.069580086 0.10366392 -0.32331753 0.026094122 -0.3887325 -0.46063596
-0.06665072 -0.28887454 0.014932111 -0.08769996 0.34655586 -0.1863748 0.45930994 0.1988895

convs.3.lin_l.weight f4 [32, 32]
00000000: be67 d13d 61a6 653f b140 573f ba33 f33e
00000010: 325d b73c 6ddc 1f3e 75ed ef3e 3311 08bf
00000020: 2cf7 3c3e 3f8c 133f e897 3bbe ad50 053e
00000030: e2ec 713b 59ec 313e 3a20 46bf 5898 09bc
00000040: 3971 bfbd 9270 bdbd 49e5 98bc 9b19 6c3f
00000050: 4548 963e 2afa fa3e 610e a3be 78f8 cebe
00000060: 7e02 16be 3ff2 6fbd 1882 713e f530 1ebf
00000070: 9923 553e 995e 65bd 8997 e43d 1b65 d73e
00000080: eff2 363d 9ceb 933d d1c5 093f 0226 23bd
00000090: efd5 bebe 37c3 663d 7824 a3be f694 4a3f
000000a0: 8528 8b3f 7fc6 80be 8ca0 5d3e 969a 41bf
000000b0: c87b 003e 8c10 aabe 48e0 eebe d4a9 b1be
000000c0: 00ff 3c3e 7d1b cdbe 8ab1 113d 9de8 c83e
000000d0: 9570 d23d 85c4 f9bd fc10 9fbd 5e2a 4ebe
000000e0: 8d2f 84bd 084a 923d 2cf0 1ebf 10b0 c4be
000000f0: 0fdb fb3d b41d 34bf 98fd 483e 9c08 223e
00000100: aff1 efbe 2866 8c3d 69bc 99be 2449 043e
00000110: 7358 b93d 93e2 2d3d cc9a 49bd a2c2 07bd
00000120: c2b0 a3bd cc9b 85bd cbe3 0dbd 50bc 79bd
00000130: a4a2 0dbe 23a5 633e f318 4d3e c565 edbe
00000140: 4db0 4ebe 1c89 4dbe 33f7 173e b1b4 1abe
00000150: d041 81bc 71e3 d63d cb21 d73d 8684 043e
00000160: f00f 92bd 5634 adbd ce89 aabd 860b fdbe
00000170: 0829 c1be 7887 6a3e 5234 443d 816d 4ebd
00000180: 5bb1 dfbc ffa1 743e d60d f53e abd1 72be
00000190: 2bfa d6be 162c 66be cd7f cfbe cd09 14bf
000001a0: 1884 aabb 7d6c e63e 792c 16bc 7942 d8be
000001b0: f66e fdbe 7324 1fbe 03ca 263f 3926 2ebd
000001c0: 86b9 703e 6363 173f 57ab 0fbf 9cf3 2fbe
000001d0: d39e 4bbf ab57 833e 5278 5abe b0d3 883f
000001e0: c7c9 79be d4c8 7b3e adf7 41be b1d9 433e
000001f0: 581d 36bd 25e1 b13e 3c80 60bf 1da0 83bd
00000200: f682 cc3d be20 953d 3598 c23e e104 393f
00000210: 06f5 ce3e 4442 f63e 9bad 6bbe 535f df3e
00000220: 1065 f7bd 6282 ad3e 43b2 f73c b0f5 023d
00000230: 04c0 273e 7005 a1bd eac5 eebd 907a d7be
00000240: 095c 913e 9119 81be b986 7f3d 6eda aa3e
00000250: 3e33 2e3e 9483 d93e eb9d 85bd c46a 51be
00000260: 18f8 10bf 898b 073e 7a16 6cbe b165 41bf
00000270: ebd1 1abe e0f7 bfbd 9f6c aabe e49e bcbd
00000280: d9dc 753e 39da a9be e616 d3bd ad1b 71bf
00000290: e0be 963d 911f 0a3e 4cf4 243f 47b7 533e
000002a0: bdc1 efbe 46de 163d 40d1 dcbd 6775 bcbe
000002b0: b9d9 14bd a097 2e3e 1c86 e0bc 5977 75be
000002c0: 67f9 133f 04ab f5be 9a1f 273e 6a3d bc3e
000002d0: f525 0e3e d048 b43e abca bebe 568a fe3e
000002e0: 8e9b dc3d 937d b73d 2f3a b6be f02a bb3e
000002f0: 54f8 bc3d 284f 49be 8a45 493f 42a6 a5be
00000300: 9e68 b1bc 0fc1 223f c13a a23d b272 63bf
00000310: 3452 523e 088b 9a3c 7c79 053f 0226 163e
00000320: dac3 873d 986b c3be 7add 0b3d 4e1b cd3e
00000330: a9b3 c6be 9bef b0be 986d 303d 54e1 f5be
00000340: 3162 803e 21b5 6c3e e98a 983e 089e 053e
00000350: a9a9 2d3e 4741 f4bc b1b7 2cbf 669e b23e
00000360: 1413 eebe 613a e43d af81 05bf c01e af3d
00000370: e633 b9be 6acc 89bd 78e3 013c c467 823e
00000380: 7dff e3be bffb 9bbe 5773 fe3e 52bf c6be
00000390: dec2 95bd ea16 f2bd bb0a 32bf 168b 9d3e
000003a0: 2761 1abe e40e 803d 9815 ab3d 7197 253d
000003b0: ccdf 38be 3ccd b2bc 28fb 813f a6d7 84bd
000003c0: 8559 683e 0114 2f3e ad61 423d 0227 b8bf
000003d0: 4f4f 593e cabc c6be bd61 063e bde8 6f3d
000003e0: 4bd0 a33e f7b1 c23e 3635 143f d94f d3be
000003f0: 4797 8ebd 2f8e 9cbf 49f4 6c3e fd0d 9bbd
0.102248654 0.89707 0.84083086 0.47500402 0.022383306 0.1561143 0.46860853 -0.53151244
0.18453664 0.57635874 -0.18319666 0.13019057 0.0036914875 0.17375316 -0.77392924 -0.008398138
-0.093477674 -0.09249987 -0.01866402 0.9222657 0.29352012 0.49018985 -0.31846908 -0.40423942
-0.14649388 -0.058580633 0.23584783 -0.6179345 0.2081436 -0.05599842 0.111617155 0.42069325
0.044665273 0.07222673 0.5381747 -0.03983117 -0.37272593 0.056338515 -0.3186376 0.79133546
1.087174 -0.2515144 0.21643275 -0.75626504 0.12547219 -0.3321575 -0.46655488 -0.3469988
0.1845665 -0.40060034 0.035569705 0.3923997 0.102753796 -0.12195686 -0.077669114 -0.2013335
-0.06454382 0.071430266 -0.62085223 -0.38415575 0.122976415 -0.70357823 0.19627988 0.15823597
-0.46864077 0.06855422 -0.30026558 0.12918526 0.090500735 0.042452406 -0.04921989 -0.0331446
-0.07992698 -0.065238565 -0.03464107 -0.060970604 -0.13831574 0.22230963 0.20029049 -0.46366706
-0.20184441 -0.20071834 0.14840393 -0.15107991 -0.015778452 0.104926 0.10504492 0.12941179
-0.07131946 -0.08457248 -0.083270654 -0.49422854 -0.37726617 0.2290324 0.04790146 -0.0503974
-0.02730625 0.23889922 0.47862118 -0.23712794 -0.41987738 -0.22477755 -0.40527192 -0.57827455
-0.005203735 0.45004645 -0.009165877 -0.42238215 -0.4949872 -0.15541248 0.65151995 -0.04251692
0.23508272 0.5913603 -0.5612082 -0.17182773 -0.7953922 0.25652823 -0.21334961 1.0689602
-0.24393378 0.24588329 -0.18942137 0.19126011 -0.044461578 0.34742084 -0.8769567 -0.064270236
0.09985916 0.07281636 0.3800675 0.7227307 0.40421313 0.48097432 -0.23015444 0.43627414
-0.12079823 0.33888537 0.030236369 0.031972587 0.16381842 -0.07862365 -0.11658843 -0.42085695
0.2839053 -0.25214818 0.06238434 0.33369774 0.17011735 0.424832 -0.06524261 -0.20450884
-0.5662856 0.13236822 -0.23055449 -0.75545794 -0.1511914 -0.0937345 -0.33285996 -0.092099935
0.24010028 -0.33174303 -0.10307102 -0.94182855 0.07360625 0.13488604 0.6443527 0.20675384
-0.46827498 0.03683307 -0.10782099 -0.3680832 -0.03634045 0.17050028 -0.027407698 -0.23971309
0.5780243 -0.47982037 0.16320649 0.36765605 0.13881667 0.35211802 -0.37263998 0.49714917
0.10771857 0.08959498 -0.35591266 0.36556196 0.09227052 -0.19659102 0.78621733 -0.32353407
-0.02165633 0.63575834 0.07921363 -0.88846886 0.2053917 0.018865123 0.52138495 0.14662936
0.066291526 -0.38168025 0.034146763 0.40059894 -0.38808945 -0.34557804 0.043073267 -0.48023474
0.25074914 0.2311597 0.2979348 0.13048565 0.16959251 -0.029816283 -0.6746779 0.34886473
-0.4649893 0.111439474 -0.52151006 0.08550787 -0.36172408 -0.06728442 0.007927768 0.25469792
-0.4453086 -0.30465505 0.49697372 -0.3881784 -0.073125586 -0.11820777 -0.69547623 0.30770177
-0.15076123 0.0625284 0.08353728 0.04042763 -0.18054122 -0.021826379 1.0154772 -0.06486444
0.22690399 0.17097475 0.047456432 -1.4386904 0.2122166 -0.3881591 0.13123222 0.058571566
0.31994852 0.380264 0.57893693 -0.41271856 -0.069624476 -1.2230891 0.23140062 -0.075710274

convs.3.lin_l.bias f4 [32]
00000000: 8839 c4be d0d3 07bf 065c 29bf c083 363e
00000010: 8237 323f 476d a53e 93a1 9ebe 4cbc f73d
00000020: 1243 bd3e 0821 dfbc d3d9 053e dab3 c0be
00000030: 4c6d 25bf f6e8 e53c 6043 b83e 55f8 f63d
00000040: 596a 57bc bfc7 153e 2318 2b3e 6bc6 c43e
00000050: 431a 22be ca87 b9be 1abf ce3d 57b5 143f
00000060: c950 573d 890f 2b3e e5dc 4cbf 833f e93d
00000070: b276 963e 5579 123f 65e1 043e b432 f63e
-0.38325143 -0.53057575 -0.6615604 0.17823696 0.6961595 0.32309934 -0.30982646 0.12096462
0.36965233 -0.02723743 0.13071375 -0.37637216 -0.646199 0.028065186 0.35988903 0.12059084
-0.013147914 0.14626978 0.16708426 0.3843263 -0.1583033 -0.3623641 0.100950435 0.580892
0.052567277 0.16705145 -0.8002456 0.11389067 0.29387432 0.5721639 0.12976606 0.48085558

convs.3.lin_r.weight f4 [32, 32]
00000000: 7a36 63be 2ec5 19be b731 2fbe 2cf4 0b3e
00000010: ef5a c3bd 7775 79bb 15a2 a3be a82d 853e
00000020: 0816 8dbe d329 c3be 208e 823d 830a 2cbf
00000030: f78f bcbd 7cb4 043f 10d8 bc3e a4bb 8f3d
00000040: b172 82bd e80a 8bbe 410c 713e f17d 623d
00000050: fa26 e73e 8cae c8bd 6400 e83e bf2a 8e3d
00000060: 193d 253e b539 6f3d 40d6 013d 54d5 7abe
00000070: 0904 403e a88c 0a3e 4f9d 99be 79f2 033f
00000080: 5ab0 1dbe 7e4b 85be 1a30 223e 9b17 31be
00000090: 47b6 bc3e 9eef e43e 7b35 a4be 8ce0 d4bc
000000a0: c09d f73e c6a2 8bbe 0254 40ba 5fba 8fbe
000000b0: f7d0 84bd 0a39 8bbe 242d 2a3e 413e 8ebd
000000c0: b880 9a3c 9b72 27be a241 05bd 9058 323e
000000d0: 36d6 df3d 8d9e 1a3d fb02 22bd 23c4 993e
000000e0: 1984 e4bd 7434 ce3c b012 23bb 61e8 81be
000000f0: 6cba 8abe ee73 6dbd 40e4 8e3e d80c 74be
00000100: 8a62 15bf 210e 50be ba0c 973d 40da a03c
00000110: 389d e1bd fa4f be3d c9e1 d53d efe0 c2bd
00000120: 7c03 12bd 8865 11be bb52 893f e4cd 563c
00000130: 2896 87bd 58d8 0a3e f5e8 003d 402e 7bbe
00000140: 95d3 aebe caf7 01bf dd18 4cbe d93f c3bd
00000150: 287e 323e 89ae 843b 8ceb 80be 9435 e5bd
00000160: 1414 313e bf15 853e 33cd 183e aa49 0f3f
00000170: d401 45be f1ca 873e c408 5a3d 6b68 8e3f
00000180: c4b2 0abc 259e cfbd 87d5 2f3f a142 20bf
00000190: be0d 1c3e 4c30 08bd d964 e6bd bd3f 183e
000001a0: dc2e 8f3e af4e c93d f20b d4bd 76af 483e
000001b0: 8552 de3d b415 44bd 4507 0abe e50b c8bd
000001c0: bf4f f53d cb47 313f b522 a73e 5167 dcbc
000001d0: 1ac4 0bbe f955 65be cc86 b5be 47a7 89bd
000001e0: f566 483e 6ca6 a13e 1aba 4fbb bbcc 223e
000001f0: 1f7e b73d 6222 3d3d ccf6 833e 40c8 b0be
00000200: f494 29be 590f 15bf ea16 7fbd ff3d 8cbe
00000210: 4fd1 253e 9078 81bd cb54 c7bd c735 163f
00000220: 393e 313e f68b a8be 9028 1e3f f57b eb3d
00000230: 33d5 f9bd 5ce6 363f 7d2f 9dbd cb60 7abd
00000240: 2bdc be3e d1ce fa3d be86 b7be 950e 4d3e
00000250: e15f 0a3d 2444 2dbe 5de2 c5bd 54a5 053e
00000260: 4c20 84be ff11 5f3d 1921 83be 0ba7 32bf
00000270: 2554 9b3e add0 65be 3596 8bbd c836 ab3e
00000280: 675c 413e 2df7 c2bd ba2c fd3c 1f77 bcbd
00000290: 1549 443e 83ed cd3d e8be 533d 77aa 893d
000002a0: 3a14 20bc e839 3dbe 408f 5abb e649 ca3e
000002b0: 60eb cbbe f3c7 66bd 8396 853d e7bc 82be
000002c0: 8d32 d43e 37c1 4cbe 173a 793e c76f c9bd
000002d0: 74ae 053e 1bf2 9b3c fc79 16bf 4e9d f03d
000002e0: e065 dcbd 7d9d c73e 0b3b 333c c021 b73d
000002f0: a9cc bc3d d325 dd3d 5496 0b3f 5b10 9fbe
00000300: ad44 953e 1eb3 143e b5fd 63bd b554 ed3e
00000310: c3c5 6bbd 3e6a d0be ccad 0b3e d5c8 003f
00000320: b290 a13e 2d67 b1bd 31d2 15be 9a5a 3abe
00000330: 1aea 113e 6d1c 05bd fb3b cd3d 9741 5bbe
00000340: d728 bfbc 23fd dc3d a701 a83d 2cb2 a2bd
00000350: bb98 95be 4e58 ffbd db1d 013e da00 20be
00000360: e25e 193f 7530 f43e 0f60 553e 62a9 433d
00000370: 6756 903d ecb3 53bd 6418 dcbd ce36 d13e
00000380: 1d1f 893e 8664 453e e744 283e 560f f23d
00000390: b75e 2dbd 8b61 183d d0e3 c1be d94a e23d
000003a0: 191b e0bd 4bc7 693e 5084 11be 07a1 dc3c
000003b0: 3219 3b3e f840 823d 78ac 8dbe 2c59 48bd
000003c0: 7f92 23bf 5b00 0dbf 4436 a5be e57f bd3e
000003d0: 7b8b edbd ffb5 3d3d 7ff2 f8bd e851 dd3d
000003e0: 4e29 95be b13e 423e 7d02 143e fbdb 66be
000003f0: 260e 5f3e adda b0be 7b61 2a3e 5e99 e1bd
-0.2218875 -0.15016624 -0.17108808 0.13667363 -0.095388286 -0.00380644 -0.31959596 0.26011395
-0.2755587 -0.38117847 0.063747644 -0.6720354 -0.092071466 0.518379 0.36883593 0.070182115
-0.06369532 -0.27156758 0.2353983 0.05529589 0.45146924 -0.09798917 0.45312798 0.06941747
0.16136588 0.058404643 0.031698465 -0.2449544 0.1875154 0.13530219 -0.3000283 0.5154186
-0.15399304 -0.26034158 0.15838662 -0.17294161 0.36857817 0.44714063 -0.32072052 -0.025985979
0.4836254 -0.27272624 -0.0007336737 -0.28071877 -0.064851694 -0.27191955 0.16618782 -0.06945468
0.018860206 -0.16352312 -0.032533295 0.17416596 0.10929529 0.037748862 -0.039553624 0.30032453
-0.11158008 0.025171496 -0.0024882965 -0.25372604 -0.27095354 -0.057971887 0.27908516 -0.23833025
-0.58353484 -0.2031789 0.07375474 0.01963532 -0.11016315 0.09292598 0.10443456 -0.09515559
-0.035647854 -0.14198887 1.0728372 0.013110612 -0.06620437 0.13559091 0.031472165 -0.24529362
-0.341458 -0.5076872 -0.1993136 -0.09533662 0.17430937 0.0040491265 -0.25179708 -0.1119186
0.17292815 0.25993153 0.14922027 0.5597178 -0.19238979 0.2652202 0.053231016 1.1125616
-0.008465473 -0.101375856 0.6868519 -0.6260167 0.15239617 -0.033249184 -0.11249704 0.14868064
0.27965438 0.09829461 -0.10353841 0.19598183 0.10855583 -0.04787226 -0.13479336 -0.09767894
0.11978101 0.6925017 0.32643667 -0.026904734 -0.13649026 -0.22396077 -0.35454404 -0.06721359
0.19570525 0.31572282 -0.0031696619 0.15898411 0.089596026 0.046175368 0.2577423 -0.3452778
-0.16560727 -0.58226544 -0.062277712 -0.2739105 0.16193126 -0.063218236 -0.0973297 0.5867581
0.17308892 -0.32919282 0.61780643 0.11498252 -0.12198868 0.7144525 -0.07675073 -0.061127465
0.3727735 0.12246478 -0.35844988 0.20025094 0.033782844 -0.16920525 -0.09662316 0.13051349
-0.2580589 0.05446052 -0.2561119 -0.6978614 0.30337635 -0.22442885 -0.06815759 0.33440232
0.18882905 -0.09519801 0.030905116 -0.09202408 0.19168504 0.100550674 0.051695734 0.06721967
-0.009770447 -0.1847912 -0.0033349544 0.39509505 -0.39828014 -0.05634303 0.065228485 -0.25534746
0.41444817 -0.1999558 0.24338566 -0.09835773 0.1305483 0.019036343 -0.58779883 0.117487535
-0.107616186 0.38987342 0.01093937 0.08941984 0.09218723 0.1079823 0.5452626 -0.31067166
0.29153958 0.14521453 -0.055661876 0.4635369 -0.057561647 -0.40706056 0.13640517 0.50306445
0.31555706 -0.08662257 -0.14630963 -0.18198624 0.14249459 -0.032497812 0.10021206 -0.2141174
-0.023334904 0.107904695 0.0820344 -0.0794414 -0.29218087 -0.12468015 0.12609045 -0.15625325
0.59910405 0.4769322 0.20837425 0.047768958 0.0704773 -0.05168526 -0.1074684 0.40862125
0.2678155 0.19276628 0.16432534 0.11819331 -0.042326655 0.0372024 -0.3786912 0.11049432
-0.109426685 0.2282993 -0.1421063 0.026932253 0.1827133 0.06360048 -0.27670646 -0.048913166
-0.6389541 -0.5507867 -0.32267964 0.37011638 -0.115988694 0.046316143 -0.121556275 0.10806638
-0.29133075 0.18969227 0.14454074 -0.22544853 0.21782741 -0.34541836 0.16638748 -0.110155806
